RNNs/NAMES_GENERATOR/RNN.pth (torch, 455907 bytes, 6 tensors)

lstm.weight_ih_l0 f4 [512, 77]
000000 75 d8 c6 bf 8e 45 b8 bd 03 46 27 c0 60 f5 fc bf
       -1.5534807 -0.089976415 -2.6136482 -1.9762383
000010 91 cc 01 c0 f0 51 a9 40 a8 ce b3 bf 1e fe 7e bf
       -2.0281107 5.291252 -1.4047441 -0.996065
000020 b1 06 bd 40 bd 6a 73 3f 37 38 d7 3f d8 9e e5 bf
       5.907067 0.95084745 1.681403 -1.79391
000030 c8 18 07 c0 b5 af d6 3e 61 07 4e c0 84 e8 ce be
       -2.1108875 0.4193093 -3.2192004 -0.4041177
000040 63 a6 8c bf 62 fb 60 bf 5b 45 bd bf 1f 4d 96 be
       -1.0988277 -0.8788358 -1.4786791 -0.29355714
000050 06 59 da be ba 76 14 c0 9a 63 58 bf 44 e3 cb 3e
       -0.42646044 -2.3197465 -0.8452698 0.39821827
000060 99 4c 12 c0 b2 e2 13 c0 58 15 8d 40 a4 a0 76 bf
       -2.2859251 -2.3107114 4.4088554 -0.9633887
000070 72 6e 1f c0 09 89 37 c0 54 bf 86 3d 2b 5a db bf
       -2.491116 -2.867739 0.06579462 -1.7136892
000080 a1 d3 ae 40 aa 05 8e 3f 7b 4b 11 3d 03 77 23 c0
       5.4633336 1.1095479 0.035472374 -2.554139
000090 94 12 1f 3f 39 0d d0 bf 3f 40 08 c0 91 26 33 3f
       0.6213772 -1.6254035 -2.1289213 0.6998072
0000a0 4e 1f de bf 9a 62 6d 3e 72 77 92 40 f0 72 3c bf
       -1.7353303 0.23182145 4.5770807 -0.7361288
0000b0 bc 9e 56 3f 47 09 f2 3f df 1d d0 3e 44 74 f9 bf
       0.8383596 1.8909081 0.4064779 -1.9488606
0000c0 84 1e 0c 3f 73 a3 23 bf f7 00 16 c0 1b 30 f9 bf
       0.54734063 -0.6392128 -2.343809 -1.9467806
0000d0 06 c5 d5 bf 0c fa c4 3f 02 3f d9 bf 88 2e 0f c0
       -1.6700752 1.5388808 -1.6972353 -2.237215
0000e0 f5 56 b0 40 1e 5b 11 3f ae 94 d3 3f db 30 40 c0
       5.510615 0.5677966 1.6529748 -3.002982
0000f0 69 8a 6e bf e0 7f 7f bf a5 a5 83 40 b0 5d 4f c0
       -0.9317995 -0.99804497 4.1139703 -3.2400932
000100 9e 03 13 3c 0d d0 45 bf 94 e7 60 bf d7 5b 9b 40
       0.00897303 -0.77270585 -0.8785336 4.854961
000110 86 7a 94 bf 2a d2 b7 be 3a 0b ff 3f 58 b4 b2 bd
       -1.1599891 -0.3590253 1.9925301 -0.08725804
000120 1b 69 11 40 b8 41 4d 3c 4a 02 6f be 5c 47 85 be
       2.2720401 0.012527876 -0.23340717 -0.26031005
000130 fb 49 94 3d 99 93 c7 bf 2f 10 bc 40 80 4f 44 be
       0.07240673 -1.5591918 5.8769755 -0.19170952
000140 0a df 79 40 4c b6 d8 bf 97 ed 67 be f6 7b 17 3e
       3.9042382 -1.6930633 -0.22649227 0.14793381
000150 6b 89 02 40 4b 82 c6 bf 73 6a c4 bf 17 fd e2 bf
       2.0396373 -1.5508512 -1.5344986 -1.7733487
000160 87 ad b2 3f 04 a5 e0 bf 3c 23 81 bf 96 9d c5 3e
       1.3959206 -1.7550359 -1.0088878 0.3859679
000170 35 8b 03 40 ff 65 b6 bf e0 f8 d4 be 54 ed 50 c0
       2.0553715 -1.4249877 -0.41596127 -3.2644854
000180 dd d0 09 c0 e0 a8 a0 3f 7c 6e 05 c0 4e 8c 5f bf
       -2.153373 1.2551537 -2.0848684 -0.8732346
000190 2a 36 51 be e4 43 9d bc 27 f0 c8 3e eb d4 26 c0
       -0.20430818 -0.019197412 0.39245722 -2.6067455
0001a0 2e 71 18 c0 65 19 59 c0 b3 ee f2 bf bb bd 22 bf
       -2.381908 -3.392175 -1.8979095 -0.63570756
0001b0 f7 e3 06 c0 34 04 05 40 f8 0e fb bf c6 c7 81 3f
       -2.1076639 2.0783815 -1.9613943 1.0139091
0001c0 92 2b d9 bf a5 5f 49 40 33 f5 40 40 24 e9 1b c0
       -1.6966422 3.1464627 3.0149658 -2.4361048
0001d0 55 d7 a3 3f ee 70 c6 be 91 9e e6 3f 35 f9 0d 40
       1.2800089 -0.38758034 1.8017141 2.2183354
0001e0 04 72 c8 bf a7 fe f5 bf 65 e3 4f 40 7a 41 89 40
       -1.5659795 -1.9218339 3.248254 4.2892427
0001f0 8f 5d f1 3f ca 24 63 3f a0 02 7c 3d 70 8e 8f 40
       1.8856677 0.8872801 0.06152594 4.4861374
000200 ca 6d 0a 3c 7a 74 89 be 77 14 17 40 4d d9 78 40
       0.008449027 -0.26846677 2.360624 3.888263
000210 d0 bc 1f c0 df 11 3a c0 7c 08 1d bf be d4 09 bf
       -2.4958992 -2.9073408 -0.6134107 -0.53840244
000220 50 22 5f 40 f7 23 85 40 a2 89 df 3d 51 a3 4d 40
       3.4864693 4.1606402 0.10914923 3.213093
000230 3f 29 33 40 bd a2 54 40 45 5f 32 40 7e 18 76 bf
       2.7993925 3.3224328 2.7870648 -0.9613112
000240 32 38 9c bf 44 35 4b 40 45 02 b8 bf 19 db bc be
       -1.220465 3.175126 -1.4375693 -0.36885908
000250 a0 7b 75 bc 17 2f cb 3e 1a 76 0e bd 81 19 1f 40
       -0.014983088 0.39684364 -0.0347806 2.4859316
000260 1f eb 4e 3f 6b 69 95 3d 2c 18 10 bf 00 04 a7 3d
       0.80827516 0.072954975 -0.56286883 0.0815506
000270 cf a4 94 bf b5 c7 a7 bf f5 b3 92 bf 9b 73 a6 bf
       -1.1612796 -1.3107821 -1.1461169 -1.300403
000280 ea cf aa bf dc 91 3a 40 8c 08 1f c0 2a ff 10 c0
       -1.33447 2.9151525 -2.4848967 -2.265574
000290 e8 d5 87 bf ed da 1d 3f ed 16 90 40 90 9c 43 c0
       -1.0612154 0.6166218 4.5027986 -3.0564308
0002a0 3c 5d 81 40 3a ff dd bf 5c 55 40 bf 81 59 e9 bf
       4.042631 -1.7343514 -0.7513025 -1.823044
0002b0 c5 30 78 3f 25 97 b9 be d7 1c 06 c0 12 c4 2a bf
       0.96949416 -0.36248127 -2.0955102 -0.6670543
0002c0 02 f4 2e 3f 4c a8 df bf e1 e2 7f 40 44 f1 fc be
       0.68341076 -1.7473235 3.9982226 -0.4940282
0002d0 6b 09 01 c0 ac 4d 92 40 0e be c8 3b 23 ee 16 40
       -2.0161998 4.5719814 0.006126172 2.3582847
0002e0 c5 e3 fd be 7c ee 29 3f 5a 33 e3 be 04 0f 09 3f
       -0.49587837 0.66379523 -0.44375116 0.5353854
0002f0 90 bb 33 3f a5 70 7f be 9f 34 e4 bd 79 b9 08 c0
       0.7020807 -0.24945314 -0.11142849 -2.1363204
000300 5c cc 4f 3f 4e bf 64 bf 90 e5 b6 3e ae eb 99 40
       0.811712 -0.8935441 0.35722017 4.8100195
000310 aa c7 aa bf e6 c2 e7 be f3 1c 63 bf 17 ad 32 bf
       -1.3342183 -0.45265883 -0.8871605 -0.69795364
000320 51 66 e0 3f 20 8c 36 40 4a 74 d5 3f 45 fa 92 bf
       1.7531224 2.8523026 1.6676114 -1.1482626
000330 2b 62 12 c0 a9 2d ab bf 42 97 bf bf 4c 62 6c bf
       -2.2872417 -1.3373309 -1.4968035 -0.9233749
000340 a0 ac 44 bf be 85 8f 3f 4d 76 1d 3f 09 f3 ef 3f
       -0.76825905 1.121269 0.6150864 1.8746043
000350 90 81 94 be 01 b4 09 3c 94 67 35 3f ea d2 d0 be
       -0.29005098 0.008404733 0.7086117 -0.40785915
000360 19 9b c0 bf 92 05 08 c0 a1 5d d6 bf 15 6e ba be
       -1.5047332 -2.12534 -1.6747323 -0.3641211
000370 95 5a d3 be 95 d3 4f 3e 23 8c 75 3c a8 2f 00 c0
       -0.41280046 0.20295556 0.0149870245 -2.0029087
000380 fd ed 17 be 68 95 9d bc cc 23 c9 3e 66 34 4f 3d
       -0.14836879 -0.019236282 0.39285123 0.05058708
000390 ac f1 3f 3d f5 db 47 bd 38 83 29 bc d2 ad fe bf
       0.046861336 -0.04879375 -0.010346226 -1.9896796
0003a0 de d0 bb bf 4f bd 3e bf b0 d3 6b 40 7b 6e 00 c0
       -1.4673116 -0.7450761 3.6847954 -2.0067432
0003b0 f5 46 1e c0 8e fe e2 bf 52 51 10 c0 fb 98 b5 bf
       -2.4730809 -1.7733934 -2.2549634 -1.4187311
0003c0 f9 4b a2 bf dd bb c7 bf 0d c2 ab bf cf 1c d9 bf
       -1.2679435 -1.5604206 -1.3418595 -1.6961917
0003d0 b3 e8 0d 40 81 97 89 c0 44 39 f5 be 45 24 26 c0
       2.2173278 -4.299744 -0.47895253 -2.5959637
0003e0 7f c1 bc 3f 8b ec a7 3f f9 86 e1 3f 07 86 6b c0
       1.474655 1.3119062 1.7619315 -3.6800554
0003f0 48 9f 41 3f 81 e1 d1 3f 89 53 18 c0 8a 25 48 c0
       0.7563367 1.6396943 -2.3800986 -3.1272912

lstm.weight_hh_l0 f4 [512, 128]
000000 12 74 61 3d 39 92 96 3d 3c 79 8c 3c 00 52 1c bc
       0.055042334 0.073521085 0.017147653 -0.009541035
000010 40 f4 ed bc 58 b2 96 bd 9f c3 68 bd bc 9c 8a bd
       -0.029047132 -0.07358235 -0.056827184 -0.06768176
000020 20 a6 e5 3b 40 fd 21 3c 32 51 71 3d a0 60 73 3b
       0.007008329 0.00988704 0.058915325 0.003713645
000030 9c dd 92 bd cd ce 58 bd 3e 19 ad bd 96 d4 6b 3d
       -0.07171175 -0.052931596 -0.0845208 0.057575785
000040 fd d9 a5 3d 4c 7b 4f bd dc ba 36 bd 60 cf 3b bc
       0.080982186 -0.050654694 -0.044611797 -0.011463016
000050 52 2a 36 bd 01 af a5 3d e0 46 8a 3c 43 60 82 3d
       -0.044473954 0.0809002 0.016879499 0.06366017
000060 7e 80 5b bd 50 b5 80 bc 17 5c 97 3d c1 c5 98 bd
       -0.053589337 -0.015711457 0.073906116 -0.074595936
000070 26 fb 3e 3d 46 2e 26 3d 70 01 b4 bb 9d f8 a0 3d
       0.046626233 0.040571474 -0.0054933354 0.07859919
000080 3e ca 35 bd 54 7e 22 bd eb a8 8a 3d bc 96 90 3c
       -0.044382326 -0.039671257 0.067705 0.01765
000090 8e 15 31 bd 00 78 22 ba 60 68 dd 3c de b8 9e bd
       -0.043233447 -0.0006197691 0.027027309 -0.07750104
0000a0 d8 87 9d 3c 58 ef 66 3c ae 29 64 3d 72 14 16 3d
       0.019229814 0.01409515 0.05570381 0.036640592
0000b0 27 3f 61 bd bd 6e 9d 3d fe 30 19 bd c3 fe 9e bd
       -0.054991867 0.07687137 -0.03740024 -0.07763436
0000c0 10 f4 bf bb d9 80 1c bd df dd a9 3d 2b a2 89 3d
       -0.005857952 -0.038208816 0.08294272 0.06720384
0000d0 cf 1e 94 3d ee 01 44 3d 49 03 2a bd 4a 6e 7b 3d
       0.07232439 0.047853403 -0.04150704 0.061384477
0000e0 9e 42 0c 3d 1e 58 46 3d 5a 0c e8 bc 00 88 e9 3a
       0.03424322 0.04842388 -0.028326202 0.001781702
0000f0 94 ca dd bc 91 6c a4 3d 71 e8 ab 3d 40 74 da 3b
       -0.027074136 0.0802852 0.08393944 0.00666669
000100 52 85 4e 3d fc 83 86 3c df 46 a8 3d 12 6c 41 3d
       0.050420113 0.016420357 0.082166426 0.047222205
000110 52 28 36 bd b0 6e 0c bd 70 47 f8 3b 2c 7e c7 3c
       -0.044472046 -0.034285247 0.0075768754 0.024352156
000120 28 3c c5 bc 28 12 2f 3c 0d eb 2c bd 76 5f 5f 3d
       -0.024076536 0.010685481 -0.04221635 0.054534398
000130 ce 67 9d bd 3c 46 fb bc 96 9e ac bd 20 9b c9 3b
       -0.07685815 -0.030673139 -0.08428685 0.0061525255
000140 00 d4 e2 b8 6c 0e 9d bd 8f b7 a1 3d 2c ec e7 3c
       -0.00010816008 -0.076687664 0.07896339 0.028310858
000150 28 ac 1e bc 4d d3 95 3d 60 9c 10 3b b9 52 aa bd
       -0.0096846 0.07315693 0.0022065863 -0.08316559
000160 4f f6 8f 3d 90 00 c0 bb d9 09 52 bd 7d bd 85 3d
       0.070294015 -0.005859442 -0.051278923 0.06530283
000170 8e 43 59 3d 58 01 7f bc a9 b9 52 bd 8c a4 90 bd
       0.05304294 -0.015564285 -0.05144659 -0.07062635
000180 65 ea ab 3d e2 75 3d 3d 00 53 85 bd 78 be 74 3c
       0.083943166 0.046255 -0.065099716 0.014937989
000190 be ed 66 3d ec df 7e bd 4a 88 04 3d 11 98 ae 3d
       0.056379072 -0.062225267 0.032356538 0.08525098
0001a0 52 bc 22 3d 75 f6 94 bd 0d ef 38 bd c6 f8 fc bc
       0.039730377 -0.072735704 -0.04514985 -0.030880343
0001b0 98 91 38 3c 48 95 ec 3c 78 f1 f9 3c 8c f2 e6 3c
       0.011265181 0.028879777 0.03051065 0.028191827
0001c0 5c 6e 4f bd dd 06 84 bd 82 6c 8c bd d4 67 e0 bc
       -0.050642356 -0.064466216 -0.06856634 -0.02739326
0001d0 33 77 b0 bd d2 d0 2e 3d fe bb 99 bd e2 af 77 3d
       -0.086164854 0.042679615 -0.0750656 0.06047047
0001e0 b0 3b aa bd 0e 62 4d 3d c1 13 2d bd ad f2 77 bd
       -0.08312166 0.05014234 -0.042255167 -0.060534168
0001f0 ca 80 a8 bd 39 b8 a1 bd e6 64 53 3d 00 23 10 bb
       -0.082276896 -0.07896466 0.051609896 -0.0021993518
000200 e7 62 05 bd 6e d7 61 3d 70 a7 86 bb 64 ed 4c bd
       -0.032565024 0.05513709 -0.0041093156 -0.05003108
000210 10 8c cc 3c 68 28 37 bd 4a 3d 75 3d 93 d4 76 bd
       0.02496913 -0.04471627 0.059872903 -0.06026132
000220 cb 4e 77 bd 6f db 2d bd 82 59 93 bd c3 74 b0 3d
       -0.060377877 -0.042445596 -0.07194807 0.086160205
000230 c7 b1 95 bd 51 77 52 bd 1c 13 db 3c 37 a3 9d 3d
       -0.07309299 -0.05138332 0.02674251 0.076971464
000240 8f 90 93 3d 44 45 c6 3c 08 80 b1 bc da c5 70 3d
       0.07205307 0.02420295 -0.021667495 0.058782436
000250 b4 97 8b 3c c0 c0 82 3a b6 d0 43 3d d8 57 a6 bd
       0.017040111 0.0009975657 0.047806464 -0.081222236
000260 2c 8b 7e bd 94 13 a6 bd ae b1 91 bd ac 02 b5 3c
       -0.062144443 -0.08109203 -0.07113968 0.022096
000270 4f 89 ab 3d 2b 7f 09 bd 0a f8 87 bd e8 22 74 bc
       0.08375799 -0.033568542 -0.066391066 -0.0149009
000280 4c 1a af bc b7 32 97 bd d8 f3 98 3c bc ab 05 3d
       -0.021374844 -0.0738272 0.018670961 0.03263448
000290 fc b3 c8 bc 8d 7b aa 3d 55 82 00 bd b5 ee 92 3d
       -0.024499886 0.08324347 -0.031374294 0.07174436
0002a0 f2 50 32 3d f6 ed 2a 3d d6 20 5b 3d eb 70 17 bd
       0.043534227 0.041730843 0.05349811 -0.03697292
0002b0 dc 84 90 3c 8c f1 e6 bc 48 1b 81 bc f3 4e 92 3d
       0.017641477 -0.02819135 -0.015760079 0.071439646
0002c0 ac 7b 9d bc 67 6c 49 bd cb 31 a4 3d c0 ac 27 bd
       -0.01922401 -0.049175646 0.0801731 -0.04093623
0002d0 17 66 b4 3d 54 66 ce 3c c8 43 63 bc 30 55 06 3d
       0.088085346 0.025195278 -0.013871141 0.032796085
0002e0 4d f5 82 bd e6 31 48 3d 31 c9 7d bd 68 87 8d bd
       -0.06394444 0.04887571 -0.06195945 -0.06910592
0002f0 5c 50 8b bc 39 4f 1f bd c0 93 14 bd 15 30 22 bd
       -0.017006092 -0.038893912 -0.036273718 -0.039596636
000300 10 62 06 3d e8 35 70 3c 05 e3 91 bd 10 1f 99 bb
       0.032808363 0.01466129 -0.07123379 -0.0046728924
000310 e0 f3 6b bd c4 6c ef bc 2e 37 35 3d 1c 20 9d bd
       -0.057605624 -0.029226668 0.044242077 -0.0767214
000320 04 1a 68 bd b0 ef 0a 3c f7 46 ae 3d 7c ee f1 3c
       -0.056665435 0.0084799975 0.08509629 0.029532664
000330 e0 d8 fd bb 83 ea 89 3d 27 3a 87 bd 00 a8 cf ba
       -0.007746801 0.06734183 -0.066028886 -0.0015842915
000340 58 65 30 3c a8 d1 09 3d 98 0e c8 3c 03 f1 09 bd
       0.01076635 0.03364721 0.024421021 -0.033677112
000350 7c 4b b3 bd 00 bc d7 38 6b 39 70 bd 13 49 97 3d
       -0.08754632 0.000102870166 -0.058648508 0.07386985
000360 08 50 e3 3c 52 fb 7f 3d a2 76 77 3d 40 07 47 bb
       0.027748123 0.062495537 0.06041587 -0.0030369312
000370 46 44 34 bd cf 4c ad 3d b0 75 be 3b 8e 16 5a bd
       -0.044010423 0.08461916 0.0058123693 -0.053244166
000380 dc fa aa bc 96 36 9e bd 94 09 c9 3c cd 3d 27 bd
       -0.020871572 -0.07725255 0.0245407 -0.040830422
000390 ac d8 95 3c e9 18 ae 3d 68 8f f6 3c 66 ca 13 bd
       0.018291794 0.08500845 0.030097678 -0.036081694
0003a0 d0 ce f6 3c 53 1c 95 bd 92 ce 2c 3d e1 22 98 3d
       0.030127913 -0.07280793 0.04218919 0.074285276
0003b0 66 b2 1e bd 86 a3 68 3d b8 dc a6 3c 40 0c e9 3c
       -0.038744353 0.056796573 0.020368919 0.028448224
0003c0 81 75 47 bd 08 e6 74 3c d6 05 65 bd 0e f2 6f 3d
       -0.048696045 0.014947422 -0.05591377 0.05858045
0003d0 87 85 8f 3d 6a b9 21 3d 1c 51 e4 3c 7e 44 13 3d
       0.0700789 0.039483465 0.027870707 0.03595399
0003e0 be b1 8f bd 80 a8 03 3c ff af 90 3d 9e ae 8e bd
       -0.070163235 0.008035779 0.070648186 -0.06966899
0003f0 43 8e a8 3d 56 f4 5b 3d 3e 0f 79 bd 8f 3e 97 bd
       0.08230259 0.053699814 -0.06080555 -0.07384979

lstm.bias_ih_l0 f4 [512]
000000 7a 57 84 bf 60 db 32 bc 65 45 34 bf 64 5a b9 bf
       -1.0339196 -0.010916561 -0.7041839 -1.448071
000010 1a c7 60 be 71 17 e4 be 12 ec 87 bf 0f 7c 81 bf
       -0.21950951 -0.44549134 -1.0618918 -1.0115985
000020 48 08 1a bf 4a 11 0b bf f4 7b 60 bf 11 18 63 bf
       -0.60168886 -0.54323256 -0.8768914 -0.887086
000030 a1 e9 87 bf c1 30 10 bf c4 27 9e bd 2c 0a 82 bf
       -1.0618173 -0.5632439 -0.077224284 -1.0159354
000040 d4 c4 fd be 76 a8 0c 3d 92 06 13 bf cd 1f 08 bf
       -0.4956423 0.034340344 -0.574319 -0.53173524
000050 f2 83 e6 bf 11 5b 56 bf fa 7b 7a be 29 da 2d bf
       -1.8009017 -0.83732706 -0.24461356 -0.6791101
000060 c4 ad 83 bf 10 af 08 bf f7 43 b6 be 89 a2 f8 be
       -1.0287404 -0.53392124 -0.35598728 -0.48561504
000070 2a 19 00 bf 42 22 4f bf 4a 58 2e bf 2c 85 3d bf
       -0.500384 -0.8091165 -0.6810347 -0.7403133
000080 25 7a 3c bf 5a b0 62 bf 8e 83 fb be f4 78 e6 be
       -0.7362388 -0.8855034 -0.49123806 -0.45014155
000090 1b f7 b3 bf ab 35 06 bf 9d 48 99 be eb cc 00 bf
       -1.4059786 -0.5242564 -0.29938212 -0.5031268
0000a0 6d ec 59 bf bb 17 7e be d8 8d 9b bf 6a 0d 98 bf
       -0.8512638 -0.2481374 -1.2152662 -1.1879094
0000b0 50 9f b8 bf 2d 32 63 bf 68 49 9b bf 96 e2 6a bf
       -1.4423618 -0.8874844 -1.2131777 -0.9175199
0000c0 a8 39 5d bd 12 15 ac be 4d d0 11 bf 80 f6 27 3e
       -0.054010063 -0.33609825 -0.56958467 0.16402626
0000d0 a5 15 1c bf bf b6 a8 bf 92 c3 91 bf 24 35 b5 be
       -0.60970527 -1.318077 -1.1387808 -0.35392106
0000e0 ec 7b 79 be 7c 4f e7 3e de ed fa be ef 36 af bf
       -0.24363679 0.4517783 -0.49009603 -1.3688639
0000f0 83 02 7e bf 7b fb 1c bf 53 20 2d bf 84 3a 9e be
       -0.9922258 -0.6132123 -0.6762745 -0.3090402
000100 71 10 80 bf 41 b5 e5 bd f2 34 ee bf 5c b7 00 bf
       -1.0005018 -0.11216212 -1.8609908 -0.50279784
000110 32 48 c8 3d f9 9b c6 be bd 0d a4 bf 4d 54 25 3b
       0.09779395 -0.38790873 -1.2816693 0.002522725
000120 ef 92 90 bf dc 69 90 bf d7 68 78 bf b8 1a 14 bf
       -1.129484 -1.1282306 -0.9703497 -0.5785327
000130 94 a6 5e be b6 8e eb be 39 6c d6 bf ee de 84 bf
       -0.21743232 -0.46007317 -1.6751777 -1.0380533
000140 f0 b0 8e bf 9c 19 c2 3d 7a 06 05 c0 e5 b4 30 bf
       -1.1147747 0.09477541 -2.0785203 -0.69026023
000150 ee da 5f bf a3 0f 1d bf cc bc 13 bf eb 0e 87 bf
       -0.87443435 -0.61351985 -0.57709956 -1.0551428
000160 57 bb 22 bf 71 1b 98 bf af 5b 07 bf 7f d1 8a bf
       -0.6356711 -1.1883374 -0.52874273 -1.0845183
000170 69 33 37 bf 7a 0c b3 bf 50 98 27 3d af e1 69 bf
       -0.7156282 -1.3988183 0.04091674 -0.9135999
000180 90 74 38 bf 0c fa a5 bf ee a8 b1 3e 77 1b c2 be
       -0.7205286 -1.2966933 0.34699196 -0.3791158
000190 00 3f 2b bf 73 6c 72 bf 1b 5f bf bd e5 b2 5d bf
       -0.66893005 -0.9469673 -0.09344312 -0.86601096
0001a0 c8 ec e5 bd eb ff 9c be 0a f1 88 be 51 59 9d bf
       -0.11226803 -0.30664 -0.26746398 -1.2292882
0001b0 3c 59 68 bf f0 a7 81 be 0b d5 00 bc e2 f6 c0 be
       -0.9076116 -0.2532344 -0.007863293 -0.37688357
0001c0 28 f6 15 bf 82 df c9 bf fc 01 86 bf 26 c0 cb be
       -0.5857873 -1.5771334 -1.0469356 -0.39795035
0001d0 c1 a3 ad bf 6b 1d 55 bf 92 1b 32 bf 1a f3 4d bf
       -1.3565599 -0.83248013 -0.6957332 -0.8044907
0001e0 f2 7a 96 be ce fe c7 bf 50 4e 1c bf 8a 02 c1 be
       -0.29390675 -1.5624635 -0.61056995 -0.3769725
0001f0 de f4 da be 3a fc 78 bf 47 90 23 bf 1b c2 72 bf
       -0.42764944 -0.9725987 -0.63892025 -0.9482743
000200 e4 7d b4 3c 92 b4 7c bd a9 0f 88 3d e0 aa f5 3c
       0.022032686 -0.061695643 0.06643612 0.029988706
000210 c4 5c eb 3c ce 23 6c 3d 8f 93 b4 bd 85 27 94 3d
       0.028730758 0.057651334 -0.08817207 0.072341
000220 0e 96 4a 3d 4a 42 35 3d 2e f8 56 3d d0 e4 2e 3c
       0.04945951 0.04425267 0.052482776 0.01067467
000230 22 07 42 3d 08 2a 87 bd 12 cf 21 3d 5a 42 0e 3d
       0.047370084 -0.06599814 0.03950412 0.034731247
000240 24 0d f1 bc 40 4d 98 bc 4b 30 8c 3d 97 51 9b 3d
       -0.029425211 -0.018591523 0.06845149 0.075839214
000250 41 2b 84 3d af 87 97 bd 98 a9 70 bc 6d 9c 39 bd
       0.064535625 -0.073989265 -0.014688872 -0.045315195
000260 13 a4 34 bd db 7b 8c 3d ca a4 79 3d 07 94 8b 3d
       -0.044101786 0.06859561 0.06094817 0.06815343
000270 84 5b bb bc a0 bd 3e 3b 14 62 0d 3d c0 27 cc 3b
       -0.022870786 0.0029104725 0.034517363 0.0062303245
000280 46 a9 8b bd b2 af 2f 3d 66 a2 27 3d 55 7e 32 bd
       -0.06819396 0.042892165 0.04092636 -0.04357751
000290 88 72 3c bc c8 eb 8f bd ad e5 90 3d 49 ea 13 bd
       -0.011501916 -0.070273936 0.07075057 -0.036112104
0002a0 c6 b4 db bc d2 b9 2b 3d 45 1d af 3d b0 68 aa 3b
       -0.026819598 0.04192526 0.085505046 0.005200468
0002b0 96 de 27 3d cf 3d 3d bd cc ee 14 3d 9e 61 65 bd
       0.04098376 -0.046201523 0.036360547 -0.056001298
0002c0 35 3c a6 3d a0 0a 1b bc 78 bf 68 bc d5 3d 94 3d
       0.08116952 -0.009462982 -0.014205806 0.07238356
0002d0 f8 b6 a2 bc 68 64 1f bc 08 28 cb 3c 7e 34 47 3d
       -0.019862637 -0.009728529 0.024799362 0.048634045
0002e0 62 2f 95 bd 20 98 3d bb 60 95 3f bc d8 45 7a bc
       -0.07284428 -0.0028929785 -0.011693329 -0.015275441
0002f0 fa 87 6a 3d 10 16 58 3c 50 20 b2 bb 98 9d 6e 3c
       0.057258584 0.013188854 -0.005435981 0.01456394
000300 65 a2 04 bd f0 fc 1b bd 06 0d 2e 3d a0 ef 00 3b
       -0.032381434 -0.038083017 0.04249289 0.0019674078
000310 5c 4c 6b bd 0c 9c 90 bd 10 7b a3 3b c0 5a a8 3a
       -0.05744587 -0.070610136 0.0049890354 0.0012844428
000320 d8 a7 aa 3c bc 7d 8b 3c 5a 99 7f 3d 7d 91 88 3d
       0.020831987 0.017027728 0.062402107 0.06668375
000330 5e f6 ac bd 60 91 15 bc 80 c3 9c ba 8c 53 93 3c
       -0.08445428 -0.009128898 -0.0011960119 0.017984174
000340 0a 7d 6f bd 58 60 a7 3c 4c 86 d4 bc c0 df c2 3a
       -0.058468856 0.020431682 -0.025942944 0.0014867708
000350 8d 27 05 bd 4a ed d9 bc 66 3c 34 3d 00 d1 42 bb
       -0.03250842 -0.026602406 0.044002913 -0.0029726624
000360 00 51 c6 3c 0c eb db 3c 76 2d ac bd f0 d1 58 bd
       0.024208546 0.026845478 -0.084071085 -0.052934587
000370 ce 53 27 3d 26 15 18 3d 00 7e 99 bd 40 98 61 3b
       0.040851407 0.037129544 -0.07494736 0.0034423023
000380 00 28 18 3c e0 9a 30 bb 5d c3 93 3d 97 ff 89 3d
       0.0092868805 -0.0026947781 0.07214997 0.06738203
000390 2d cb 80 3d c3 f5 ae 3d 90 e6 20 bc 10 3f e7 3b
       0.06288753 0.08542969 -0.009820595 0.007057078
0003a0 c1 7e 45 bd 5e 5e 3c 3d 57 9d 7f bd e2 81 90 bd
       -0.048216585 0.045988433 -0.06240591 -0.07056023
0003b0 40 15 f1 bb d8 9b ab 3c 97 31 71 bd 31 24 9b bd
       -0.0073572695 0.020948336 -0.058885183 -0.07575262
0003c0 4e ab 6c bd c0 ba f4 3b ff 41 9a 3d d8 d4 b5 3c
       -0.057780556 0.0074685514 0.07532119 0.022196218
0003d0 a0 34 76 3b 51 97 90 bd 7b 41 29 bd 20 a0 2b bd
       0.0037567988 -0.07060111 -0.041322213 -0.041900754
0003e0 de 1e a7 bd 12 02 8f bd 91 80 97 3d 50 4d a5 bd
       -0.08160184 -0.06982817 0.07397569 -0.08071387
0003f0 c3 ef 97 3d 1e 94 76 bd e0 61 ee bb 1e 9c 44 3d
       0.07418778 -0.06019985 -0.007274851 0.048000447

lstm.bias_hh_l0 f4 [512]
000000 e0 73 8b bf d4 d8 7b bd d9 08 34 bf 95 de be bf
       -1.0894737 -0.06148608 -0.70326 -1.4911677
000010 bc 39 a7 be bf 34 0b bf 32 c0 71 bf 9a 67 8f bf
       -0.32661235 -0.5437736 -0.9443389 -1.1203492
000020 a9 c5 03 bf 7f 26 d1 be d7 88 68 bf 35 29 54 bf
       -0.5147348 -0.40849683 -0.908338 -0.82875377
000030 ae 9d 92 bf 67 b3 eb be 10 33 86 bc d2 08 89 bf
       -1.145437 -0.4603531 -0.01638177 -1.0705817
000040 9d 32 02 bf a2 40 f9 3d 7b c5 2a bf 59 21 12 bf
       -0.5085848 0.12170531 -0.6670758 -0.57082134
000050 9b 35 d8 bf 41 d6 68 bf 02 f5 b5 be f0 d0 42 bf
       -1.6891359 -0.90951926 -0.3553849 -0.76100063
000060 a1 78 62 bf 2c 4d 06 bf 83 6e a1 be a2 5e ce be
       -0.88465315 -0.52461505 -0.31529626 -0.40306574
000070 1f 3d 06 bf 49 8b 27 bf 67 aa 0a bf 29 9d 39 bf
       -0.52437013 -0.6544691 -0.54166263 -0.7250543
000080 f3 ec 4b bf fc 02 71 bf 6e 0e e8 be 14 f9 e5 be
       -0.7965843 -0.9414518 -0.4532351 -0.44916594
000090 b7 3b b3 bf 8b 57 07 bf da 35 a3 be cf 81 06 bf
       -1.4002599 -0.52867955 -0.31877023 -0.5254182
0000a0 ca 61 43 bf 47 36 32 be f1 06 9b bf 0c 44 8b bf
       -0.7632109 -0.17403518 -1.2111493 -1.0880141
0000b0 c6 8a b7 bf f1 f0 72 bf d2 bb a6 bf 30 39 61 bf
       -1.4339225 -0.948989 -1.3026068 -0.87977886
0000c0 4d 11 c3 bd ab a8 d8 be 98 4f d2 be 63 3c 8f 3e
       -0.09524784 -0.42316183 -0.4107635 0.2797576
0000d0 a8 fc 29 bf e7 48 b6 bf 98 aa 9c bf a3 7d 8a be
       -0.6640115 -1.4240998 -1.2239561 -0.27048978
0000e0 4c 73 c4 be e4 a6 dd 3e 26 e6 0e bf 3c 72 aa bf
       -0.38369215 0.4329139 -0.5581993 -1.3316112
0000f0 9c 50 87 bf 30 dd 12 bf a7 49 39 bf 76 11 8d be
       -1.0571475 -0.57368755 -0.7237801 -0.27552384
000100 4d 87 65 bf 61 7b 31 be 74 d4 f2 bf 1b 10 f1 be
       -0.8965958 -0.17332222 -1.8971086 -0.470826
000110 30 32 8b 3d ff ae c4 be d8 3f 99 bf ca 2a c3 bc
       0.06796682 -0.3841476 -1.1972609 -0.023824114
000120 bf 0a 93 bf 73 42 94 bf 9c d2 70 bf 8e cd 13 bf
       -1.1487654 -1.1582779 -0.94071364 -0.57735527
000130 36 bb 00 be 36 1c d0 be 81 0b c8 bf b7 82 79 bf
       -0.12571415 -0.40646523 -1.5628511 -0.9746508
000140 21 0f 9a bf 81 78 a2 3d f6 c8 0a c0 d6 e5 2e bf
       -1.2035867 0.079331405 -2.1685157 -0.6831945
000150 5c a8 52 bf fd c7 26 bf ff 4c 13 bf b0 b2 87 bf
       -0.82288146 -0.6514891 -0.5753936 -1.0601406
000160 0a 48 2b bf 4e 68 96 bf 69 b3 08 bf 78 6f 8c bf
       -0.669068 -1.1750581 -0.5339876 -1.0971518
000170 49 60 47 bf 2c 72 aa bf d0 c5 0e bd c4 56 6b bf
       -0.77881294 -1.3316092 -0.034856617 -0.9192927
000180 be f4 29 bf ce b2 ae bf b6 fc 91 3e 34 3d e5 be
       -0.6638907 -1.3648317 0.28513116 -0.44773257
000190 5e 97 2d bf a8 b0 88 bf c5 eb 03 bd 82 36 59 bf
       -0.67809093 -1.0678911 -0.03220727 -0.848488
0001a0 e2 48 20 be d3 62 ac be ec 72 8b be f7 90 a3 bf
       -0.15652803 -0.33669147 -0.27236116 -1.2778615
0001b0 55 19 80 bf 31 19 2a be 1b ac 0a bd d8 cd ee be
       -1.0007731 -0.16611172 -0.03385554 -0.4664142
0001c0 85 56 27 bf 0c 35 b9 bf a1 21 7c bf 82 cd 0e bf
       -0.65366393 -1.4469314 -0.98488814 -0.5578233
0001d0 5d 5d ae bf 30 1c 3e bf 7d 2d 2a bf df e1 4f bf
       -1.3622242 -0.7426176 -0.6647566 -0.81204027
0001e0 17 e1 a6 be 2f c8 cb bf c0 7d 13 bf 7e e0 c4 be
       -0.32593605 -1.5920466 -0.57613754 -0.38452524
0001f0 f8 ec 01 bf 4d d3 82 bf ae 87 17 bf ac 3b 88 bf
       -0.5075221 -1.0220734 -0.59191406 -1.064321
000200 5c c0 c4 3c b0 65 2f bd ad 80 87 3d c0 29 73 3c
       0.024017505 -0.042821586 0.0661634 0.014841497
000210 0d 42 90 3d c2 ac 86 bd 90 79 ea 3b e3 5f a7 bd
       0.07043848 -0.0657592 0.0071556047 -0.08172586
000220 d0 95 a4 3b 58 c0 c9 bc d1 c9 41 bd 00 02 67 bb
       0.005022742 -0.02462785 -0.047311608 -0.0035248995
000230 aa a4 85 bd be 5a 36 3d 48 35 e6 3c 12 72 25 bd
       -0.06525548 0.044520132 0.028101578 -0.04039199
000240 e0 ea 8a bc b7 9e 92 3d 60 b5 c6 3b d2 06 ac bd
       -0.0169577 0.07159179 0.006064102 -0.08399738
000250 98 84 c9 3c fb 37 b2 3d b6 e0 ee bc 00 fb be 3c
       0.024599358 0.08702084 -0.029159885 0.023313046
000260 40 32 d3 bb f3 ee b2 3d 3a 3d 05 3d a1 48 b4 3d
       -0.0064451993 0.08736982 0.032529093 0.08802915
000270 97 a9 62 bd 90 c1 ff 3b fe e1 52 3d 07 df 80 3d
       -0.055337515 0.007805057 0.051485054 0.06292539
000280 a9 79 9a bd f8 b5 eb bc 6a 18 66 bd 5c 48 63 bd
       -0.07542736 -0.028773293 -0.056175627 -0.05548893
000290 16 2c 19 3d 90 97 a8 bc 37 5f 90 3d 10 5e 97 bc
       0.03739556 -0.020580083 0.07049411 -0.01847747
0002a0 68 e4 41 3c c0 4d 98 bb 20 e5 23 3b a5 61 8d 3d
       0.011834241 -0.0046479404 0.0025008395 0.0690339
0002b0 2a bb 4d 3d 12 2a 4a 3d 38 bf dd bc 0f 84 49 bd
       0.05022732 0.049356528 -0.02706872 -0.049198207
0002c0 40 ab fe 3c 3a 21 27 3d 78 d0 6b bd a2 99 31 3d
       0.031087518 0.04080317 -0.05757186 0.043359406
0002d0 be c9 41 3d 90 4e a6 3b 46 38 4c 3d 8b 78 b0 bd
       0.047311537 0.0050752833 0.049858354 -0.08616742
0002e0 3a dc 25 3d c6 be 46 3d 20 df 05 3c 00 7c 8c bc
       0.040493228 0.04852178 0.008170873 -0.017148972
0002f0 30 60 12 3d e0 1e 4d bd ae c9 db bc b0 fe e5 bb
       0.035736263 -0.050078273 -0.026829567 -0.0070188865
000300 a2 31 6c 3d ad 12 a4 3d 16 fe 25 3d 88 56 7a 3c
       0.05766452 0.080113746 0.04052552 0.01527942
000310 d6 5f d6 bc 20 c3 42 3c 1a 53 1e 3d 5c fc 81 3c
       -0.026168745 0.011887342 0.03865347 0.015867405
000320 00 72 af b9 98 1c a3 bc b7 0c 59 bd 4c 29 97 bc
       -0.00033463538 -0.019911095 -0.05299064 -0.01845231
000330 79 bb a4 bd 82 57 4b 3d a0 53 25 3c b5 0c 5f bd
       -0.0804357 0.049644 0.010090739 -0.054455478
000340 23 d5 6e bd 80 23 a2 bd 39 e8 58 bd f0 ae a0 3b
       -0.05830873 -0.07916927 -0.05295584 0.0049036667
000350 a2 fd 7f 3d 6e 10 a1 bd d0 5f 6e bd 0a c9 00 bd
       0.062497742 -0.07864462 -0.058196843 -0.031441726
000360 d6 14 69 3d d8 fe 11 bc 14 34 b6 bc a1 53 ae bd
       0.056904636 -0.008910857 -0.02224163 -0.08512045
000370 2c 27 cb 3c b6 bf 3e 3d 78 68 10 bc 76 93 3e bd
       0.024798952 0.04656955 -0.00881397 -0.04652735
000380 9a d5 40 3d 46 c1 e5 bc 58 69 e9 3c e9 85 56 bd
       0.047078706 -0.028046262 0.028492615 -0.0523738
000390 ad 76 5c bd 1f f9 8b 3d ae a2 23 3d bc e8 d1 bc
       -0.053824116 0.068346255 0.039950065 -0.025623672
0003a0 c5 04 88 3d 20 5d 36 bc bc 64 bb bc a8 e8 97 3c
       0.06641535 -0.011130601 -0.022875182 0.018543556
0003b0 d4 5f 08 bd a8 f3 90 bd 6f 31 ac 3d 14 ae 83 3c
       -0.033294514 -0.07077724 0.08407866 0.016074218
0003c0 37 57 59 bd 34 aa 31 bd 89 42 a9 3d 0c a3 69 bd
       -0.05306169 -0.04337521 0.08264644 -0.05704026
0003d0 d8 30 14 3c 31 3e ab 3d c6 b2 72 3d 70 14 87 3b
       0.009044848 0.083614714 0.059252523 0.0041223094
0003e0 2f 25 47 bd 60 a7 56 bb b8 10 2c 3c 22 3f 63 3d
       -0.048619445 -0.0032753572 0.010502033 0.05548013
0003f0 c6 6b 72 3d 0a ea 1c bd 8a 1e 8c bd be 2d 5d bd
       0.059184812 -0.038309135 -0.06841762 -0.0539987

mlp_1.weight f4 [59, 128]
000000 72 83 80 c0 00 0e 01 3f c8 5b 96 be 1d cf 60 bf
       -4.0160456 0.5041199 -0.293669 -0.8781603
000010 24 30 d0 bf 06 be ba 3e 06 53 77 3f 56 34 23 3f
       -1.6264691 0.364731 0.9661106 0.63751733
000020 45 cb 0e bf 17 bc 6f bf 16 41 0d bf 25 04 69 3f
       -0.55778915 -0.9364638 -0.5517744 0.9102195
000030 23 71 3d 3f 23 4a c1 3f f8 97 63 3e 60 e7 aa 3f
       0.7400076 1.510075 0.2222594 1.335186
000040 9a e6 01 3f 5e 3f 85 bf 3c aa ca 3f 19 ab 5f 3f
       0.50742495 -1.0409963 1.5833201 0.8737045
000050 42 1a 36 bf 1b 15 24 bf 90 9a 24 3e 13 28 ca bf
       -0.71133816 -0.64094704 0.16074586 -1.579348
000060 e4 58 b7 3f 4a b9 af 3f bb 9b 97 3f 20 f4 89 bf
       1.4324002 1.3728421 1.18444 -1.0777626
000070 7d 03 db be 08 4a 56 bf 38 a6 16 3f 50 bf bb 3f
       -0.427761 -0.8370671 0.5884738 1.4667759
000080 46 00 50 3e 56 64 65 3f cd 81 c2 3e d7 57 9f bf
       0.20312604 0.89606225 0.37989655 -1.2448682
000090 6b 25 a0 3f 4d 9c e9 be de 07 c7 3e d9 27 9b bf
       1.2511419 -0.4562706 0.3887319 -1.2121536
0000a0 c3 c8 ca be f5 28 86 3d 1d 4a f7 39 02 02 95 3f
       -0.39606294 0.06550781 0.0004716673 1.1641238
0000b0 55 83 6b 40 6e 5f b9 3f be 93 95 bf dc 6b 27 40
       3.6798909 1.4482248 -1.1685712 2.6159582
0000c0 9b dc 56 bf 39 e5 b8 3f 88 da 78 3d a3 06 b1 3f
       -0.8393037 1.4444953 0.060755283 1.383015
0000d0 a0 c3 16 be f1 0b 9e 3d dd 37 0c bf 6d 30 93 bf
       -0.14723063 0.077171214 -0.5477274 -1.1499153
0000e0 2e 79 6f 3f fa 62 93 3d 11 0d 27 bf e7 08 82 bf
       0.9354428 0.07196613 -0.6525431 -1.0158967
0000f0 96 c3 8d 3e a1 30 b1 3e d0 5d 02 40 a1 be 60 3f
       0.27688283 0.34607413 2.0369759 0.87790877
000100 21 e9 94 bf 7e d1 78 bf f0 9b 61 3e fd 43 a0 bd
       -1.1633645 -0.9719466 0.22032142 -0.07825468
000110 c0 5a bc 3f 0a b5 56 3f 7c c0 66 bf 62 b3 14 bf
       1.4715195 0.83869994 -0.9013746 -0.58086216
000120 37 a3 d7 3d 75 e8 7b bf f7 22 d5 3e 8b 9f c6 bf
       0.10529178 -0.98401576 0.4162824 -1.5517439
000130 6b 41 ff 3e 98 a5 94 bf bd e5 61 3f bd 6d 4d 3f
       0.49854597 -1.1613035 0.8824118 0.8024557
000140 cf 00 87 3f 8c 62 e1 3d ce df dd 3e 1e 1c 9c 3f
       1.0547122 0.110051244 0.43334812 1.2196081
000150 ac c2 8b 3f 57 fa 8a c0 38 85 ef bf 85 dc c8 bf
       1.0918784 -4.343059 -1.871253 -1.5692297
000160 ee fd a6 3e 5e ed 0c 3d 9b d1 2c bf 86 a3 ca 3f
       0.32615608 0.03440606 -0.6750733 1.5831153
000170 bc a1 8d 3f f3 00 ac 3f 0e 1f f2 3e fb 87 e7 3e
       1.1064982 1.343779 0.47289318 0.45220932
000180 27 25 9c bf 84 b0 c0 be 78 6f ae be 6f a8 c8 3f
       -1.2198838 -0.3763467 -0.3406942 1.5676402
000190 1e 39 5c bf 9a 40 7b bd ca 1e 77 3e 3d b1 af 3f
       -0.86024654 -0.061340906 0.24132839 1.3725964
0001a0 a9 4d c3 3f 9a b8 ff be aa 7e 63 3f 18 55 6b 3f
       1.5258075 -0.49945527 0.8886515 0.9192672
0001b0 63 9d 18 bf 6c 21 a3 3f 69 68 06 c0 44 02 92 be
       -0.59615153 1.2744575 -2.1001227 -0.28517354
0001c0 ca 7c 77 3f c7 ee 47 bf 84 d8 ba 3e 6a 41 ab 3f
       0.9667479 -0.7809872 0.36493313 1.3379338
0001d0 36 48 9a 3f 6c 88 61 bf 70 8a ab 3f fd 61 82 bf
       1.2053287 -0.8809879 1.3401623 -1.0186154
0001e0 68 41 84 3f 08 3e 89 3f 14 c9 0f bf 61 61 8b 3f
       1.033246 1.0722055 -0.56166196 1.0889093
0001f0 0c 8f f1 bf f8 5c 54 3f fd e3 54 3e 08 e0 66 c0
       -1.887178 0.8295436 0.20790096 -3.6074238
000200 32 65 4d 3f 8f 8b 85 c0 7e c7 83 bf a5 ff 6d c0
       0.80232537 -4.173286 -1.0295255 -3.7187283
000210 ce f6 06 3f 79 a2 3b be 8b 75 45 be f2 8e ab 3f
       0.52720344 -0.18323697 -0.1928312 1.3402998
000220 7b 26 e2 be d5 52 33 40 30 9c 54 bf f7 ac 82 3f
       -0.44169983 2.8019307 -0.83050823 1.0209035
000230 08 60 65 bf bf d7 a9 c0 92 b5 ce bf 5b 82 87 3f
       -0.8959966 -5.307586 -1.6149161 1.0586656
000240 97 04 19 be 52 8b 93 bf 45 31 b0 bf 79 bd 63 3e
       -0.14943157 -1.1526892 -1.3765036 0.22240247
000250 8f 04 84 bf 20 58 ae be c1 3e 33 be ee d6 88 3f
       -1.0313891 -0.3405161 -0.17504407 1.0690591
000260 94 f2 3f 3c eb 57 ac 3f 5a dc 44 3f a6 3d e1 3f
       0.01171555 1.346433 0.7689873 1.7596939
000270 b3 46 78 3f 30 7b e3 3f 03 3a 3e bf 4d 93 1b 3f
       0.9698288 1.7771969 -0.7430727 0.6077164
000280 76 98 94 3f 92 38 e9 be 94 60 bf bf 76 91 a4 40
       1.1609027 -0.45550972 -1.4951348 5.1427565
000290 0d fc af bf f1 53 51 3e 30 70 ee 3e b8 53 0d 40
       -1.3748795 0.20442177 0.46569967 2.2082348
0002a0 62 2d a8 3e d9 ec 52 bd e1 40 6e c0 15 b5 45 3f
       0.32847124 -0.051495407 -3.72271 0.77229434
0002b0 a9 1b 59 be 51 53 95 3f b2 90 94 3f a0 b3 11 3f
       -0.21201958 1.1666051 1.1606658 0.5691471
0002c0 26 dc 0e 3f 3a 7d c7 c0 f2 b3 b0 be af 9f 18 3f
       0.5580467 -6.2340364 -0.34512287 0.5961866
0002d0 36 80 87 3e e1 e4 37 bf 87 84 6d 3f 43 e9 74 be
       0.26465005 -0.71833616 0.92780346 -0.23917107
0002e0 6d 33 1d c0 37 e9 74 be 93 f4 10 40 f9 2b 53 be
       -2.4562638 -0.2391709 2.2649276 -0.20622243
0002f0 56 de 50 40 b9 6b aa 3f 02 00 66 bf 4a 3f 31 3e
       3.2635703 1.3314124 -0.8984376 0.17309299
000300 02 a9 96 bf 98 18 a2 3f 69 5f ed bf 36 55 3a 3e
       -1.1770327 1.2663755 -1.8544742 0.18196568
000310 96 7c 8d c0 96 cf d1 bf 38 c6 5a bf e5 9d 89 bd
       -4.4214582 -1.6391475 -0.8545871 -0.06719569
000320 79 82 26 3e bb 24 0c be d3 95 44 bf c1 c5 f4 3f
       0.16260709 -0.13685887 -0.76791114 1.912285
000330 28 f7 c9 3f 71 40 4c 3f 2b 7a f6 3f 48 e0 3f 3f
       1.5778551 0.7978583 1.9256033 0.749516
000340 ee 3c de 3f 8e 5e 34 3f 48 01 44 3f 8b 0d 06 c0
       1.7362344 0.7045678 0.76564455 -2.0945766
000350 54 2f 60 3f 41 27 7a 3f ae 27 2f 40 10 74 5a 3e
       0.87572217 0.97716147 2.7367969 0.21333337
000360 ab ab e2 3f 11 4f 9a bf a5 f6 55 bf f7 71 98 3d
       1.7708639 -1.2055379 -0.83579475 0.07443612
000370 7b 4f c6 3e d9 6f 77 bf 4c 97 d2 3e 92 16 db bf
       0.38732514 -0.9665504 0.41131055 -1.7116263
000380 3a a8 a8 bf bc 5a 0b 40 31 60 69 3f f4 54 85 bf
       -1.3176339 2.177413 0.911624 -1.0416551
000390 22 06 79 3f 62 ec f4 bf 50 ee 08 40 c8 1d 57 3f
       0.9727498 -1.9134638 2.1395454 0.8402982
0003a0 39 d3 8f 3f ca af a8 3f 40 34 15 c0 bc 8f 50 bf
       1.1236335 1.3178647 -2.331314 -0.8146932
0003b0 e1 5e da 3f 6a 93 33 c0 52 c4 db 3f d7 56 7f 3f
       1.7060205 -2.8058724 1.7169287 0.9974188
0003c0 fb a6 cd 3f 7b 1e 26 40 c5 58 d8 be 5f c5 6f 40
       1.6066583 2.5956104 -0.42255226 3.7464216
0003d0 13 4c ea 3f 45 69 91 3f 08 b9 9a c0 3e 72 3f bf
       1.8304466 1.1360251 -4.835087 -0.74783695
0003e0 fc e0 ba bf 3a af a7 3f 46 0d 13 40 d1 9d 3b 3f
       -1.459991 1.310035 2.2976851 0.73287684
0003f0 47 32 84 3f dc b1 01 c0 fd 49 c6 3f 6f 14 a6 3e
       1.0327843 -2.0264807 1.549133 0.32437465

mlp_1.bias f4 [59]
000000 5b 4f a8 3f 7b 8e 0a bf 75 96 2c 3d ec ae 91 3d
       1.3149217 -0.5412366 0.042135675 0.07113442
000010 cb 4a b8 3f fd 05 a2 bf 03 47 e9 3d ab 63 ce 3e
       1.4397825 -1.2658077 0.113904975 0.40310416
000020 a2 c2 8b 3f 5d 06 1a c0 fb 54 9f be ef 65 79 3f
       1.0918772 -2.4066384 -0.31119522 0.97421163
000030 7f bc 01 3f 27 06 b0 3f 05 93 52 3f 13 14 95 bf
       0.5067825 1.3751878 0.82255584 -1.1646751
000040 6e d6 54 c0 37 fd 84 3f 75 45 99 3f f9 fd 55 3f
       -3.3255877 1.0389775 1.1974322 0.83590657
000050 58 40 3b 3e 2d 19 63 bf b5 db bb bf a9 d4 47 c0
       0.18286264 -0.8871029 -1.4676424 -3.1223547
000060 ec 00 86 3d a1 28 9d bf b9 9a a5 c0 54 f9 59 c0
       0.065431446 -1.2278024 -5.175137 -3.4058428
000070 e1 cf 88 c0 cc de 7a c0 1b b5 a4 c0 b5 62 b8 c0
       -4.275376 -3.9198484 -5.1471076 -5.762049
000080 c8 95 88 c0 21 72 6c c0 9c fb 92 c0 74 b4 a7 c0
       -4.268284 -3.6944659 -4.593214 -5.240778
000090 8c bd 70 c0 02 7c 86 c0 1c bf 75 c0 00 53 85 c0
       -3.761569 -4.2026377 -3.8397894 -4.166382
0000a0 6d da 86 c0 dd 6f b0 c0 d9 20 a8 c0 64 8c 87 c0
       -4.2141633 -5.513655 -5.2540097 -4.2358875
0000b0 e4 95 8b c0 53 ad 87 c0 80 18 9e c0 00 9a 9e c0
       -4.362047 -4.2399077 -4.9404907 -4.956299
0000c0 20 78 a5 c0 08 af a4 c0 69 c4 aa c0 83 b3 a2 c0
       -5.1709137 -5.146366 -5.336476 -5.084413
0000d0 08 7d 84 c0 ee 8a a5 c0 4d 7d 72 c0 66 9c a3 c0
       -4.1402626 -5.173209 -3.7888978 -5.1128416
0000e0 08 c7 9b c0 70 45 8f c0 0c 0d ee 3f
       -4.868046 -4.4772263 1.8597732
