RNNs/NAMES_GENERATOR/RNN.pth (torch, 437403 bytes, 8 tensors)

lstm.weight_ih_l0 f4 [512, 59]
000000 22 a4 04 3e 1a d1 a7 3c ec 20 9f 3d 3e 33 2c 3d
       0.12953237 0.02048545 0.07769951 0.042041056
000010 31 d4 d2 3d c7 60 7e 3d 81 3d 93 bd 7b 02 9f 3d
       0.102943785 0.062104013 -0.07189465 0.07764145
000020 71 79 c0 bc 84 9f 32 bd d4 83 ea bd 0e 96 72 3d
       -0.023495408 -0.043609157 -0.114509255 0.059225135
000030 66 5a 85 bd fe 35 17 bd 25 64 cb 3d 0e 7d 09 3b
       -0.06511383 -0.036916725 0.099312104 0.002097908
000040 2a 1f 64 3c d0 56 05 be 9b 27 a1 3b 43 c7 19 be
       0.013923446 -0.13021398 0.0049180514 -0.15017419
000050 bc 4a 9e bc fc a1 d4 3c 03 b2 ab bd ff f6 48 bd
       -0.019322746 0.025956146 -0.083835624 -0.04906368
000060 86 67 97 3d 5f a8 4e bd af ee a8 3c 4f aa 3b 3d
       0.073927924 -0.05045354 0.020621626 0.045816716
000070 b7 a9 3e 3d bb 0e be bc 25 da f8 3d b5 7c 70 3d
       0.04654857 -0.023200383 0.12150983 0.05871268
000080 b7 18 95 3c 3e 84 b3 bd 95 89 78 3d 83 b4 00 3c
       0.018200262 -0.087654576 0.060678083 0.007855537
000090 6b 78 5f 3c b7 46 fa 3d 3d 80 b9 3b 63 80 1e be
       0.01363955 0.12220519 0.005661039 -0.15478663
0000a0 f0 af 12 bd a1 e5 ad bd 4f cc af bc 70 0a 56 be
       -0.03581232 -0.08491064 -0.021459727 -0.20902419
0000b0 ed c0 7d bd b9 77 5d bd 82 2a 09 3e 2e 95 e5 3d
       -0.061951566 -0.054069255 0.13395122 0.112100944
0000c0 27 3c 53 be ae 05 e0 3d f7 50 fa bd 66 b4 59 bd
       -0.20628415 0.10938583 -0.12222474 -0.053150557
0000d0 af 03 8e 3d f4 8b e1 3b 82 2c 0e 3e 94 75 8b 3d
       0.06934296 0.006883139 0.13884166 0.068095356
0000e0 b8 ca d0 3d 0e 21 1c bd a3 07 11 3c 22 7e 50 bd
       0.101949155 -0.03811746 0.008851918 -0.05090154
0000f0 66 2a e7 bc f7 37 d5 3d 14 18 94 3b a2 4a a4 bc
       -0.02821846 0.10411065 0.004519472 -0.020055119
000100 83 76 87 3d fe 9e c2 bc b2 0b 6f bb db 58 33 3d
       0.06614401 -0.023757454 -0.0036475477 0.04378591
000110 fe 66 84 3d 00 ce 62 bc 19 54 da 3c cd 6e 91 3d
       0.06464957 -0.01384306 0.026651429 0.07101212
000120 8d 19 4a 3d 45 d9 fd bb 6b 52 a1 3c 97 50 dd bc
       0.049340773 -0.007746848 0.01969262 -0.027015967
000130 8a 6d 9a 3d 99 5d 90 bc 41 a7 0b bd 3f c1 5a 3e
       0.07540424 -0.017622756 -0.034095053 0.2136278
000140 50 97 42 bd 36 71 59 3d d5 1b 97 bd ed 67 7f bd
       -0.047507584 0.053086482 -0.073783554 -0.06235497
000150 a2 77 a9 3d 9e 83 e2 bd c1 13 17 bd 98 0c 00 3d
       0.08274771 -0.1106026 -0.036884073 0.03126201
000160 c5 45 ed 3d cd 75 85 3d 37 83 13 bd 27 e5 08 3c
       0.11585573 0.06516609 -0.036013808 0.008355415
000170 16 41 f7 bd f6 c0 c6 3d 0a 9a 59 3d e5 19 a8 3d
       -0.12072961 0.09704773 0.05312542 0.08208064
000180 2e 87 ce bd 0a e5 2e 3d a0 a2 ba bc 13 9d 8a 3d
       -0.10084377 0.042698897 -0.022782624 0.06768241
000190 d3 05 9b 3d ab d9 24 3b ba d0 cb 3d 60 14 24 3b
       0.0756947 0.0025154154 0.09951921 0.0025036559
0001a0 62 f8 88 bd 4d ee 42 3d cc 72 8a 3d 1e 5c 9e bd
       -0.06688 0.047590543 0.06760177 -0.07732414
0001b0 e1 4e ce 3d cd d9 e0 3d 28 ee da 3c 5e 09 ad bc
       0.10073639 0.10979042 0.02672489 -0.02112263
0001c0 28 7b 41 bd 35 b1 87 ba 00 e5 ff 3c 5d 52 09 bb
       -0.04723659 -0.0010352494 0.031237125 -0.0020953633
0001d0 60 39 a6 3d 58 3b 36 3d ef cb 3e be de 49 22 3d
       0.08116412 0.04449019 -0.18632482 0.039621226
0001e0 e8 68 eb 3d 2a ea a3 bb c0 07 32 3d 0e 60 1c be
       0.11494619 -0.0050022798 0.043464422 -0.15271017
0001f0 f4 b4 cb bc 49 9c 3d be da c8 49 3e 00 cf 27 bd
       -0.024866559 -0.1851665 0.19705525 -0.040968895
000200 d1 d5 55 3e 00 aa 01 be 22 3e 0b 3e 77 64 38 bd
       0.20882346 -0.12662506 0.1359792 -0.045017686
000210 dd 9c cc 3d 74 02 e3 3d 93 89 e9 3b 5d b9 9a 3d
       0.09990857 0.11084452 0.007126996 0.075548865
000220 aa 88 70 bd 6f b3 09 3e 4d ca 85 be 6f 51 19 3c
       -0.058724083 0.13447355 -0.26130906 0.009357794
000230 28 c6 97 3d c3 12 ad 3d b0 fe 0f 3e a5 97 a9 3d
       0.07410842 0.08450844 0.14062 0.08280877
000240 d2 be bd ba 4d e4 7d 3e 63 d1 4a 3e bb a2 1a bd
       -0.0014476425 0.24794121 0.19806437 -0.037752848
000250 64 df b6 ba 52 c8 63 3d 9c 63 95 3d d8 a1 77 3d
       -0.0013952074 0.055610962 0.072943896 0.06045708
000260 90 c0 99 bc cf 89 ab 3e 63 40 f1 bd b8 fb 45 bd
       -0.018768579 0.33503577 -0.11779859 -0.04833576
000270 37 17 01 3e 62 9b d8 3d e5 9b 2f 3e 28 7d 10 3d
       0.12606512 0.10576512 0.17149313 0.03527561
000280 e1 0c b6 3d 3b b9 7f bc 77 1e bb 3d 27 c8 2c 3e
       0.08889175 -0.015608127 0.0913667 0.16873227
000290 d3 04 34 3d d1 07 11 bc 4b 81 b3 bd 7c 8a 2e 3d
       0.043949913 -0.008851961 -0.08764895 0.042612538
0002a0 c6 c2 09 3e 30 fc 7d bd e2 a3 25 3e 38 a5 4b 3d
       0.13453206 -0.062008083 0.16175798 0.04971811
0002b0 ea 8d b0 3d b7 c8 1e bc c6 ce 3f bd c5 63 91 3d
       0.08620818 -0.009691409 -0.046828054 0.07099108
0002c0 8e 58 e9 3c 68 c9 97 bd b8 25 53 bd 21 3f da 3d
       0.028484609 -0.07411462 -0.051549643 0.10656572
0002d0 8e 08 d4 3d fa e2 39 be 08 bc 00 bc 80 d2 35 3e
       0.10353194 -0.18152991 -0.00785733 0.1775608
0002e0 17 f4 cf 3d b3 bc 0a 3c 5e f1 88 3e 70 41 30 3e
       0.10153978 0.008467841 0.2674665 0.17212462
0002f0 91 13 36 3e 85 de e8 3d df 9f c2 bc 44 12 45 3d
       0.17780901 0.11370567 -0.023757873 0.048113123
000300 61 d8 f2 3b b6 e7 8b 3d 4e f3 b0 3c ef 21 d6 3d
       0.0074110483 0.06831305 0.021600392 0.10455691
000310 ed 3b 10 3e a2 0e 2e 3d 87 ef f1 3a c1 d0 a5 bd
       0.1408536 0.042494424 0.0018458226 -0.08096457
000320 aa b4 8c 3d b5 67 51 3d 4e 5e fd 3d 1e 75 80 3e
       0.068703964 0.051124293 0.12371503 0.25089353
000330 67 e8 8e 3d 2a 27 5e 3e 6c 2e dd 3d b9 ed bd bc
       0.06977921 0.21694627 0.1079987 -0.023184644
000340 e9 b3 81 3d 39 e3 1a 3e bb 9c 6c 3e d2 da ae 3d
       0.06333143 0.15125741 0.23106663 0.085378304
000350 7d 8a a5 3e b4 6c fa bd cd da 36 3e 2b fd be 3d
       0.3233222 -0.12227765 0.17856903 0.09325632
000360 32 ea ab 3d 63 58 9d 3c 19 6c b5 be d3 ef 4a 3e
       0.083942786 0.019207185 -0.35434034 0.19818048
000370 06 88 d4 bb ae c3 f8 bc 2c a9 c1 bd d0 bf 5d 3e
       -0.006485942 -0.030366745 -0.09456095 0.21655202
000380 6b d0 e3 3d ee 90 d1 bd 61 74 da 3d 77 52 07 3e
       0.11123737 -0.10232721 0.10666729 0.13215052
000390 92 9f 07 3e 78 d6 da 3d 01 a7 2d 3e df 7b 78 3e
       0.13244465 0.10685438 0.16958238 0.24266003
0003a0 f2 ed 17 3e 8b 12 0e 3d 21 1f 77 3d 99 21 27 3e
       0.14836863 0.034685653 0.06033242 0.1632141
0003b0 10 da bb bd 59 7a 81 3d ea 8c 6b 3e bc f1 3c 3e
       -0.091724515 0.06322164 0.23002973 0.1845159
0003c0 1e e8 8f 3e 14 e2 c0 3d c1 a5 fb 3d 40 93 49 3e
       0.2810678 0.09418121 0.122874744 0.19685078
0003d0 97 0f ab 3d 73 1a 0f 3d ec e0 fd 3c 04 b0 28 be
       0.08352583 0.034937333 0.03099104 -0.16473395
0003e0 b5 2d 15 be 02 14 42 be 42 b1 68 3e 6f 98 bd bd
       -0.14568217 -0.18952945 0.22723868 -0.0925759
0003f0 f1 7e 2e 3e 19 f4 41 3d ad 33 b6 3d 2e 88 5b 3e
       0.17040612 0.04735193 0.08896575 0.21438667

lstm.weight_hh_l0 f4 [512, 128]
000000 6a 00 83 bc 78 85 c8 3e e5 30 48 bc 9a 76 0b be
       -0.015991408 0.3916433 -0.012218689 -0.13619462
000010 7b 2d cf bd 86 6a a4 be 90 d7 89 bb e0 07 86 bd
       -0.101160966 -0.3211252 -0.0042066053 -0.06544471
000020 2b 7d 7a be d4 ac 07 be 09 6f 77 3c 6a c2 71 be
       -0.2446181 -0.13249522 0.015102156 -0.2360932
000030 09 7c 41 bd 7d 2d 82 bc 1d 1f 36 3e 08 08 c4 3d
       -0.04723743 -0.015890831 0.17785306 0.09571844
000040 71 6e 47 be 34 2c 05 3c 0f 7b 83 3c a4 2d cd 3c
       -0.19475724 0.008128215 0.01604989 0.025046177
000050 24 b8 b3 3d c3 9a 5a bc b3 72 87 3d 59 c5 44 3e
       0.087753564 -0.013342562 0.06613674 0.19215907
000060 b9 40 02 bb 8f 3a 4f 3c fa 38 0b be 61 c8 d5 bc
       -0.0019875003 0.012648239 -0.13595954 -0.026096525
000070 d7 be 5d 3d 86 85 ed bd 3c e0 1a be 5b 97 b8 3e
       0.054137077 -0.11597733 -0.15124601 0.36052975
000080 83 ad 53 3e 8c a8 3d bd ad 99 97 bc db f0 9b bb
       0.20671658 -0.046303317 -0.018505896 -0.004758937
000090 72 a7 09 3e 50 dd 5c 3e a1 35 2c 3e 1b 55 7a be
       0.13442782 0.21568799 0.16817333 -0.24446528
0000a0 cf 4d 45 bc 46 95 ab 3d d7 2a 19 bd 39 d3 df bd
       -0.012042477 0.08378081 -0.03739437 -0.109289594
0000b0 f6 f0 db bd bf 46 16 bc 4f 76 91 bd f1 f8 64 3e
       -0.10739319 -0.009172141 -0.07102644 0.22360589
0000c0 79 14 ec be 9a 8f 3c 3d 2d 75 ee bd 6f 01 fe bd
       -0.4610937 0.046035387 -0.11643443 -0.12402617
0000d0 0e d0 04 be ce 4e 37 3e d5 40 de 3d fd 2d e5 bc
       -0.12969992 0.17901155 0.108522095 -0.02797603
0000e0 b8 05 41 3e 01 68 1c be 7e 04 81 be 08 22 75 3e
       0.18849838 -0.1527405 -0.2519874 0.23938763
0000f0 a6 6b 54 3e f5 b3 81 be 1f 3b b0 bd 53 5e 47 3e
       0.2074419 -0.2533261 -0.086050265 0.19469576
000100 a3 66 fd 3d 29 59 92 be e5 e4 10 be 4f 71 98 3e
       0.12373092 -0.2858365 -0.14149816 0.29773948
000110 bf 59 c8 3e ae 23 af 3e ee 61 90 3e a3 7b 04 3d
       0.3913097 0.3420691 0.28199714 0.03234447
000120 4b 7a 08 3e 47 81 01 3e c8 50 c4 3e a1 8a 22 be
       0.13327901 0.12646972 0.3834288 -0.15873195
000130 f4 5d 9a 3c 99 7b 3c bc 55 b4 78 be 3a e9 0a be
       0.018843628 -0.011504077 -0.24287541 -0.13565531
000140 ec 95 c8 3d 5c dd ba 3d f6 a8 10 bd db 8f 83 bd
       0.0979422 0.09124252 -0.035317384 -0.06423923
000150 b2 7e 4e 3e e2 cc dc bd 60 e6 2b 3e 5d 4e 82 bc
       0.20165518 -0.10781266 0.167871 -0.015906507
000160 3c 15 ed 3d 5e 00 c3 3c 75 b2 1c bd ab d0 36 3d
       0.11576316 0.023803886 -0.038256127 0.044632595
000170 c4 2b a2 bd 00 d7 b5 3d c0 62 9a 3d ab df 99 3d
       -0.07918504 0.088788986 0.07538366 0.075133644
000180 95 e9 3f bd d6 ed 23 be 99 2b c1 3e 8f fe bb bd
       -0.04685362 -0.16008696 0.37728575 -0.091794126
000190 f9 f6 78 3e 90 c4 bd be 32 94 cf 3e a3 0b 99 3e
       0.24312963 -0.37064028 0.40542752 0.2989169
0001a0 55 cf 71 3d 20 28 0b 3e e5 cd 36 3e 6a b3 fc 3e
       0.059035618 0.13589525 0.1785198 0.49355632
0001b0 30 c7 7f be 1a 51 c3 3e 2a 84 76 be 40 62 83 be
       -0.24978328 0.38147813 -0.24073854 -0.25660896
0001c0 96 5f 19 be 8b e3 b6 bd d3 aa 52 3e 0e c7 5a 3e
       -0.1497787 -0.08930119 0.20572977 0.21364996
0001d0 ef ad c1 bd 03 47 b1 3d 64 7b 23 bd be 3e 4e 3e
       -0.09457003 0.086561225 -0.039912596 0.20141122
0001e0 c4 18 f2 bc c9 b5 45 be cf 92 10 3e f6 ec 1d 3b
       -0.029552825 -0.19307627 0.14118503 0.0024097539
0001f0 d2 15 bc 3c 58 93 08 3e 57 a7 20 3d 5c d7 b6 3e
       0.022959623 0.13337457 0.039222088 0.3571118
000200 8c 2f a4 3d 2a 03 65 3e e4 e9 80 3e 93 4c d2 bd
       0.08016881 0.22364488 0.25178444 -0.102685116
000210 3d d1 e9 bd 65 9e e9 bd db 0d 82 bd c4 9d 8b bd
       -0.11416862 -0.114071645 -0.06350299 -0.06817201
000220 8f a4 9a be 73 4f d4 bd f9 e0 94 bd 90 ac ce 3d
       -0.30203673 -0.10366716 -0.07269473 0.100915074
000230 42 0a 34 3e d5 74 11 be fb 93 2e bd cc 55 52 3d
       0.17582038 -0.14204724 -0.042621594 0.051351354
000240 52 f1 79 be de c7 76 be 4a d8 f9 bc 89 84 91 be
       -0.24408463 -0.24099681 -0.030498642 -0.2842143
000250 ae 1c 5d 3d 78 12 00 be e3 db 30 3e 28 09 35 3e
       0.05398243 -0.12507045 0.1727138 0.17679274
000260 2f c1 10 3e 55 6a fe bb 0a 10 30 3d 3e 63 9c be
       0.14136194 -0.0077641406 0.042984046 -0.30544466
000270 94 c1 cc bd ee 7a 78 3d a8 1a 5d 3e 7f 19 20 3e
       -0.099978596 0.06066411 0.215922 0.15634726
000280 39 41 0e 3e 9d f0 d3 3d fa 2d b0 3c 0c 85 9a be
       0.13892068 0.10348628 0.021506298 -0.30179632
000290 e4 9a 3a 3e 7e e8 6f 3e 6d b0 98 3e ff 4c f9 3c
       0.18223149 0.23428532 0.29822102 0.030432222
0002a0 0b e9 dc bb 52 46 14 be a5 e7 05 3e 93 ab e4 bd
       -0.006741648 -0.1447995 0.13076647 -0.11165538
0002b0 f4 84 27 bd b0 1f bf bd 54 c6 91 3d 61 ab 27 3d
       -0.04089828 -0.09332216 0.07117906 0.040934924
0002c0 08 1d 2c be 44 3b be bc b4 20 21 3e aa 63 4f 3e
       -0.1680795 -0.02322162 0.15735132 0.20252863
0002d0 9c bd 58 3d 7b 77 9e 3d 1f 29 61 3e 85 4a 59 3e
       0.0529152 0.07737633 0.21988343 0.21219833
0002e0 0a 82 92 3e e8 5b 00 3e 1f a3 e1 3b 82 15 32 3d
       0.28614837 0.1253506 0.0068859006 0.043477543
0002f0 ed 14 fc 3a 51 41 92 3e 84 4f a1 bc 34 03 c1 3d
       0.0019232311 0.28565457 -0.019691236 0.09424439
000300 78 38 12 bd c7 ec f0 bd 2a 9b dc 3d 44 68 28 3d
       -0.035698384 -0.11763912 0.10771783 0.04111506
000310 fe 58 e6 3e 7b d7 92 3e 23 3b 03 3e 3b da 51 3e
       0.4498977 0.28680024 0.12815528 0.20493405
000320 c3 c9 66 3e 57 1f c6 bd 7b 6c f0 3d 6f 5e 23 be
       0.22537903 -0.09673946 0.11739441 -0.15953992
000330 24 3e 04 bc c2 82 dd bd 30 8a 9d bc 24 5a 47 be
       -0.008071456 -0.10815956 -0.019230932 -0.1946798
000340 2b c9 ae bd 8f 49 4c 3e b1 b5 64 bc 34 b8 c1 bd
       -0.085344635 0.19949935 -0.013959334 -0.09458962
000350 6e 44 83 3c b1 2f 98 bd 2e c5 92 bd 8c 96 e2 bb
       0.01602384 -0.074309714 -0.07166515 -0.0069149192
000360 0a ff e8 3c 70 be 3b 3e cc 16 79 bc c3 7f 9a 3b
       0.028441925 0.18334365 -0.015203189 0.0047149374
000370 57 19 86 be a3 40 7c 3d 65 ce 53 3e 64 6e 97 3e
       -0.26191208 0.06158508 0.20684202 0.2957641
000380 97 02 04 be 75 79 ab 3d c6 f2 4f bd a5 5c 57 bc
       -0.12891613 0.083727755 -0.050768636 -0.013144647
000390 3a 35 99 3e 28 7e 3e be 6d 04 27 3e 48 3e 0d 3e
       0.2992342 -0.18602812 0.16310282 0.1379329
0003a0 48 03 d4 be 40 2e c8 3d f3 6f b9 3e 84 f0 4f 3e
       -0.41408753 0.097744465 0.36218223 0.20306593
0003b0 8e 3a 36 3e 25 a2 73 3d 11 17 70 bd d8 ff 88 bd
       0.17795774 0.059480805 -0.058615748 -0.06689423
0003c0 4d 0f ed 3d a7 7c 62 be d5 7c b4 3e db 1c 00 3e
       0.11575184 -0.22117864 0.3525149 0.12511007
0003d0 02 af 98 bc 28 eb a5 3e f7 3f 9b bc c9 40 50 3e
       -0.018638138 0.32405972 -0.0189514 0.20337214
0003e0 7c 89 14 3c bb a1 c6 3d c1 11 b6 be 99 6e f3 3d
       0.009065982 0.096988164 -0.3556042 0.11886329
0003f0 39 d1 d9 3e 26 a2 b0 bd 3e 73 b9 3e 14 d0 cd 3e
       0.42542437 -0.08624677 0.36220735 0.40197814

lstm.bias_ih_l0 f4 [512]
000000 a0 e5 55 3d 74 ce 45 bd c2 ce ab 3d e7 84 b6 3c
       0.05222094 -0.048292592 0.08389045 0.02228017
000010 21 98 1c bd f9 f9 c3 3d e1 51 bc bd 5d 91 e3 bd
       -0.03823102 0.09569163 -0.09195305 -0.1111171
000020 0f 25 66 bd d5 89 2d bd 4f 06 08 3d f3 fb c7 3d
       -0.056187686 -0.042367775 0.03320914 0.097648524
000030 bc 03 3f 3e 24 ec 60 3d d0 8f 8b bd 1e 63 ca bd
       0.18653768 0.0549127 -0.068145394 -0.09882186
000040 ab 50 a3 bd 41 76 ce bd b9 f0 b3 bd 9f ff 96 3c
       -0.079743706 -0.10081149 -0.087861486 0.018432437
000050 a9 40 2c be df 9f be bd 5d b7 4f bd 3c 31 c4 bc
       -0.16821541 -0.09307837 -0.05071198 -0.023949258
000060 7f 04 27 3d c4 67 e2 3c 11 47 1b be 5a 3f 5e bd
       0.040775772 0.02763737 -0.15163828 -0.054259636
000070 7a d2 e9 bd 96 95 03 3d 2e e5 6d 3d da 22 b1 be
       -0.11417098 0.03212508 0.05807989 -0.34596902
000080 8f 04 26 3d 8a 88 42 be 2b 3d 50 3d 93 c1 5d bd
       0.04053169 -0.18997398 0.050839584 -0.054139685
000090 96 7a c2 bd f1 1d 39 bc 58 48 3b 3e de fa ed bd
       -0.09496038 -0.0112986425 0.18289316 -0.11620115
0000a0 e1 b9 e3 3d 80 73 2a 3e ad 99 14 be 9b 9d 85 bd
       0.11119438 0.16645622 -0.14511748 -0.065242015
0000b0 51 ed 36 be b4 7f 01 bd c7 5d f8 bc 83 9e 39 3b
       -0.17863967 -0.031615928 -0.030318154 0.002832324
0000c0 8e 64 a6 bc 78 1f 4b 3d 57 75 29 3b 9d f7 e4 bc
       -0.02031162 0.049590558 0.0025857294 -0.027950102
0000d0 fd 82 98 bc ce ee e5 bd 5b e7 e6 3d 89 d3 95 bd
       -0.018617148 -0.11227189 0.11274596 -0.07315738
0000e0 23 33 10 3d 06 1c 54 bd bd 38 80 bd 56 65 34 be
       0.035205018 -0.051784538 -0.06260822 -0.17616782
0000f0 94 a1 a0 bd 39 e1 99 3c 13 5f c2 b9 24 57 ee 3b
       -0.078433186 0.018784152 -0.000370734 0.0072735716
000100 bc ec 72 3d 5a 4a 82 3d f0 a3 00 3c 76 6f 0d 3d
       0.0593078 0.06361838 0.007851586 0.034530126
000110 58 a7 ac 3d 79 cf 02 3d 44 29 dc bd 4c 32 0d be
       0.08430356 0.031936143 -0.10750058 -0.13788718
000120 14 bd 39 bd e6 3f a5 bd c1 7c 9c 3c 45 56 3e bd
       -0.045346335 -0.08068828 0.019102456 -0.04646899
000130 05 03 99 bb e4 77 d6 bc 07 e5 5a bc 52 e7 3b 3d
       -0.0046695494 -0.026180215 -0.013360268 0.0458749
000140 78 79 64 3d dc 02 5d bd 2e 81 33 be ec 8f ad bd
       0.055779904 -0.053957805 -0.17529747 -0.084747165
000150 4f 37 85 3c 92 aa 95 bc 8f fb d9 3d 5e e8 2f 3c
       0.016261725 -0.01826981 0.10643684 0.010736553
000160 00 34 51 be 8c f2 ac bd ba ea 80 bd f2 59 a9 bb
       -0.20429993 -0.084447 -0.062947705 -0.005168193
000170 c6 5e 01 3b c7 4f 87 bd 4a df bc 3d 2e b7 af bc
       0.0019740327 -0.06607013 0.092222765 -0.021449652
000180 56 b3 f5 bd d0 73 da bc 7f 02 6a 3d da 41 c7 bd
       -0.11997096 -0.026666552 0.057131287 -0.09729357
000190 16 ca e9 bd e5 28 70 3e 4d 46 01 bd 9a 5c 22 bc
       -0.11415498 0.234531 -0.031561185 -0.009909773
0001a0 85 08 b2 bd ec 7f ea bc 73 5b 2e 3c 70 b0 d0 bd
       -0.08693031 -0.028625451 0.01064192 -0.10189903
0001b0 41 db 9a bd 5c 91 4a be 3e 60 0f 3e e2 74 4a 3d
       -0.075613506 -0.19782013 0.14001557 0.049427874
0001c0 9e 10 01 be 10 93 e0 bc 04 4b 3c 3e 74 43 0e bd
       -0.12603995 -0.027413875 0.18387991 -0.034732297
0001d0 18 35 4d bd 44 d9 df 3d 43 80 07 be 9c f9 04 be
       -0.050099462 0.10930112 -0.13232522 -0.12985843
0001e0 96 96 3a 3c 1e f1 ac 3b 91 35 f3 bd 5c 19 6b 3c
       0.011388442 0.005277767 -0.11875451 0.014349308
0001f0 1d 99 84 bd 4b 27 cb bd 4b 38 65 3d bc f5 7e 3d
       -0.064745165 -0.09919604 0.05596189 0.06224607
000200 11 19 52 3e c6 69 60 3e 13 77 3d 3e 99 80 02 3e
       0.20517375 0.2191535 0.18502454 0.12744369
000210 a1 d0 5c 3e 04 ab 9c 3d 43 8a 1b 3e 47 e8 25 3d
       0.2156396 0.07649806 0.15189461 0.04050472
000220 27 ce da 3d ba 1e a1 3d d4 27 d2 3d 58 64 c9 3d
       0.10683852 0.07867189 0.10261503 0.09833592
000230 36 0c 7c 3d d7 f0 43 3e 63 c3 a6 bc f8 f7 12 3d
       0.061535083 0.19134842 -0.02035684 0.035881013
000240 40 fd 6c bd 33 5f 1d 3d 55 db a9 3c c1 26 78 3d
       -0.057858706 0.038420867 0.020734468 0.060583834
000250 2a f4 98 3e a8 f0 73 bd 84 2e 30 3e 02 c4 ce 3d
       0.29873782 -0.05955568 0.17205244 0.10095979
000260 70 bb 0e 3e 44 a7 8c 3e 59 4a 7c 3e 91 2e 56 3e
       0.13938689 0.27471364 0.24637736 0.20916201
000270 50 6e 47 3d 10 a8 13 3e e6 eb 02 3e 2e 7f 12 bd
       0.048689187 0.1441958 0.127853 -0.03576582
000280 91 41 67 3e 82 94 c4 bd 68 67 1f 3e cd fb d6 3d
       0.22583605 -0.09598638 0.1556679 0.10497246
000290 20 8b 94 3d 40 75 13 3e 68 57 6b 3e fe 99 e8 bb
       0.072530985 0.14400196 0.22982562 -0.0070984354
0002a0 01 44 99 3e 91 aa 0a 3e 7c 68 b0 3d 8b fe ac bc
       0.29934695 0.13541628 0.08613679 -0.02111747
0002b0 52 6e 00 bc 18 ac 4c 3d 5a 04 8a 3e 3e 6b 77 3e
       -0.007838802 0.04996881 0.26956445 0.24162003
0002c0 a3 1e 65 3e 57 5b 55 3e 77 ba e4 3d b1 e1 ba 3d
       0.22374968 0.20835625 0.11168378 0.091250785
0002d0 46 a0 aa 3c d1 ae 28 3d 5b d0 26 3e 4b e1 ce 3d
       0.020828377 0.041182343 0.16290419 0.10101565
0002e0 83 b5 2b 3e 59 c8 3f 3d 52 0b 89 3e bd e5 a7 3d
       0.1676846 0.046821926 0.2676645 0.08198116
0002f0 0c 90 f4 3d ee 87 17 3d 54 23 97 3e a2 fc 76 3e
       0.11941537 0.036994867 0.2951914 0.2411981
000300 d3 1f b5 3d f1 f6 23 3e c6 5b 8e 3d fd 83 25 3e
       0.088439606 0.1601217 0.06951098 0.16163631
000310 59 eb 01 3d da e5 82 bc 0d 2e 1a 3e d4 aa 0f 3e
       0.031718586 -0.015978742 0.1505663 0.1403001
000320 c7 9a b1 3d ee 57 d4 3c e6 f5 6d 3d 31 5d 90 3c
       0.086720996 0.025920834 0.058095835 0.017622562
000330 ae 82 e1 3b a5 96 a5 bc 0b 94 c6 3d 25 12 91 3e
       0.0068820333 -0.020213434 0.09696206 0.28334156
000340 cb db 6d 3e 40 f9 98 3e a4 7c 23 3e ac ef 3e 3e
       0.23228376 0.29877663 0.15965515 0.18646115
000350 99 34 f8 3d c3 8a 02 3d d5 5a 33 3e 58 3a 4f 3e
       0.12119407 0.031870615 0.17515118 0.202371
000360 c5 f4 b2 3d 68 5c e3 3d fc d1 f5 3d dd 9f 2d 3e
       0.08738092 0.111016095 0.12002942 0.16955514
000370 bd 43 24 3d b8 91 37 3d 18 eb 06 3e 77 7a 94 3e
       0.040103663 0.044816703 0.13175619 0.28999683
000380 6e 52 5d 3d e2 f7 67 3d c1 e3 33 3e 43 e9 3e 3e
       0.05403369 0.056632884 0.1756735 0.1864367
000390 29 3d be bb ee fd 6c 3d e3 e4 23 3e 0a 48 34 3e
       -0.0058056307 0.057859354 0.16005282 0.17605606
0003a0 f4 db 6b 3d fb 10 81 3e 76 6a ca bb 0e fa 0e 3d
       0.05758281 0.25208268 -0.006177242 0.03490644
0003b0 d7 1d af 3d 26 6c f7 3d ea f7 a1 3d 61 dd 50 3e
       0.085506134 0.120811746 0.07908614 0.2039695
0003c0 50 67 3c 3e 40 db fa 3d d2 82 57 3e cb 5b 53 3e
       0.18398786 0.1224885 0.21045998 0.20640485
0003d0 19 86 d8 3a ce eb 84 bd 20 bf cc 3d 61 0d 81 3d
       0.0016519456 -0.06490289 0.09997392 0.0630138
0003e0 19 ed ff b9 d2 1c 21 3e a2 66 62 3d 30 9a 9d 3d
       -0.00048814042 0.1573365 0.05527366 0.076954246
0003f0 9f 47 97 3e 52 3d 3c 3e 89 54 45 3e b2 2e 1f 3e
       0.2954683 0.18382767 0.19270529 0.15545157

lstm.bias_hh_l0 f4 [512]
000000 7d 2c 49 3d 1c 38 62 3d 92 3c 0e 3e 2a 9a 7b bc
       0.049114693 0.05522929 0.13890293 -0.01535658
000010 9f 00 a8 bd 60 ff 41 3d 05 23 ad bd 12 1c 26 be
       -0.082032435 0.047362685 -0.08453945 -0.16221645
000020 0e 15 7d bd 8a 69 91 bd 90 44 78 3d dd 33 e4 3d
       -0.061787657 -0.07100208 0.06061226 0.11142705
000030 30 f4 99 3d 18 41 f5 3d 11 b5 0c be 1c f1 70 bd
       0.07517278 0.11975306 -0.13740946 -0.05882369
000040 8f c6 47 bd 21 32 87 be 9c cf 14 bd 53 8d 28 bd
       -0.048773345 -0.26405433 -0.036330804 -0.041150402
000050 e3 58 a7 bd ae 53 23 be 89 f1 26 be d7 ce fc bc
       -0.08171251 -0.1594989 -0.16303076 -0.030860348
000060 81 a8 65 3d fe 67 96 3c fe 55 c4 bd c4 f1 8c 3d
       0.0560689 0.018360134 -0.09586714 0.06882051
000070 ef 2c 69 bc d3 de 5e bd a4 47 22 3d 70 f6 ac be
       -0.014231904 -0.05441172 0.039619103 -0.33781767
000080 a9 7f 58 bd 76 5e 31 be cc 4c 0b 3d 6c 4a df bd
       -0.05285612 -0.1732119 0.034008786 -0.10902867
000090 55 b3 3f bd 6e 14 b5 3d 62 4a 56 3e 0e 4c 08 be
       -0.046801884 0.08841787 0.20926812 -0.13310263
0000a0 e8 c2 86 3d 2c ff 09 3e d0 52 7c be 73 e2 ad bc
       0.06580144 0.13476247 -0.24640965 -0.021226143
0000b0 a6 a7 39 be b5 4d 19 be 79 f2 95 3d c5 2f 05 3d
       -0.18130359 -0.14971049 0.073216386 0.03251626
0000c0 92 5c ef 3d 72 4d 21 3e 33 33 20 bd ad bf 81 bd
       0.11687578 0.157522 -0.039111327 -0.063353874
0000d0 c5 84 2b 3d 94 3a dd bd 88 db d4 3d cb 05 b0 bd
       0.041874666 -0.108021885 0.10393435 -0.08594855
0000e0 a3 40 10 3e 1c 6d 10 bd 77 f2 a6 3d 5c 53 1b be
       0.14087157 -0.035260305 0.08151715 -0.15168518
0000f0 a4 5d 30 be 6c 71 c2 bd cb 8a 52 3d ef 39 f2 3d
       -0.17223221 -0.0949429 0.051401895 0.11827456
000100 86 4b 51 3d dc b9 cc 3c 3f cd 0b bd c5 58 c7 bd
       0.051097415 0.024990968 -0.034131285 -0.09733728
000110 2b f2 2c 3e b8 fc 60 bd 4b 66 31 be 46 5f 42 bd
       0.16889255 -0.05492851 -0.17324178 -0.04745414
000120 cd 50 e6 3c bd 83 aa bd ce 55 1e bd 97 ab a3 ba
       0.0281147 -0.08325908 -0.03865605 -0.0012487051
000130 04 a4 0d ba 24 03 d9 bd 00 d0 6e bd 00 aa b3 3d
       -0.00054031634 -0.10596302 -0.058303833 0.08772659
000140 a2 72 38 3e 4f 1a 82 3c 4e 46 76 bd 2c 44 ff bc
       0.18012479 0.015881686 -0.06012564 -0.031160437
000150 a2 95 33 3b 05 3a b0 bd ba c8 b0 bc 24 63 a4 bd
       0.002740242 -0.08604816 -0.021580089 -0.08026722
000160 62 6b 1e be a4 a9 a7 bd 02 b5 94 bc 19 f3 16 3e
       -0.15470651 -0.08186653 -0.018152718 0.14741172
000170 93 5c 1d be fb c2 78 bd f7 e3 1f 3e 05 f3 45 3c
       -0.15367346 -0.060732823 0.15614305 0.012081866
000180 87 55 b3 bd 3f 4b a1 3c 4d fe 02 3e ca d2 49 3c
       -0.087565474 0.0196892 0.1279232 0.012318322
000190 29 18 b4 bc 38 9a 3b 3e 4e 79 74 bd 78 0f b9 bc
       -0.021984177 0.18320549 -0.059685998 -0.022590384
0001a0 f3 de e5 bd 74 bf 58 3d 38 84 85 3d d1 e4 92 3c
       -0.11224165 0.05291696 0.06519359 0.017931374
0001b0 b6 f5 e8 bd ba d3 14 be cc 58 a9 3d 5e 66 da bc
       -0.11374991 -0.14533892 0.0826889 -0.02666014
0001c0 82 3c 61 bd e5 12 8b bd fa 9b e2 3d a9 72 77 bc
       -0.054989345 -0.06790713 0.110649064 -0.015103021
0001d0 a4 76 02 be 27 2b 82 3b bb e4 fa bc dd 06 26 be
       -0.1274057 0.0039724293 -0.030626645 -0.16213556
0001e0 1c 4c 27 bd 62 ed 3d bd 5d 9f 4f be f2 c9 77 bd
       -0.040844068 -0.046368964 -0.20275636 -0.060495324
0001f0 ff ea d4 bd 8b d9 ef bd 82 68 cd 3d ff ef 02 3d
       -0.103963844 -0.11711415 0.10029699 0.03196716
000200 e0 66 97 3e 18 72 2f 3e 9d f9 87 3e c1 32 23 3e
       0.29570675 0.17133367 0.26557627 0.1593733
000210 92 18 91 3e 4e 54 e1 bc b5 cd c5 3d 44 4f 50 bd
       0.28339058 -0.02750602 0.09658376 -0.050856844
000220 75 52 62 3d 2e 7e 93 3a 94 a7 ca 3d 5a 47 07 3e
       0.05525442 0.0011252814 0.09895244 0.13210812
000230 e7 60 2b 3e 4d 7f 2c 3e 3c b9 07 bd a8 cd 10 3e
       0.16736184 0.16845436 -0.033135638 0.14140952
000240 ed c9 13 3d 37 a2 b5 3d 88 30 86 bd 77 8d 9c bc
       0.036081243 0.08868831 -0.06552225 -0.019110424
000250 dc c0 5f 3e 79 43 3d 3d 2b ad 96 3d 0a a1 1f bd
       0.21850914 0.046206925 0.07357248 -0.03897194
000260 4a 85 fa 3d 63 4d 54 3e 33 b5 49 3e 54 3b 67 3e
       0.12232454 0.20732646 0.19698028 0.22581226
000270 06 a2 44 3b 53 4a 70 3e 13 b1 e6 3d f2 1d f8 bb
       0.00300038 0.23465852 0.11264243 -0.007571929
000280 da df 0c 3e 44 94 60 3d f3 ac b0 3c f1 bc 52 3d
       0.13757268 0.054828897 0.021566844 0.05144972
000290 bb 4a 19 bd b2 9c 0e 3e 79 3e 97 3d 4c 5d 84 3d
       -0.037424784 0.13926962 0.073849626 0.064631075
0002a0 4d cd 64 3e e3 86 b4 3d cd 5a 33 3d 5e df ba 3d
       0.22343941 0.0881479 0.043787766 0.09124635
0002b0 88 ee d6 bd ce 51 2d 3e f5 85 8c 3e 64 75 9c 3e
       -0.10494715 0.16925737 0.2744595 0.30558312
0002c0 fa 43 eb 3d b0 7e 5d 3e dd 82 37 3d b0 23 2c 3e
       0.11487575 0.21630359 0.044802535 0.16810489
0002d0 dd 7c d1 bb b3 54 9a 3d 22 aa 1d 3e b8 a0 26 3e
       -0.0063930587 0.07535686 0.15396932 0.16272247
0002e0 c6 91 0c 3e 18 63 e2 bd 7a ba ca 3d 65 25 2f 3e
       0.13727483 -0.11054057 0.09898849 0.17104109
0002f0 42 43 38 3e 0a 5b 1b 3e 69 e0 8d 3e 8a cd 5d 3e
       0.17994407 0.15171447 0.27710274 0.21660438
000300 1d 30 e7 3d f5 e6 38 3e 58 17 72 3d 4c 65 18 3e
       0.11288474 0.18056853 0.059104294 0.14882392
000310 c4 55 89 ba 1e 29 e3 3d 52 aa eb 3d 10 2f a8 3d
       -0.0010477831 0.11091827 0.115070954 0.082121015
000320 ac 5e 43 3e d5 b6 f1 3d 7b 6e 62 bc a0 db 6b 3c
       0.19079083 0.118024506 -0.013820286 0.014395624
000330 60 37 40 3d 79 ea 04 3d 91 de 27 3d e8 02 97 3e
       0.04692781 0.032450173 0.04098374 0.29494405
000340 dd 52 cd 3d 73 4d 83 3e 9c 4c 2f 3e 37 3f e5 3c
       0.100255705 0.25645027 0.17119068 0.027984245
000350 0b 13 43 3e 88 4c 56 3c e9 f2 a0 3e f0 be 18 3e
       0.19050233 0.01307977 0.31435326 0.14916587
000360 86 f2 36 bb fe 19 bd 3d 86 a3 15 3d f6 08 63 3e
       -0.0027915551 0.09233473 0.0365329 0.22171387
000370 b3 3e d9 bc 43 32 4a bc 8f e1 0d 3e 0f dc 46 3e
       -0.026519155 -0.012341085 0.13855575 0.19419883
000380 ca 6f 03 3d cf 79 1e 3d 64 ea 62 3e 04 2b 61 3e
       0.032089032 0.038690384 0.22159725 0.21989065
000390 5a 73 2e bc f0 d7 0d 3e 3e 62 13 3e 58 57 39 3e
       -0.010647619 0.13851905 0.14392945 0.18099725
0003a0 bc b3 85 3d 62 eb 40 3e 14 4e ec 3d 28 93 46 3d
       0.06528422 0.18839791 0.1153833 0.048480183
0003b0 e0 1b 54 3e fb 79 f5 3d 46 64 3e bd c9 a2 db 3d
       0.20713758 0.119861566 -0.046482347 0.10724408
0003c0 09 32 48 3e b7 0e 37 3e c9 ed 7d 3e 5d 27 9a 3d
       0.19550337 0.17876707 0.24797739 0.07527039
0003d0 2e 42 a1 3d ac f9 28 3c d2 91 ab 3d 69 aa eb bc
       0.07873951 0.010313433 0.083774224 -0.028767781
0003e0 10 aa 86 bd 51 4e 12 3e 5d d3 20 3d 7f 85 b8 3d
       -0.065754056 0.14287688 0.03926407 0.09009837
0003f0 5e 03 8c 3e 2e 0b 41 3e 60 d3 bb 3d ed db 0c 3e
       0.2734632 0.18851921 0.09171176 0.1375577

mlp_1.weight f4 [64, 128]
000000 cc 9c 3e be 13 69 1f be cb 2a 3c be f8 e9 19 3d
       -0.18614501 -0.15567426 -0.18375699 0.037576646
000010 d6 91 4b bd a4 cf 3e 3e 0b 0e 6b bd fd 90 da 3d
       -0.049699627 0.18633896 -0.05738644 0.106721856
000020 93 da 38 bd 6a b3 2e 3e 22 85 a6 3e 8a 66 ab 3d
       -0.045130324 0.17060629 0.32523447 0.08369167
000030 bd 5b dc 3c a4 81 49 be 1f 4c 81 3d b3 17 ab 3c
       0.026899213 -0.1967836 0.06313347 0.020885324
000040 e9 84 5c bd 61 ca ac bd 81 5f 82 be 91 46 a3 bd
       -0.05383769 -0.08437038 -0.2546349 -0.07972444
000050 5c fc 5c 3d 6e 47 1c be 36 18 c7 bd 95 30 6f be
       0.053951606 -0.15261623 -0.09721415 -0.23358376
000060 d0 43 d7 3c 6f 9d 3f 3e 63 99 39 3e 5f 72 0f be
       0.026277453 0.187124 0.18124919 -0.14008473
000070 ab 84 cd 3c 15 ab 8b 3b 78 7d 3d 3d c8 21 69 3e
       0.025087675 0.004262338 0.046262234 0.22766793
000080 d6 56 99 bc a1 a0 5b be 4e c0 f0 bb 53 25 ac be
       -0.018718164 -0.21447994 -0.0073471433 -0.33622226
000090 c9 5c 1d 3d 93 76 92 3e e0 77 fc bd 79 48 97 be
       0.038418565 0.2860609 -0.12327552 -0.2954748
0000a0 17 09 b2 3d 80 87 29 be 88 e3 43 3e 71 6a fa 3d
       0.0869314 -0.16555595 0.19129765 0.12227333
0000b0 37 37 9d bd 28 03 e5 bd fd 81 5f be 8f 1c f3 3d
       -0.07676547 -0.11182243 -0.2182693 0.118706815
0000c0 d2 62 14 3e 20 48 37 be 72 91 79 3e a7 d0 46 3e
       0.14490822 -0.17898607 0.24371889 0.19415532
0000d0 19 34 cd 3d 41 20 8c 3e fb fa d6 3d 10 d4 3c 3e
       0.100197025 0.27368358 0.104970895 0.1844027
0000e0 85 93 90 3d 00 47 70 3e b8 1c 64 3d 9e 1a af bd
       0.07059387 0.23464584 0.05569145 -0.08549999
0000f0 8d 55 06 bc d2 5c 92 3e 4a 15 6f 3d 83 0b 14 3e
       -0.008199108 0.2858644 0.058369912 0.14457516
000100 94 db c7 be cb 43 82 be ec bd 8c 3d f8 75 8a 3e
       -0.39034712 -0.25442347 0.06872162 0.27043128
000110 b7 09 27 3e b7 59 19 be 15 f9 32 bd 0a a6 07 be
       0.163123 -0.1497563 -0.043694574 -0.13246933
000120 b6 05 8b bb 01 02 2f 3e 38 29 8f be 67 78 cf be
       -0.004242624 0.17090608 -0.27961135 -0.40521547
000130 f7 39 08 3e 8d a2 97 bc 3d ef 8c bd a7 06 72 bd
       0.13303362 -0.018510127 -0.068815686 -0.059088375
000140 4c 21 04 be e9 57 13 be 82 9c 6d 3d 04 96 20 3e
       -0.12903327 -0.14389004 0.058010586 0.15682226
000150 e9 49 d2 bc dd c1 be bd 7d ae 4d be 56 20 db 3c
       -0.025670009 -0.0931432 -0.20086093 0.026748817
000160 84 ff bd 3c 66 d4 8d 3e 14 da ac 3e 6d 75 11 3e
       0.023193128 0.2770111 0.3376013 0.1420495
000170 e1 c5 29 bd 2b 66 c8 3d b1 be 1e 3e 17 cb fd bd
       -0.041448478 0.09785112 0.1550243 -0.12392252
000180 6c a0 30 be 68 e3 1e 3e b2 90 66 3d 7a 00 2f bd
       -0.17248696 0.15516436 0.056290336 -0.042725064
000190 ff bd 09 bd 85 ed ba be 16 27 76 bd 2e 8a cd 3d
       -0.03362846 -0.36509338 -0.06009587 0.10036121
0001a0 45 c8 79 bd a5 ee 34 3e c0 f8 2b 3e ea ee 96 be
       -0.060982008 0.1766916 0.1679411 -0.29479152
0001b0 91 af be 3e 21 60 9a be f7 01 ef bc 3a cc df bd
       0.37243322 -0.30151466 -0.029175742 -0.10927625
0001c0 2a d1 09 be 0f 8b 6e be 58 0b 8c bc f8 94 8d bd
       -0.13458696 -0.23295234 -0.017095253 -0.06913179
0001d0 8e 9d a9 3d 20 17 a0 bb b3 3d a0 3d 25 b3 e1 bd
       0.08282004 -0.004885569 0.07824268 -0.11020497
0001e0 7d 5a c1 bd a1 d2 71 be 59 d4 e2 3c ca 38 66 be
       -0.094410874 -0.23615505 0.027689146 -0.22482601
0001f0 2f 82 a1 3c b7 3e e9 bc 70 07 89 3d f7 28 8d bd
       0.019715397 -0.028472288 0.06690872 -0.06892579
000200 9b 8f 05 bf eb 83 c1 bd 3c ee 73 be cf 4a e7 bc
       -0.5217225 -0.094489895 -0.23821348 -0.028233914
000210 c6 c9 9a 3e 45 72 84 3e 22 96 83 3e 27 11 51 bc
       0.30232066 0.2586843 0.2570048 -0.012760437
000220 68 70 60 be 7e b7 2a be 03 9d 93 ba d2 ef b7 be
       -0.2191788 -0.16671559 -0.0011262003 -0.35925156
000230 08 b1 0d 3e 8c fe 18 be 15 aa b8 3c f4 1d 23 3d
       0.13837063 -0.14940852 0.022542039 0.039823487
000240 bb 69 c0 3a 69 55 41 be ca 66 0a 3e 57 c9 9f bd
       0.0014679948 -0.18880238 0.13515773 -0.078020744
000250 2a e1 9b bd fe 6d 44 be 1c f9 e3 3d 06 da 41 3e
       -0.07611306 -0.19182584 0.11131498 0.18930826
000260 67 0d 92 bd 56 29 81 3d 46 70 9b bd d6 1f 42 be
       -0.071314625 0.06306712 -0.07589774 -0.18957457
000270 7d 0a 91 3d 72 db 1a bd d9 82 bb be c5 c2 31 be
       0.070820786 -0.037806936 -0.36623266 -0.17359455
000280 dd e4 70 3d 19 9c fd be 0b e1 17 3e be 27 4c bd
       0.05881201 -0.49533156 0.14831941 -0.04984259
000290 0f b5 5b be 0f 70 8f bc 21 8c 5f 3d 84 e8 0e 3e
       -0.21455787 -0.017509488 0.054576997 0.13955885
0002a0 06 6c 97 be 57 dd d2 3d 59 db e5 3c 34 42 bf bd
       -0.29574603 0.102961235 0.028058695 -0.09338799
0002b0 d5 52 83 3d c9 7f e6 bd f8 28 03 bd eb f4 81 3d
       0.06412283 -0.11254842 -0.032021493 0.063455425
0002c0 69 8f 11 be 64 74 2a 3d ca f0 8d be 97 2d 03 be
       -0.14214863 0.041614905 -0.2772277 -0.1281036
0002d0 6a b4 95 3c ed 2d fb bd 2f 88 d2 bd 3c 20 44 3d
       0.018274505 -0.12264619 -0.10279881 0.047882304
0002e0 75 4d cc bd 69 47 06 3e d4 b0 18 3e 32 f3 b4 3d
       -0.09975711 0.13113178 0.14911205 0.08835448
0002f0 b1 1b ce bd 26 d1 2e be 5c 47 a1 3d cf 67 2b be
       -0.100638755 -0.17071971 0.07874939 -0.16738819
000300 9b 2e c4 be 1e 36 42 bd 62 fa 88 bd fc 75 16 be
       -0.38316807 -0.04741489 -0.06688382 -0.14693445
000310 e0 bc 9f 3c ba 4f f6 3d 01 42 25 bd 0d 2a 8a 3e
       0.019499242 0.120269254 -0.04034615 0.26985207
000320 5f a1 95 3e 28 9c 66 3e 17 3b 9a bd bd ab 0a be
       0.2922468 0.22520506 -0.07530802 -0.13542075
000330 a5 44 72 be 69 6b bc 3c 4c 9a 34 3e 2b 4a 2d bd
       -0.23658998 0.023000436 0.17636985 -0.04230706
000340 00 bf 8e 3c 1c 70 c6 3b f2 91 96 3d 10 47 0a 3d
       0.01742506 0.006055845 0.073520556 0.033759177
000350 41 4e 60 bb c8 c2 45 3e a4 27 3f bd 33 ff 0b bd
       -0.003422633 0.19312584 -0.046668664 -0.034178924
000360 36 0c bd bc 96 28 c3 bc 9c 14 3d be bc b2 59 3e
       -0.023077112 -0.023823064 -0.18464893 0.21259588
000370 d5 06 af 3d 92 34 86 3d cd 87 0b 3e 0a 84 08 bd
       0.08546225 0.06552996 0.13626023 -0.033329047
000380 90 d3 bd bd 30 cc c9 bd ae 51 09 be b6 43 98 3c
       -0.09268868 -0.09853399 -0.13410065 0.018586975
000390 a8 c8 23 be 85 14 3a bd b6 1c 81 bd 7e 1a d6 3c
       -0.15994513 -0.045429725 -0.06304304 0.02613568
0003a0 01 7b 0d 3d 72 b1 a9 3d 4f 5e 24 be 09 2e 14 3e
       0.034541134 0.08285798 -0.16051601 0.14470686
0003b0 8d e0 d5 bc c4 8d 0d 3e 46 c7 9f 3d 38 a4 73 be
       -0.02610805 0.1382361 0.0780168 -0.23793113
0003c0 0b da 0e bd c8 5e 4a 3e 43 4b 28 3e 42 f1 4e be
       -0.03487591 0.19762719 0.1643496 -0.2020922
0003d0 39 4b 0d bd 70 a5 ea bd 79 02 5e bd b5 e6 65 bc
       -0.034495566 -0.11457336 -0.054201577 -0.014032056
0003e0 8a 2a 88 bd 71 e3 c6 3d e5 3c d8 3d 4c 3d a3 bd
       -0.06648739 0.0971135 0.1055849 -0.07970676
0003f0 3f 3e 84 bd 63 84 06 bd d6 37 1b be a2 16 70 3e
       -0.06457185 -0.032841098 -0.15158018 0.23446134

mlp_1.bias f4 [64]
000000 ea dc c8 bc 6d 86 b7 bd 2c c2 a9 3d 4e 31 3e bd
       -0.024519403 -0.089611866 0.082889885 -0.04643374
000010 7f b1 32 3e 0d af 61 3c 48 94 b0 3d 3d 1a 93 bd
       0.17450522 0.0137746455 0.086220324 -0.07182739
000020 bb 48 43 be a5 88 94 3d 8c 85 82 3c b9 f2 42 3d
       -0.19070713 0.072526254 0.01593282 0.04759476
000030 22 04 0c 3e a1 6c 08 bc 5d 15 a7 bd c2 6d 76 bc
       0.13673452 -0.00832668 -0.081583716 -0.015040817
000040 7a 20 20 3e fc 59 b8 bb 27 68 00 3d 39 dc 86 bd
       0.15637389 -0.0056259613 0.031349327 -0.06584973
000050 db 13 aa bb 48 29 0f bd b0 f8 ee 3d 53 4e 83 3d
       -0.0051903552 -0.03495148 0.11668527 0.064114235
000060 d4 18 c9 bd 07 d3 32 3e ca 6a 4c bd f7 4a 37 3d
       -0.09819189 0.17463313 -0.04990653 0.044749226
000070 3e 25 11 3d 51 60 8f bb f3 93 33 be 9f e4 05 be
       0.035435908 -0.0043754955 -0.17536907 -0.13075493
000080 6b ed 37 3e 7a e9 ca bc b4 05 38 bd 7d b2 05 3d
       0.17961662 -0.024769533 -0.044927314 0.032640923
000090 d4 0a 03 bd 91 53 2b 3d bf 85 43 3e 5d 6c c8 bc
       -0.03199275 0.041827742 0.19093989 -0.024465734
0000a0 9c fc 23 3c 5e 1a 92 3d 6a 51 b8 3e fa 2b 21 bd
       0.010008957 0.071339354 0.35999614 -0.03934858
0000b0 b1 0d 15 be 02 d5 05 3e 15 a4 cd bd c2 0a d4 3d
       -0.14556004 0.13069537 -0.10041062 0.103536144
0000c0 07 8d 5b 3d 9b 9f bd 3d b8 ff b7 bc fb ef 0a 3d
       0.05360129 0.09258958 -0.022460803 0.03392027
0000d0 55 7e 8e 3d 3d 44 88 3d cb 24 b2 bb 5a ff cc bd
       0.0695769 0.066536404 -0.005436515 -0.10009642
0000e0 a6 73 0a bc 86 a1 f6 bd 70 c1 32 be 97 c3 84 3c
       -0.008450424 -0.12042527 -0.17456603 0.016206546
0000f0 bb 68 a9 3a 19 ab 3e 3d f3 b2 3c 3c 09 f2 47 3d
       0.0012924889 0.04654989 0.011517274 0.048814807

mlp_2.weight f4 [59, 64]
000000 b9 b1 95 bc 52 82 13 bf 8a e5 c4 3d 88 34 73 bd
       -0.018273221 -0.5762073 0.096140936 -0.05937627
000010 4d 2c c9 bd 8f 20 78 bd 98 09 5e 3d 62 f8 c0 be
       -0.09822903 -0.060577925 0.054208368 -0.376895
000020 ef 4e a9 bf 7e da d0 bc 9b 64 28 be cc a3 47 3d
       -1.3227214 -0.02549481 -0.16444628 0.048740193
000030 f7 07 a5 3c 2f 67 a9 3d 61 a4 88 be f1 b2 93 bd
       0.0201454 0.08271634 -0.2668791 -0.07211865
000040 72 a7 0a bf 48 4c 0f bd 6f f5 ad 3d ca 6a f9 bd
       -0.5416175 -0.034984857 0.08494078 -0.121785715
000050 d2 cf 1c bd f7 f1 23 be 92 8e 33 3d 75 0d 0f bf
       -0.03828413 -0.16010271 0.043837138 -0.5587991
000060 f7 c6 dc bd 19 68 a5 be 39 2d d4 3d 17 d8 94 be
       -0.10780137 -0.32305983 0.10360188 -0.29071113
000070 56 a1 d8 bd 84 3c 01 bf 38 67 bc be ad b5 b9 3d
       -0.105776474 -0.50482965 -0.367975 0.09067855
000080 e8 ae 4e be fc a8 3d bd 4a ce 28 be 6d c0 85 bd
       -0.20183909 -0.046303734 -0.16484943 -0.06530843
000090 30 05 49 3d 12 18 e4 be c0 77 70 be 31 fc 9c be
       0.049077213 -0.44549614 -0.23483181 -0.30661157
0000a0 d5 0d d4 bb 01 27 19 3e ca bc 08 c0 11 b5 50 bc
       -0.0064713755 0.14956285 -2.1365228 -0.012738482
0000b0 2b 6a 9f bf f9 0f 10 bf 1d f6 c2 be f5 1d ba be
       -1.2454275 -0.5627437 -0.38078395 -0.3635098
0000c0 df 52 9d bd e2 84 39 be cf c9 4d bf d1 4f 1c bd
       -0.07681822 -0.18117097 -0.8038606 -0.038162056
0000d0 4f c0 58 be d4 16 52 3d fb 7f d2 bb 21 b8 5d 3d
       -0.2116711 0.0512913 -0.006423948 0.054130677
0000e0 6a af 6d bd ce cf f4 bd cf e5 ca be bf 84 3d 3e
       -0.058028616 -0.11953698 -0.39628455 0.1850767
0000f0 39 af 2f 3e 79 98 94 be af 0a b8 3d 8e ea 8a be
       0.17156686 -0.29022577 0.08986413 -0.27132076
000100 49 ce 59 bd 54 18 62 bd 9e ec 7e 3d 7e e8 8e bf
       -0.053175244 -0.055198982 0.062237374 -1.1164701
000110 02 40 27 be 40 3d 3e bc 10 32 43 be 3d c8 33 3b
       -0.16333011 -0.011611283 -0.19062066 0.0027432584
000120 1d 59 7d bf 45 3f 6b bf bd e3 af bd 40 01 9f be
       -0.989641 -0.91893417 -0.085883595 -0.3105564
000130 8c 31 a0 3d fa 10 a2 be 45 30 d5 be af b6 71 3e
       0.0782195 -0.31653577 -0.4163839 0.23604845
000140 b7 2a ee bd 7a f7 f8 be 6f a5 ac be 6f 4a c6 be
       -0.11629241 -0.4862631 -0.33719966 -0.38728663
000150 28 85 d5 be f6 2f ee be 13 8e 19 be 5a c3 9c be
       -0.41703153 -0.46520966 -0.14995603 -0.3061779
000160 ac 78 47 be 5e f5 18 3d d6 7c 92 be 8c 17 09 be
       -0.19479626 0.037343375 -0.28610867 -0.13387889
000170 c8 64 73 be b3 46 06 3d 1b e1 23 c0 e4 fa 9e be
       -0.23768914 0.032782268 -2.5606143 -0.3105079
000180 0e 9e da be 27 25 d3 bf 8a c5 e9 bc 56 33 1c bf
       -0.4269871 -1.6495713 -0.028536577 -0.6101583
000190 a1 f3 f2 3c e6 70 14 be 3c c1 c4 be 86 18 b6 3d
       0.029657187 -0.14496192 -0.38428676 0.08891396
0001a0 89 27 87 3e 41 b7 10 bf 07 30 51 c0 f4 92 94 3e
       0.2639735 -0.56529623 -3.2685564 0.29018366
0001b0 65 e2 19 bf ff 3e a0 be b7 62 bb bf fe 0a 46 3e
       -0.60111076 -0.31298062 -1.46395 0.1934013
0001c0 f7 c7 73 3e 65 15 66 bf 2d d0 ea bd 51 44 0d 3e
       0.2380675 -0.89876395 -0.11465488 0.13795592
0001d0 82 44 69 be 66 a3 02 3c e6 b3 f7 bd 67 bf 60 bf
       -0.2278004 0.007973528 -0.1209486 -0.87792057
0001e0 c5 b2 7b bd ee 89 e9 be b4 5e 49 bf c9 03 d7 be
       -0.061449785 -0.45613045 -0.7866013 -0.41995075
0001f0 dc 93 dd bd 00 90 ef bd b1 27 28 3e 4c a2 be be
       -0.108192176 -0.11697388 0.16421391 -0.37233198
000200 6e 77 ec bd 5a c4 88 be c5 99 0a bf 39 bf 74 bf
       -0.11546217 -0.26712304 -0.54140884 -0.9560428
000210 ef 6b af 3c c6 c8 70 bd 4e 1e ab be 8c 01 94 bc
       0.021413771 -0.058785222 -0.33421558 -0.018067144
000220 50 19 8e bf 63 b0 f9 bd af 10 4c bf 83 1f d3 3c
       -1.1101475 -0.12191846 -0.7971296 0.025771862
000230 5d 16 a9 3b 5c cd 14 be ab b4 51 bf e0 a1 15 be
       0.0051601366 -0.14531463 -0.819163 -0.14612532
000240 c1 91 1e be 44 5c a0 be 9a e8 25 3e 4c 17 0c bf
       -0.15485288 -0.31320393 0.16202012 -0.5472305
000250 82 69 ca be 4f 1e c3 3d e0 d7 a1 be ac 73 91 bd
       -0.3953362 0.09527265 -0.31610012 -0.07102141
000260 ef 8d fa be 1c 70 f8 3c c3 7e 2a be ff d5 92 be
       -0.48936412 0.030326895 -0.16649918 -0.2867889
000270 8c 0f da be ac 1a ac be f6 fb cb bf 05 b3 14 3e
       -0.42589986 -0.336141 -1.5936267 0.14521416
000280 c0 fc 3b 3e a4 3e 08 be bb b7 1b be 48 82 3f 3e
       0.18358135 -0.13305146 -0.15206806 0.18702042
000290 2c d5 9c be ad ca 07 be 7e e8 a1 3d b4 1c 0e bf
       -0.30631387 -0.13260908 0.079056725 -0.5551255
0002a0 fb 10 0f bf fd d3 26 bf 87 c1 e6 bf a8 e3 45 be
       -0.55885285 -0.6516722 -1.802781 -0.19325125
0002b0 92 2c f4 bf 42 79 a5 bc 78 ef 49 bf d3 b6 b7 bb
       -1.9076102 -0.020199422 -0.78881025 -0.005606511
0002c0 e8 4f 4b bf c6 73 45 be 53 51 97 be d8 80 e8 3c
       -0.794188 -0.19282445 -0.29554233 0.02838175
0002d0 b3 ed af be bf be ac be 30 7c bd be 42 51 57 bb
       -0.34361038 -0.33739278 -0.3700881 -0.003285483
0002e0 ee 02 e0 bd cc 6a 85 3d 45 0f 67 bd fa b7 02 3e
       -0.10938059 0.065145105 -0.056411047 0.12765494
0002f0 a3 e3 5b 3e e9 6d 10 bd 71 b2 89 bf f4 5c ed 3d
       0.21473555 -0.03526107 -1.0757581 0.11589995
000300 3d 5b 09 3e 18 8f 63 be 49 dc 17 be 0c 6d 52 bf
       0.13413711 -0.22222555 -0.14830126 -0.8219764
000310 ba f9 54 be 57 67 88 be b9 69 bf be e6 db 10 3e
       -0.20798388 -0.26641342 -0.37385347 0.14146385
000320 a6 2a 35 bf 88 6c 99 be 28 06 31 bf 50 db 9f be
       -0.707682 -0.29965615 -0.6915002 -0.3122201
000330 32 af 31 bc 49 86 81 bf 59 99 3c bf c6 30 ce 3c
       -0.0108449925 -1.0119106 -0.7367149 0.025169741
000340 66 59 e5 bd fe 2b d7 bd 93 6b 67 3d 64 97 e5 bd
       -0.11198692 -0.10506438 0.056499075 -0.11210516
000350 7f be 39 bf f3 e3 b7 be 0c c5 3e 3e c0 b0 b0 be
       -0.725563 -0.359161 0.18629855 -0.3450985
000360 9c 33 38 3e 27 18 f6 be 66 0f 3a be 4e 42 af 3b
       0.17988437 -0.48065302 -0.18169937 0.0053484803
000370 03 96 5e bf bf 68 55 be 40 74 d0 be 3e 44 7e be
       -0.8694765 -0.20840739 -0.40713692 -0.2483072
000380 b5 07 ed 3c ff 7d 94 be dd 1c b3 be 38 7f 07 bf
       0.028934339 -0.29002377 -0.34982958 -0.52928495
000390 b5 41 6c 3e d5 62 54 3e 3b 99 05 bf 4e 67 29 be
       0.2307194 0.20740826 -0.52186936 -0.16543314
0003a0 ae bf 6d 3c 75 df af be 27 9d b3 c0 77 b3 36 3e
       0.014511032 -0.34350172 -5.6129336 0.17841898
0003b0 ae 2b 6c bf 38 08 8b be ef 0e e3 be 26 28 12 be
       -0.9225415 -0.27154708 -0.4434733 -0.14273128
0003c0 fd c5 a7 be 30 dc 02 bd f8 ac 92 be 79 5c e6 bd
       -0.3276824 -0.03194827 -0.2864759 -0.112481065
0003d0 e2 4a 80 be 74 f2 6f be 18 28 da be 86 28 12 be
       -0.2505713 -0.23432332 -0.42608714 -0.14273271
0003e0 c6 d9 ff 3c 33 7f fa bd 9e 57 76 3d aa c7 35 be
       0.031231772 -0.122312926 0.060142152 -0.17751947
0003f0 3c 4d 32 bd ff b6 14 bf b7 0b 79 bd d5 2a c8 be
       -0.043530688 -0.5809173 -0.060802188 -0.39095178

mlp_2.bias f4 [59]
000000 95 65 7c be b8 93 cd 3d 87 27 28 bd be 2c 32 bd
       -0.24648125 0.10037941 -0.04105332 -0.0434997
000010 fd cd 8e 3d f9 16 33 3d 94 04 8c bc d8 1d 29 3d
       0.06972883 0.04372308 -0.017092027 0.041288227
000020 c8 eb 13 be 74 40 31 3e 0a e9 07 3b c8 e1 ff bd
       -0.14445412 0.17309743 0.0020738267 -0.12494236
000030 3f 8f d5 3d b2 f5 d4 bd 71 3c 28 be 51 f1 29 3e
       0.10427713 -0.10398425 -0.16429307 0.16595961
000040 25 dd d4 3e f5 09 02 be 0f 58 4c be 5c 9c 7b bd
       0.4157497 -0.12699111 -0.19955467 -0.061428413
000050 c3 ba 9d bb 6e 55 a4 3e 5d 9c 20 3e f7 b6 8f 3e
       -0.0048135235 0.32096428 0.15684648 0.2806928
000060 53 2d 9f bd 83 aa 5c 3e 52 d7 ca be 58 b9 39 bf
       -0.07772317 0.2154942 -0.396174 -0.7254844
000070 68 d7 a3 bf c0 dc 90 bf 29 06 16 c0 f3 e3 7d bf
       -1.2800112 -1.1317368 -2.344126 -0.9917595
000080 81 17 a5 bf 48 e6 96 bf ee a0 21 c0 1d 15 1a c0
       -1.2897798 -1.1789026 -2.5254474 -2.4075387
000090 cf 6c 93 bf f1 04 c0 bf c1 8d 9b bf f4 23 8f bf
       -1.1517581 -1.5001508 -1.2152635 -1.1182847
0000a0 4e 9c 58 bf a4 5b 4b bf 8b 3f 14 c0 99 fe a2 bf
       -0.846135 -0.7943671 -2.3163784 -1.2733947
0000b0 a0 9e 9b bf d8 cd 8f bf bb 52 1a c0 3b 33 11 c0
       -1.2157784 -1.1234694 -2.4112995 -2.2687519
0000c0 21 03 1b c0 bb 0d 16 c0 4d bb 71 bf 1c 49 1c c0
       -2.422066 -2.344588 -0.94426423 -2.4419622
0000d0 55 89 3b 3e a2 5d 14 c0 41 f9 c1 bf a7 aa 18 c0
       0.18314107 -2.318215 -1.5154191 -2.3854158
0000e0 49 c3 d7 3d bc 50 aa 3d 61 86 e3 bd
       0.105352946 0.0831618 -0.11109615
