CNNs/AUTOENCODERS/ConvAutoencoder.pth (torch, 791465 bytes, 19 tensors)

Encoder.0.weight f4 [8, 1, 3, 3]
000000 8c dd b0 3d 5e 5c 8e 3d d6 0c 61 3e 9d 4e 84 3e
       0.08636007 0.069512114 0.21977553 0.25841227
000010 b0 c5 28 be 04 39 8b 3e 46 9b 6d 3e 94 e9 99 be
       -0.16481662 0.27191937 0.23203763 -0.30061018
000020 b0 a7 8e 3e 43 43 76 3e cc 8a b6 bd 59 19 a0 be
       0.2786231 0.24049096 -0.08913192 -0.3126934
000030 24 f9 6c be 66 20 73 3d ce 57 8d 3e 2a 2a be 3d
       -0.23141915 0.05935707 0.27606052 0.09285386
000040 6c 69 73 3e 70 e2 b2 3c 81 37 5f 3e 97 01 90 be
       0.23770684 0.02183649 0.21798517 -0.28126213
000050 c1 1c e0 3d 34 61 92 3e 4a 74 13 be 33 47 9f be
       0.10942984 0.28589785 -0.1439983 -0.31109008
000060 a8 52 7a be 7f 7b f4 3c f3 8e 90 be 01 b1 67 3e
       -0.24445593 0.029844044 -0.28234062 0.22626115
000070 0e 9d af 3d d0 c2 95 3e 92 2c fc 3d 0b 3a 8f be
       0.08574878 0.29250193 0.123131886 -0.2797397
000080 e1 1a 25 3d ba 64 38 bc 82 b7 af 3e aa 35 0e 3e
       0.040308837 -0.011254484 0.34319693 0.13887659
000090 7c 85 20 be 05 93 9c 3e 5b 6c ac 3e d3 0d 1c be
       -0.1567592 0.30580917 0.3367642 -0.15239649
0000a0 4b 22 b6 3e b5 64 7f bd d0 db 23 be ae 08 92 bd
       0.35573038 -0.0623519 -0.1600182 -0.07130562
0000b0 45 8b 30 be 3d b6 ae bd ef b8 b6 3d 74 36 73 be
       -0.17240627 -0.08530853 0.08921992 -0.23751241
0000c0 27 ac 9e be 57 80 65 3e 9b 04 23 bd 78 5f d5 3d
       -0.30990717 0.22412239 -0.039799314 0.104186
0000d0 7d a9 0c be b8 cd 27 bd 7f b1 63 3d b0 95 47 be
       -0.1373653 -0.040967673 0.055589195 -0.19490695
0000e0 50 af 4d be d9 6e 3d be 96 a2 48 3e 7e 8a 0b 3e
       -0.20086408 -0.18499316 0.19593272 0.1362705
0000f0 7a 97 1e bb 69 7a ee 3d 88 48 86 bd bd ad 11 3e
       -0.0024199174 0.11644442 -0.06556803 0.14226432
000100 09 67 87 3d 19 90 9e be 8a ba 3f 3d 6a ae 4b 3d
       0.06611449 -0.30969313 0.046808757 0.04972688
000110 0e 12 a6 3d ea b7 61 3e 3f d3 f0 bd 73 03 5c 3e
       0.081089124 0.22042814 -0.11759042 0.21485691

Encoder.0.bias f4 [8]
000000 00 ae 68 be b2 f4 08 be 35 c6 70 3e 1e b2 76 be
       -0.22722626 -0.13374594 0.2351311 -0.24091384
000010 60 7e 6f be 88 e9 c5 bd ac 2a b2 be 39 7c 66 be
       -0.23388052 -0.09663683 -0.3479818 -0.22508325

Encoder.2.weight f4 [16, 8, 3, 3]
000000 d6 ef 44 3d db 28 9f 3d 44 e5 cc bd 8b 82 19 3d
       0.048080288 0.077714644 -0.100046664 0.03747801
000010 af db db bd 33 b3 a2 bd db b1 f0 bd ba ba 5f 3d
       -0.10735261 -0.07944336 -0.11752673 0.054621436
000020 bd c5 dc bc f8 ef 08 be 41 aa f0 bd 8f 43 bb bd
       -0.026949758 -0.13372791 -0.11751223 -0.09143745
000030 f1 5f c5 3d 7d 81 25 bd 44 f1 e1 bd 81 7c 4e 3d
       0.0963744 -0.040406693 -0.11032346 0.050411705
000040 6f 5f cb bc d3 a4 0c 3d c2 4d 8b 3d 94 ed 0c bd
       -0.02482578 0.034336876 0.068019405 -0.03440626
000050 c9 b1 d6 bd 79 3a 70 bc b2 39 5c 3d 67 d0 bb bd
       -0.104831286 -0.0146623785 0.05376596 -0.09170609
000060 56 27 b4 bd d8 a3 30 3d dd 46 52 3d 2b 59 a5 bd
       -0.08796565 0.043125004 0.05133711 -0.08073648
000070 c6 27 99 bd 5d ad 61 bd 0b 1a 71 bd e2 98 c8 3d
       -0.07478289 -0.055096973 -0.058862727 0.09794785
000080 32 8d 54 3c 9a 9a 17 3d 33 39 dc 3d ca 5d 25 bd
       0.012973117 0.037012674 0.107530974 -0.040372647
000090 2a 4b a0 bd 29 24 e8 3c 9b a5 a6 bb 4e 34 d7 3d
       -0.078268364 0.028337555 -0.0050856597 0.10508023
0000a0 2b 27 c7 3d 84 20 2b bd 4a af 55 3d 4a 06 88 ba
       0.097242676 -0.041779056 0.05216912 -0.0010377851
0000b0 90 b1 8c 3d 9d 36 78 bd f5 99 88 bd 2c 33 a2 3d
       0.06869805 -0.06059896 -0.0666999 0.079199165
0000c0 38 be da 3d 15 0f 8e 3d 0e 96 35 3d 80 66 e6 3d
       0.106808126 0.069364704 0.044332556 0.11250019
0000d0 15 87 8a bd 84 66 6a bd bf 8b a1 3c ec 64 43 3d
       -0.06764046 -0.057226673 0.019719956 0.04770367
0000e0 06 56 6a 3d 85 a6 cc 3d f9 c8 80 3a ee b6 31 3d
       0.057210945 0.099926986 0.000982552 0.043387346
0000f0 9d bf 4d bb a2 6d 2d bd 83 86 da 3d 7a dc e5 3b
       -0.0031394728 -0.042340882 0.10670187 0.0070148082
000100 3c 3f a1 3c cf f1 94 bd a4 fc f7 bd 6a e8 e4 bd
       0.019683473 -0.07272684 -0.12108734 -0.11177142
000110 83 86 d1 3d c1 b5 41 3d fd 9c cb 3d a6 8b b5 3d
       0.10230734 0.047292475 0.099420525 0.088645265
000120 9c 66 8d 3b 16 ab 07 3d 5a ba 90 bb 52 5e b0 3d
       0.0043152105 0.033122145 -0.004416746 0.0861174
000130 49 7f 4c bd ea 50 a1 3d f5 40 20 3d a2 5f 9c 3d
       -0.049926076 0.07876761 0.039124448 0.07635428
000140 41 3b b1 bd a7 56 2d 3d 2e 85 77 3d 9c 34 56 bd
       -0.0865388 0.042318966 0.060429744 -0.052296266
000150 c6 b3 6d bd bd 5a e4 3d f5 65 b5 3d e1 2b cc 3a
       -0.058032773 0.111501195 0.088573374 0.0015577042
000160 06 59 9b 3d ff 07 fb 3c 18 1c 27 bd 3f c9 a8 bd
       0.07585339 0.030643461 -0.040798277 -0.0824151
000170 8c ed d5 3c 9c c5 4c bd 4c 1d a7 3d df fc 53 bd
       0.026114248 -0.049993142 0.08159885 -0.05175483
000180 07 91 80 bd 8b 44 27 3c 96 6f 3e 3d 98 82 95 3d
       -0.06277662 0.010209213 0.046493135 0.073002994
000190 9a 1a 1c 3d b0 83 03 3e 45 29 96 3d b0 e4 97 3d
       0.038111307 0.12843204 0.0733209 0.074166656
0001a0 e5 43 9e 3c 7d 20 8d 3d f0 42 34 3d 07 e7 e5 3d
       0.019319484 0.06890962 0.04400915 0.112257056
0001b0 af 44 f9 3c 4b e5 98 bd 05 16 ad 3d 11 db f9 3d
       0.030428259 -0.07465609 0.084514655 0.12199987
0001c0 b3 7e 94 3d 35 e0 99 3d d2 0a fd 3d d7 01 de 3d
       0.072507285 0.07513467 0.123555794 0.10840195
0001d0 90 c3 8d 3d 1a 67 43 bd de 32 d6 bd 32 0a 7c 3d
       0.06922066 -0.047705747 -0.10458921 0.06153316
0001e0 95 3d d0 bd b0 43 81 3d 6f ed 60 bd fa 31 d7 bd
       -0.10167996 0.063117385 -0.054913934 -0.10507579
0001f0 0e 3f 1a 3c 73 ed 9e 3d fe e2 01 be b3 36 9a 3d
       0.0094144475 0.077601336 -0.12684247 0.07529964
000200 a9 9d 69 bc 5d f0 b6 3d 82 05 96 bd 1e 33 b7 3d
       -0.0142587805 0.089325644 -0.07325269 0.08945297
000210 28 f9 a3 bc 93 74 a5 bd 61 b6 cc b9 cd e4 db 3d
       -0.020016268 -0.080788754 -0.00039045795 0.10737
000220 44 22 0a bd 1d f6 5b 3d 60 40 43 3d 7b 0c 9f bc
       -0.033724084 0.05370151 0.047668815 -0.01941513
000230 23 23 3a bc 7f 99 ed bd af 17 b0 bd db 7e a1 bc
       -0.011360916 -0.11601543 -0.08598267 -0.01971381
000240 ec d7 da 3d cc dc 57 bd 99 1a e6 3d 14 57 84 bc
       0.10685715 -0.052700803 0.11235542 -0.016154803
000250 33 f9 a7 bc cc 18 16 3c 2e 80 a2 bc cc 7d 5f 3d
       -0.02050457 0.0091611855 -0.019836511 0.05456333
000260 c4 ce 7f bd 5a d2 a6 bc 0d 2f fa 3d bc 1a 85 bd
       -0.062453046 -0.020363975 0.122160055 -0.0649924
000270 88 e7 00 bd 63 2b c4 3b 71 b7 29 bc 0e cb 4f bc
       -0.031470805 0.0059866174 -0.010358677 -0.012682689
000280 92 8d b6 bc 18 89 8d ba 81 8a 8b 3d 6f 38 a9 3d
       -0.022284303 -0.0010798303 0.06813527 0.08262717
000290 d6 34 45 3a 17 8e 65 bd cd a0 ba 3d bc db 20 3c
       0.0007522827 -0.05604371 0.091127016 0.009818014
0002a0 dc 37 52 bd 74 7c a5 3d 85 96 e7 3d 2b a3 08 3e
       -0.051322803 0.08080378 0.11308006 0.13343494
0002b0 88 66 c5 bd 3b 56 b4 3c 21 06 aa 3d f0 69 09 3e
       -0.09638697 0.022013774 0.0830195 0.13419318
0002c0 1d 90 9b 3d 72 4b ae bd 7e fc c9 3d 48 28 0b bd
       0.07595847 -0.08510484 0.09862612 -0.033973962
0002d0 e6 6b 05 3e c5 8f e7 bc 99 3f d9 bd 03 1c 43 bd
       0.13029441 -0.028266797 -0.106078334 -0.047634136
0002e0 c9 dd cd bd 1e 73 47 bc ad ac 22 3e 1d 4a 8b 3d
       -0.10052068 -0.012173442 0.15886183 0.06801245
0002f0 63 01 09 be 1c ee 3f bc c2 2e b9 3c 15 a6 1c 3d
       -0.13379435 -0.011714485 0.022605304 0.038244326
000300 9b f4 a4 3d 54 bd 9c bd cc 4d 8e bd e4 7e 47 bd
       0.08054467 -0.07653299 -0.06948432 -0.048704997
000310 a5 0c bc bb ad cb 6f 3c 1b c4 86 bd 70 25 67 3d
       -0.005738812 0.014635962 -0.06580373 0.056432188
000320 d1 bc 96 bb 69 76 91 bc 33 78 a5 3d c8 3a fa bc
       -0.0046001454 -0.017756658 0.08079567 -0.030545607
000330 7d 0f 09 3c 64 3e a2 bc 9e 38 47 3d bd 4b bc bd
       0.008365509 -0.01980514 0.04863798 -0.091941334
000340 ea a0 ae bd 78 94 fb 3d 07 8d cf bc d2 32 ca 3d
       -0.08526786 0.122841775 -0.025335802 0.098729745
000350 09 d9 40 bd 17 3b d6 3d 9f e1 9f 3d 81 a2 9f bb
       -0.04708198 0.10460489 0.07806706 -0.004871667
000360 50 5e 97 3d 2f bf 72 bd 47 9c 6e bc 83 14 fb 3d
       0.073910356 -0.059264358 -0.014563627 0.12259772
000370 98 0b c2 3c e9 6a bf bd 25 7b b3 bb 84 93 05 bd
       0.023687169 -0.09346563 -0.0054773265 -0.032611385
000380 16 b2 98 bd db 25 a2 bd 99 32 a7 3d 69 29 8d bd
       -0.07455842 -0.079173766 0.081639476 -0.06892664
000390 c5 0a 95 3d 68 17 68 3d 35 ab c7 bd 76 c2 a8 3d
       0.07277445 0.056662947 -0.09749452 0.082402155
0003a0 60 c7 24 bd 61 15 b5 3d 18 bd b4 3c 0c cc 9d bd
       -0.0402292 0.08841968 0.022062823 -0.077049345
0003b0 9e f1 73 3d f5 ae 6e bd f8 59 79 bc 71 5b 81 bd
       0.059556596 -0.05827232 -0.015219204 -0.06316269
0003c0 7d d5 0b 3e 90 3b 0a 3e 7b 2b 65 3d 49 f6 a0 bd
       0.13655658 0.13499284 0.05594967 -0.07859475
0003d0 4c e8 ac 3d 72 90 d5 3d e1 4e f1 3d 24 47 99 3d
       0.084427446 0.104279414 0.11782623 0.07484272
0003e0 cd e9 b3 bd 68 84 b7 3d fd 6b 91 bd 2e 7f 89 bd
       -0.08784828 0.08960801 -0.07100675 -0.06713711
0003f0 61 2b 92 3c 4b 2a 9a bb 1b 62 9d 3d fc 8b fe 3d
       0.01784295 -0.0047047487 0.07684728 0.12429044

Encoder.2.bias f4 [16]
000000 c9 88 cd bd 0e 10 a8 3c 8d 15 08 3e 7d 77 59 3d
       -0.10035855 0.020515468 0.13289471 0.05309247
000010 a0 c0 32 bc 77 46 e9 3d e8 96 ad 3d 29 8c fb 3d
       -0.010910183 0.11390393 0.08476049 0.12282593
000020 1f f4 06 3e 90 28 0b be dc 17 ae 3d a9 f8 f5 3d
       0.13179062 -0.13589692 0.085006446 0.12010319
000030 46 72 dc 3d 02 d6 80 3d 2f d5 59 3c 5a 4b ee bd
       0.107639834 0.06290819 0.013295456 -0.11635466

Encoder.4.weight f4 [32, 16, 3, 3]
000000 0c a7 6c 3d ba fe 09 3d f3 d5 88 3c 79 e9 ac bd
       0.057776496 0.03369019 0.016703581 -0.08442969
000010 bc ad 7f 3d 74 06 aa bd ec 13 52 3d 85 cb 13 3d
       0.062421545 -0.08302012 0.05128853 0.036082763
000020 6c fa 5b bd ef 39 08 3d d5 c8 b8 3b 1a 47 91 bd
       -0.053705618 0.033258375 0.0056391754 -0.0709364
000030 75 c4 fe 3c a6 8b 38 3b 9c 83 f6 3b a1 66 90 3d
       0.031099537 0.0028159409 0.0075230133 0.07050825
000040 93 e6 7c bd 6f c7 12 bd b4 2b 27 3d 97 d1 10 bd
       -0.06174333 -0.035834726 0.040813163 -0.03535613
000050 da 82 77 3d 52 63 07 3d 2c 9b 43 3d e9 57 5f 3d
       0.060427524 0.033053704 0.047755405 0.054527197
000060 2b f6 fa 3c 03 66 98 3d 1c ce 24 3c ac 5b b4 3c
       0.03063496 0.07441332 0.010058906 0.022016369
000070 e5 ce 83 bb 69 6c 4a 3d 9b 8c 5e 3c b7 06 f6 3c
       -0.0040224665 0.049419794 0.013583328 0.030032499
000080 fd c8 b7 3d 23 33 64 3a a7 7c da bc 61 6c 72 bd
       0.08973882 0.000870513 -0.026670767 -0.05918539
000090 f4 3a 1c 3d 03 18 86 3d e8 89 75 3d cd a4 64 bd
       0.03814216 0.065475486 0.05994597 -0.05582123
0000a0 f0 c0 8d 3d 42 30 10 bd ed 7e b6 bc f3 38 83 3d
       0.069215655 -0.035202272 -0.02227732 0.064073466
0000b0 ec cb 69 bd 9a c9 44 bd b9 dc 90 bc 8a de 80 3d
       -0.05707924 -0.048043825 -0.017683374 0.06292446
0000c0 6b ec bd 3d a9 dc 95 3d 84 cf b3 3d 90 2f 99 3c
       0.09273609 0.07317478 0.08779815 0.018699437
0000d0 77 77 aa 3d e0 cb 02 3c d0 2b 8d bd 28 06 8a 3d
       0.08323567 0.007983178 -0.06893122 0.067394555
0000e0 b9 eb 6b 3c 0e be 86 bc 36 28 f1 bc 51 0f 55 3d
       0.014399462 -0.016448047 -0.02943812 0.05201656
0000f0 af e8 6f 3b fb 96 b0 3d 00 70 48 bd 98 f6 b6 3d
       0.0036607196 0.08622547 -0.048934937 0.08933753
000100 ec bd c9 3d 0d 2a 80 bc 3f 94 c4 3d 0b 7f ec 3c
       0.09850678 -0.015645051 0.09598588 0.028869173
000110 5d 67 45 3c 1b a3 a5 3d 06 07 fa 3a 3e c8 0a bd
       0.0120485695 0.080877505 0.001907558 -0.033882372
000120 33 38 a6 3d ea c2 7c bc 74 b5 84 3d ab e0 7e bd
       0.08116188 -0.0154273305 0.06479922 -0.06222598
000130 12 74 54 bd 3b 08 d9 3b 13 30 2c bc 78 f6 f5 3c
       -0.051868506 0.0066232956 -0.010509509 0.030024752
000140 d7 1f 65 bd 10 b8 70 bd 64 da 6d bc 43 8f 63 bd
       -0.055938568 -0.058769286 -0.0145174 -0.055556547
000150 12 d7 21 3c c1 a0 21 bd b7 6d be 3c 7e e9 1d bd
       0.009877937 -0.039459947 0.023245675 -0.038552754
000160 49 1b ef bc 29 cb 09 3c f5 86 64 3d 4d 3f 9a bd
       -0.029187815 0.008410254 0.055792768 -0.07531605
000170 03 11 cf bc 14 6e 8b 3d a2 d8 a8 3a fd 42 89 bc
       -0.025276667 0.06808105 0.0012881944 -0.016755575
000180 82 1a 90 bc c3 44 1f 3d 85 12 0a bd e2 60 8e bc
       -0.017590765 0.038883936 -0.033709068 -0.017380182
000190 9a 90 86 3d 10 44 8d 3c 7e 39 40 bd 1b 4a e1 3b
       0.06570549 0.017244369 -0.04692983 0.006875289
0001a0 17 b5 ed 3c 19 44 29 bd dd 8f 36 3d d3 ec 92 bc
       0.029017014 -0.04132471 0.044570792 -0.017935192
0001b0 50 16 a3 bb 4e c1 2c 3d 57 25 b4 bc 58 71 1d 3d
       -0.004977025 0.042176537 -0.021990461 0.03843817
0001c0 75 c5 ab 3d c1 fa ea 3b 17 f6 27 bd 67 4d 9b 3d
       0.08387271 0.0071710055 -0.041006174 0.07583123
0001d0 4c c8 56 bd b0 95 68 bd fd 9d 8d 3d f1 43 93 3c
       -0.05243711 -0.056783378 0.069148995 0.017976733
0001e0 90 ea 07 bd 5d b5 15 3b 81 4c 16 bd be 8b 9a bd
       -0.03318268 0.0022843697 -0.036694054 -0.07546185
0001f0 48 a2 90 bd d6 8d 2e bd 26 75 6b 3d 5f 33 1a bc
       -0.07062203 -0.042615734 0.05748477 -0.009411662
000200 0a 10 56 bd 02 99 af 3d 4b 55 7b 3d 70 64 8f 3d
       -0.05226139 0.08574106 0.06136064 0.07001579
000210 10 2e cb 3b 23 d0 c2 3d 03 5e 33 3d f8 8f 9e bd
       0.0062005594 0.09512355 0.04379083 -0.077423036
000220 f7 84 5b bc 71 35 0a 3d bf ca 0a bd 74 fc a4 bd
       -0.0133984005 0.033742372 -0.03388476 -0.08055964
000230 2a 7b 58 3d 96 1d b5 3c 83 4a 4a 3d 9a 8f 5e 3d
       0.052851833 0.022108834 0.049387466 0.054336168
000240 2d a3 d1 bd 49 a2 cb bd d7 91 f3 bc 0c d5 1c 3c
       -0.102362014 -0.09943063 -0.029732628 0.009572279
000250 f5 db f2 bc 22 72 f1 bc 62 de 04 bd 30 07 1e 3d
       -0.0296459 -0.029473368 -0.032438643 0.038581073
000260 45 3e 9c bd 9a c1 f0 bc ec 7a a0 3d cd 69 b2 3d
       -0.076290645 -0.029389191 0.078359455 0.08711586
000270 cd bd 9d 3d bf 02 3e 3d 19 2f ca ba e7 b7 84 bb
       0.07702217 0.046389338 -0.0015425413 -0.004050243
000280 95 e7 2a 3d b1 77 21 bd 11 16 d1 3d 5d 65 ba 3d
       0.04172476 -0.039420787 0.10209287 0.09101365
000290 36 74 46 bd ed 1f 3a 3d 0c bf 6a bd 7e 30 63 bd
       -0.04845067 0.045440603 -0.057311103 -0.055466168
0002a0 d8 72 ae 3d 58 0f 09 3d cd 52 91 3d 54 ce c8 bb
       0.085179985 0.0334619 0.07095871 -0.006128112
0002b0 f3 c2 38 3d d8 78 99 3d 1d 7e 67 bc 89 27 70 bc
       0.045107793 0.07493752 -0.014129189 -0.014657863
0002c0 94 95 80 3b dc af 19 bd c3 af 81 3d 65 ac 3a bb
       0.003924081 -0.03752123 0.06332352 -0.0028484103
0002d0 81 09 84 bd 47 19 02 3d 9e 1d 25 bd 51 17 10 ba
       -0.06447125 0.031762388 -0.04031145 -0.00054966385
0002e0 96 29 87 bd 1c dc 60 3d fa 8a 60 3a 2c d4 8a bd
       -0.06599729 0.054897413 0.0008565631 -0.0677875
0002f0 7f ce 9f 3d e2 92 14 bd 7a 59 08 3d ea c8 ce bb
       0.07803058 -0.03627289 0.033288456 -0.006310572
000300 9e c2 25 3d 18 ae 10 3c f9 2f 52 3c 54 06 a1 3d
       0.040468805 0.00883057 0.01282882 0.07862535
000310 37 9a 9a 3d 8c 9a 17 bb 10 37 d8 3c ed 2e 2e 3b
       0.075489454 -0.0023132889 0.026393443 0.0026578263
000320 1f 79 37 3d d6 a2 6f bd 6d a9 46 bd 55 3a 92 3d
       0.044793244 -0.0585049 -0.04850142 0.07140032
000330 98 e6 aa 3d 7e ef 99 3d 6f 77 51 3d 0f c6 2f 3c
       0.083447635 0.07516383 0.05113929 0.010728373
000340 e3 34 aa 3d 4a 72 16 bd ca 4c e8 bc 5a b2 ad ba
       0.083108686 -0.03673009 -0.028356928 -0.0013252005
000350 97 9e 60 3d 7e bc 93 3d fc d9 5a 3d 8e ac f0 bc
       0.054838743 0.072136864 0.053430542 -0.029379155
000360 61 74 22 bd ef 24 5a 3d c1 5c 60 3d 69 f9 a0 3b
       -0.03966177 0.05325788 0.054775957 0.0049125445
000370 9a 85 ad 3d a7 b2 44 3d 82 9a 9f 3d 6c 15 3c 3d
       0.08472748 0.04802194 0.07793142 0.045918867
000380 e5 01 4a 3d 21 11 23 3d 33 53 a5 bd 90 2c d8 bd
       0.049318213 0.039811257 -0.080725096 -0.105553746
000390 99 40 6d bb 76 d8 1d bd c7 b0 95 bd d4 9d 8e bb
       -0.0036201833 -0.03853651 -0.07309108 -0.0043523107
0003a0 d7 aa 3a bd 3f 00 79 bc 36 87 d4 bc 9a 4b b3 3d
       -0.04557308 -0.015197813 -0.02594338 0.08754654
0003b0 28 69 82 3d dc df 00 bc 6f bf 2b 3d 76 de 6e 3d
       0.06367713 -0.007865872 0.041930612 0.058317624
0003c0 93 6a 81 bd 43 59 4c 3d 84 9f 22 3d 0b 6a ab 3d
       -0.063191555 0.049889814 0.039702907 0.083698355
0003d0 ac 5c c7 bb 69 96 a6 3d ea e0 ca bc 95 3e ae bc
       -0.0060840454 0.08134157 -0.02476545 -0.021270076
0003e0 b5 ca 2c bc 25 41 ad 3d 0d 30 9b 3d 29 3c 0d bd
       -0.010546376 0.08459691 0.07577524 -0.0344812
0003f0 7a 0a 83 bd 42 81 80 3d 05 49 a2 3d 21 2b d3 3c
       -0.063984826 0.06274654 0.079240836 0.025777401

Encoder.4.bias f4 [32]
000000 a8 02 c3 3c b7 78 14 bd 4a f3 c8 bc 42 d7 a2 3d
       0.023804978 -0.036247935 -0.024530072 0.079512134
000010 ea d6 80 3d bb 52 a0 3d 2a ce 6f 3c a9 6e 68 bc
       0.062909916 0.078282796 0.014636556 -0.01418654
000020 a9 d9 62 bd a7 2d b9 3c 86 46 0d bd 61 79 91 3d
       -0.05538336 0.022604777 -0.034491085 0.07103229
000030 b6 b3 84 3d f0 9d bd bd bb ed 77 bd f2 02 c8 3d
       0.0647959 -0.0925864 -0.06052945 0.09766187
000040 96 cf ca bc 84 ce 97 bd 49 d2 97 3d 94 04 32 3d
       -0.024757188 -0.074124366 0.074131556 0.043461397
000050 e7 e3 1b 3c 36 21 c2 3d 66 ce c2 bb c7 7b 07 bc
       0.009514785 0.09478991 -0.005945015 -0.008269257
000060 eb 1c 7a bd f4 96 71 3c f3 87 5e 3d c1 0e a4 3d
       -0.061062735 0.014745463 0.05432887 0.080106266
000070 5e 87 83 bd d8 75 57 bd dc 6e 46 3c 03 69 a6 bc
       -0.064223036 -0.05260262 0.012111392 -0.020313745

Encoder.6.weight f4 [64, 32, 3, 3]
000000 03 6c f9 bc a5 7d db 3c b7 34 63 3d d7 37 86 3d
       -0.030447012 0.02679331 0.055470195 0.06553619
000010 1a dc 8b 3d f1 98 91 3d 8b d8 41 3d ed 90 7d 3c
       0.068290904 0.071092494 0.047325652 0.0154764475
000020 27 77 90 bb 2e d8 e1 3c 9c 0b 88 bc 0a 2b 45 3d
       -0.0044087353 0.027568903 -0.016607098 0.04813675
000030 1e a0 65 3d d0 ae ae bb df f6 86 3c ff 49 1f bd
       0.056060903 -0.005330898 0.01647514 -0.038888928
000040 68 b8 d8 3b 3c 85 01 3d eb d7 19 3c 9b 72 55 bc
       0.00661378 0.031621203 0.009389858 -0.013027812
000050 07 92 fa bc 37 8c cb bc d9 b2 8d 3b 68 0c 7f 3c
       -0.03058721 -0.024847133 0.004324299 0.015566923
000060 a5 a5 45 3d 71 a1 ea bc 4e 11 93 bc 39 a9 10 3d
       0.048253674 -0.028641434 -0.017952587 0.035317633
000070 b5 c0 c2 bc 0a 47 82 3c 14 55 27 3d 05 5b 05 bd
       -0.02377353 0.015903015 0.04085262 -0.032557506
000080 ba 99 46 bc b8 08 a8 3d db 6a b1 3c 73 1f f5 3b
       -0.012121612 0.08204788 0.021657398 0.0074805557
000090 80 40 15 bc a1 5e 17 bc 93 df 83 3d a7 14 f8 bc
       -0.009109616 -0.00923887 0.06439128 -0.030283285
0000a0 b6 06 92 3c b0 5f 8a 3d 8c 5f ab 3d 64 75 3b bc
       0.017825466 0.06756532 0.083678335 -0.011441562
0000b0 e9 e3 0e 3c d9 80 9b 3d 86 dc 84 bb 77 ce 19 3d
       0.00872133 0.07592935 -0.0040546088 0.037550416
0000c0 b4 81 25 bb 9d 71 17 3d 57 ba 24 bc 9b 80 37 3d
       -0.002525431 0.036973584 -0.0100541925 0.044800382
0000d0 a4 9e 8e 3d 5e bb e2 bc 25 25 35 bd 9a ff 4f bc
       0.06963852 -0.027677234 -0.044224877 -0.0126952175
0000e0 51 cf cc ba f4 7e 7a 3d 04 48 3e 3d 7d 36 89 3d
       -0.001562575 0.06115623 0.0464554 0.06699846
0000f0 99 93 3b 3d 6a 2f b4 b9 44 b6 3b 3d b0 22 99 3d
       0.045795057 -0.00034367602 0.04582812 0.07477319
000100 ec f7 ef bc f0 22 a4 3d 4c f1 e5 bc 02 29 11 3d
       -0.029293023 0.08014476 -0.02806916 0.0354395
000110 8c 6c 3a 3c 5e df b9 3c c5 9a 9b bc 0b ff c1 bc
       0.011378419 0.022689518 -0.018994698 -0.023681184
000120 4f f3 07 bb 4b 1f 7c 3d 14 4d e3 bc 32 cb 16 3d
       -0.0020744388 0.06155328 -0.027746715 0.036814876
000130 88 12 89 bc 38 3e ed bc 4e d7 d4 bc ae fc 04 3d
       -0.01673247 -0.028960332 -0.025981572 0.032467537
000140 22 e4 07 3c 43 23 2b 3d 30 69 9b 3c 28 ff 63 ba
       0.008294137 0.041781675 0.018971056 -0.0008697384
000150 37 92 29 3d ae 88 21 bd 7a 09 87 3c 72 46 1e bd
       0.041399207 -0.03943699 0.016484011 -0.0386414
000160 72 7d 65 bd 8d 1a bf 3c bb 12 21 bd 93 b3 92 bb
       -0.056027837 0.02332809 -0.039324503 -0.0044769733
000170 09 ab 51 bd 7f a2 5f 3c 59 72 69 bd 2b 7b e8 bb
       -0.051188502 0.013649582 -0.056993816 -0.007094761
000180 d9 b4 d1 3b 29 c3 41 bd 56 25 b6 bc 75 7e 32 bb
       0.0063997325 -0.04730526 -0.0222346 -0.0027236019
000190 0a 72 05 bc 0f 57 c1 3b 3b 8a 85 3c c0 42 8d 3d
       -0.008144865 0.005900271 0.016301265 0.06897497
0001a0 e1 05 87 3d 12 7c 90 3c d9 cb 43 3d fb 2e 15 3b
       0.06592918 0.017637286 0.047801826 0.0022763598
0001b0 43 c0 14 3d 25 08 e2 3b 09 55 9e 3d cd 0e a5 3c
       0.036316168 0.0068979436 0.07731063 0.02014866
0001c0 7e f8 2c bd 4a 68 4a 3d 86 f4 ad bc cb 24 c2 3b
       -0.042229168 0.049415864 -0.021234762 0.005924796
0001d0 93 ac 83 3a 5a 41 83 3c dc a7 75 bd 24 2a bb bc
       0.0010045938 0.016022373 -0.059974536 -0.022847243
0001e0 d1 3f e9 bc f4 3f 0d 3d 58 34 7c 3b 7d ef 2a 3b
       -0.028472813 0.03448482 0.0038483348 0.0026082688
0001f0 d7 ea 96 bc 0c f0 0a bb f6 c6 a2 bd e7 ba c9 bc
       -0.018422527 -0.0021200208 -0.07948105 -0.024625255
000200 9e dc d5 3c 1b 29 85 bd fb 8b e3 bc e4 2f 1a bd
       0.026106175 -0.06501981 -0.027776709 -0.03764333
000210 6e 4d f2 bb 8b 8b ac 3c 43 93 4f 3c 1c c8 0f bd
       -0.0073944842 0.021062633 0.012669387 -0.03510295
000220 f1 35 3a bc 3d 02 68 3d b8 b4 97 3d c5 44 88 3d
       -0.0113654 0.05664276 0.07407516 0.06653742
000230 67 25 77 3c 13 77 19 3d c5 ef fe bc ff 91 48 3d
       0.015084601 0.037467074 -0.03112019 0.048967358
000240 8a 0c e6 bc d8 77 2a 3c 52 e3 2d 3d cc a3 6c 3d
       -0.028082151 0.01040455 0.042453118 0.057773396
000250 c2 dc 20 3c aa 54 74 3d 8e d7 39 bc e2 eb 6c bd
       0.009818258 0.059651054 -0.011342896 -0.057842143
000260 1d 05 e1 3b 8c c0 a9 3c f9 cd 01 3c a3 6f e8 3c
       0.0068670646 0.020721696 0.007922643 0.028373545
000270 95 04 65 bd 15 ec 98 3b 6c 5b b1 3b 80 15 63 bc
       -0.055912573 0.004666815 0.0054125097 -0.0138601065
000280 81 cc 99 bd 7c f9 af 3c 66 82 e8 3c 14 d5 df bc
       -0.07509709 0.021481268 0.028382491 -0.027323283
000290 3f d3 f9 bc a0 bd c1 3c 54 e5 8e 3d a6 03 9e 3c
       -0.030496238 0.02364999 0.069773346 0.01928885
0002a0 db 75 12 3d cb f7 74 3c 02 fa b7 3b f1 27 4e 3b
       0.035756927 0.014951657 0.00561452 0.0031456912
0002b0 3f d0 9f 3c cf a2 68 bc 0d 37 84 bc 41 aa 80 3d
       0.01950848 -0.014198973 -0.016139532 0.06282473
0002c0 b9 0f c2 3b 4e 6d ed bc be 06 e5 3c 09 59 88 3d
       0.0059222844 -0.028982785 0.027957316 0.06657607
0002d0 6a 1e 80 3d 29 9a ba 3c 93 31 03 3d 15 67 0a 3c
       0.06255801 0.022778587 0.0320297 0.008447428
0002e0 06 4a 65 3d cf f3 c5 3c 16 f6 09 bc cb 23 2f bd
       0.055978797 0.024164109 -0.008420488 -0.042758744
0002f0 03 fa 84 3d ba 60 4c 3d ee d2 49 bc 35 9c 13 3c
       0.064929985 0.049896933 -0.012318356 0.009009411
000300 5e df 1c 3d cc a7 7c bc 1f 6f 6c 3d 8f 9b 38 3c
       0.038298957 -0.015420865 0.05772316 0.011267557
000310 95 7c 81 bc 59 2f f7 bc 38 44 ed bc af e9 d8 3b
       -0.015806476 -0.030173944 -0.028963193 0.006619654
000320 3d 67 91 3d ff 00 d4 bc 23 9e 2a bc ed 55 00 3d
       0.07099769 -0.025879381 -0.010413679 0.031331945
000330 13 b7 4f bc 2d 8e 52 3d 5d 31 b1 3c 95 49 41 bc
       -0.012677926 0.05140512 0.021629984 -0.0117973285
000340 e4 96 1f 3c 78 18 fd bc fe c1 2b 3d b4 4b a1 3c
       0.009740565 -0.030895457 0.041933052 0.019689418
000350 4e 5f ef bc 51 04 41 bd 9b 8b 06 3b e4 3d 58 3d
       -0.02922025 -0.047123257 0.0020529989 0.0527934
000360 3c 01 01 3b 94 09 1e 3d d1 73 b6 bc 3e 1b c0 3b
       0.0019684574 0.038583353 -0.022272022 0.0058626225
000370 42 d9 6e bd 55 bb 37 39 a9 f9 5f 3c 41 b1 99 3c
       -0.058312662 0.00017522027 0.013670363 0.018761279
000380 d4 b7 9a 3c 32 ff 2f 3d 19 f8 d3 bb af 20 7d 3d
       0.018886484 0.042967983 -0.0064687845 0.061798748
000390 96 2d ab 3d 49 b0 06 bd 15 70 b5 bc 6e 73 4c 3c
       0.08358304 -0.032882962 -0.022148171 0.012478692
0003a0 c2 52 b6 3c 8c a4 7d 3c c1 b8 d0 bb 56 2e d0 3c
       0.022256259 0.015481126 -0.0063696806 0.02541272
0003b0 a4 d0 83 3d bc 28 4d bc 45 a8 88 3d 91 82 64 3d
       0.064362794 -0.012521919 0.0667272 0.05578858
0003c0 5a f4 95 3d 1a a0 3f 3d c3 e1 c2 3a d8 19 70 3d
       0.07321997 0.046783544 0.0014868308 0.058618397
0003d0 0f c1 f4 3c e7 b8 1c 3d 54 4b a0 bc c2 3c 07 bd
       0.029877214 0.038262274 -0.01956717 -0.033016928
0003e0 4c 31 be 3c 62 79 9b 3d 71 55 f7 3c 38 3e 04 3d
       0.023216866 0.07591511 0.030192109 0.0322859
0003f0 2f 9b 45 bd c1 3b 57 bd bf aa b7 bc ab 3a 97 bd
       -0.048243698 -0.05254722 -0.022420285 -0.07384237

Encoder.6.bias f4 [64]
000000 47 57 91 3c 9c b1 4f 3d e2 07 9b bb bc 7b 6a 3d
       0.017741812 0.05070649 -0.0047311643 0.05724691
000010 ec 60 1f bc 5a d7 8c 3d 0f 74 68 3d bd 09 12 bd
       -0.009727698 0.068770126 0.056751307 -0.03565382
000020 cc 53 58 3d 98 56 f7 3c c5 ae a1 3c 73 38 2a 3b
       0.05281429 0.030192658 0.019736657 0.0025973588
000030 f5 58 07 3d bd 9f 90 bd 99 4d 80 bd 3c 93 33 bd
       0.03304382 -0.07061718 -0.062648006 -0.043841586
000040 66 b2 82 3d 04 60 3f 3d 59 f0 f1 bc 34 18 1f 3d
       0.06381683 0.046722427 -0.029533552 0.03884144
000050 29 43 8e bd f4 74 59 bd 7d b4 71 bb 98 61 ed 3a
       -0.069464035 -0.05309005 -0.003688126 0.001811075
000060 77 2a 42 bd 27 e9 30 3d b9 b3 4a 3d dc c5 ff 3c
       -0.04740378 0.0431911 0.049487803 0.031222276
000070 1b 33 9a 3c 1e 3c 8e bc b8 c1 3b bc 1c d3 03 3d
       0.018823197 -0.01736265 -0.01145976 0.03218375
000080 1b 4d 32 3c 4b 63 96 3c 90 9c fd bb ec c2 11 bd
       0.010882641 0.018357893 -0.007739611 -0.035586283
000090 9f 4f 68 bc 56 aa 78 3d fa f7 57 3d 90 70 1b 3d
       -0.014179139 0.06070932 0.052726723 0.037949145
0000a0 aa 81 5c 3d 00 02 4b 3d 4d 35 4b bc 79 ce 7e 3d
       0.053834595 0.049562454 -0.012402845 0.062208626
0000b0 38 01 68 bd 7f 5d 38 3d c4 25 5b bd 2c aa 38 3d
       -0.056641787 0.04501104 -0.053502813 0.045084164
0000c0 83 11 5a bd 11 a2 97 3d e5 52 98 38 96 23 07 3c
       -0.053239357 0.074039586 7.263365e-05 0.00824823
0000d0 39 20 72 3c 9c 7f 59 bd 11 a4 51 3d 71 8b c1 bb
       0.01477819 -0.053100213 0.051181857 -0.0059065153
0000e0 83 e7 74 bb c7 8a 27 bd 1e f9 bc 3c c9 42 57 bd
       -0.0037369437 -0.040903833 0.023068007 -0.052553926
0000f0 fc 8b 1f bc c0 41 76 3d 4a 3d 40 3d b5 2c 3d bd
       -0.009737965 0.060121298 0.04693345 -0.046185214

Encoder.8.weight f4 [128, 64, 3, 3]
000000 7d 10 7a 3c 91 ad 38 bc 36 5e 9f 3c 80 b4 f8 3c
       0.01526272 -0.01127185 0.019454103 0.030359507
000010 7b 21 0b 3d 1c e9 eb 3c 96 91 b9 3c fe 6a 43 3d
       0.033967476 0.028797679 0.022652429 0.047709458
000020 52 68 b0 bc ed 32 3c 3c ce 32 19 3a 8f 01 4c bc
       -0.021534119 0.011486751 0.00058440573 -0.0124515435
000030 11 42 c2 bc dd 93 44 3b 5c 48 94 b9 d6 8a fb bc
       -0.023713144 0.002999536 -0.00028282672 -0.03070585
000040 d5 4f 31 3c ff d5 f8 bb b2 14 3e 3c c3 57 e6 ba
       0.010822256 -0.0075938697 0.011601614 -0.0017573762
000050 1e 46 fa bb f0 e6 96 bc 57 8e ab bc 02 ce 1e bd
       -0.007637753 -0.018420666 -0.020941896 -0.038770683
000060 66 12 64 bc c3 fd 89 bc 73 59 88 3c 0c 00 4a 3d
       -0.013920402 -0.016844636 0.016644215 0.04931645
000070 fe 6b 04 3b 1e bc 37 3d 0f 5a 2f 3d 9d ac 90 3c
       0.002020597 0.044857137 0.042810496 0.017660433
000080 d5 5d 46 3a 5f 72 27 bd 13 ba 0e bd 7d 88 1e 3d
       0.00075670826 -0.040880557 -0.034845423 0.038704384
000090 24 cf 93 bc ac 08 04 3d 8a e7 a7 3c 6f 32 9f 3c
       -0.018043108 0.032234833 0.020496149 0.019433228
0000a0 8c b2 f0 bc 01 7c ed 3c 86 5e 1c bc 80 3a 9b bc
       -0.029382013 0.028989794 -0.0095440205 -0.018948793
0000b0 a2 d1 78 3c fb 8e 7f bc 2b 9e 44 3c f2 01 80 bc
       0.015186699 -0.015598054 0.012000601 -0.015625928
0000c0 15 ff 1b 3d 19 8a 37 3d b7 65 d1 bb 67 dc ac 3c
       0.038085062 0.044809435 -0.006390299 0.02110119
0000d0 f7 84 c1 3c 7d 25 4b 3d 15 35 a3 bc 1c 3b 8d 3c
       0.023622973 0.0495963 -0.019922772 0.0172401
0000e0 42 4b f6 3c 2c 26 76 bc c0 89 08 bc 06 ce 07 3d
       0.030065183 -0.015023749 -0.008333623 0.033155464
0000f0 cd 31 20 b9 79 45 94 bc 5c ed 31 3d 39 96 27 bc
       -0.00015277341 -0.018099533 0.043439254 -0.010228687
000100 b7 b6 b6 b9 c8 1f 32 bd a9 6f b4 bc 90 e1 2e bd
       -0.00034849878 -0.04348734 -0.0220259 -0.042695582
000110 a0 c3 36 bd 5b 11 b8 bc 7e cf ed 3b c1 ff 9a 3c
       -0.044620156 -0.022469213 0.007257401 0.018920781
000120 08 7f 83 3b f4 94 2e bc e0 e1 a8 3c 36 6f 2d 3c
       0.004012946 -0.01065563 0.020615518 0.010585597
000130 1e 31 50 b9 b7 ec 37 3c 79 dc 09 bd bd 9b 2b 3d
       -0.00019854723 0.011225871 -0.033657525 0.04189657
000140 b5 c7 58 bb bf f6 2f bc 2e 79 52 bc a5 a5 92 b8
       -0.003307802 -0.010739981 -0.012846274 -6.992676e-05
000150 9f f0 4a 3d ad df 3c 3c cc fb 7c bc 8c 58 ab 3c
       0.04954588 0.011527938 -0.015440892 0.020916246
000160 8e ae f7 3c 74 ea 30 3d dc 65 10 bc 5c a9 f3 bb
       0.030234601 0.043192342 -0.008813348 -0.0074359607
000170 c3 ce 23 bc 20 90 29 bc e6 12 ee 3b 3e 79 72 3c
       -0.009998026 -0.0103493035 0.0072654365 0.014799414
000180 96 50 7a 3c e9 91 f2 3c 2c 04 d0 3b a3 71 a6 3c
       0.015278002 0.029610591 0.0063481536 0.020317858
000190 38 f5 06 3d 1e 51 be 3c 54 9a 1e 3d c9 52 d6 bc
       0.032948703 0.023232039 0.038721398 -0.026162522
0001a0 cd 99 4e 3d cb b1 21 bd 65 b8 2c 3d 50 d9 29 3d
       0.050439645 -0.039476197 0.04216804 0.04146701
0001b0 b8 b6 66 3c 67 2d 0d bc 58 92 95 3b 18 a4 06 3d
       0.0140816495 -0.008616782 0.0045645647 0.032871336
0001c0 88 5c 40 3d 48 fd 1c 3d 27 7f 19 3d 20 f2 22 3b
       0.046963245 0.038327485 0.037474778 0.0024863556
0001d0 82 52 37 3d 94 a4 a7 bc 27 94 dc bc ec 9f e0 3c
       0.04475642 -0.02046422 -0.026926113 0.027420007
0001e0 d5 57 e9 3a b9 65 3d bb 4e 6b 0f bd 6f f3 e9 3c
       0.0017802665 -0.0028899743 -0.035014443 0.028558461
0001f0 00 19 41 bc c7 4a e2 bc 68 ce a9 bc 5d 03 45 bd
       -0.011785746 -0.027623547 -0.020728305 -0.04809891
000200 07 d5 0f bd 90 93 97 bc ed 77 06 3d 08 20 ac bc
       -0.035115268 -0.01850298 0.032829214 -0.021011367
000210 2e 91 4e bc 8c 30 21 bd f4 da de 3c 42 d9 1e bd
       -0.012607856 -0.03935294 0.027204014 -0.038781412
000220 41 94 ab 3b e5 1d 9f 3c 4d a5 67 3c da 6d 23 bb
       0.005236179 0.019423435 0.014138532 -0.0024937303
000230 23 23 8f bc 2c 9b 23 bc b1 a8 81 3c 61 20 87 bc
       -0.01747281 -0.009985726 0.015827509 -0.016494932
000240 ee 0b 18 3b b2 88 6d bc 3d 1c d8 3c f6 69 cd bc
       0.002320047 -0.014497923 0.026380653 -0.02507494
000250 ac b3 03 bd c1 1c 5a 3c ae a4 ca 3c b4 80 cc bc
       -0.03215377 0.0133125195 0.024736729 -0.024963714
000260 71 50 6d 3b a0 d7 16 bc 93 0e 1a 3d 81 a1 11 3d
       0.0036211277 -0.009206682 0.037611555 0.035554413
000270 91 49 b1 bc 45 11 61 bc a2 b2 1a bd 6f 42 2d 3c
       -0.021641525 -0.0137370275 -0.037768014 0.010574921
000280 3e db 08 3a 27 91 89 3c d9 6d 83 bc b5 00 1e 3c
       0.0005220658 0.016792847 -0.01604359 0.009643723
000290 17 49 c0 bc 8f f1 8c 3c cc ef 5b ba 2b dc 31 bc
       -0.023472352 0.017205028 -0.00083899195 -0.010855715
0002a0 b5 bc dc bc 96 1a 6a 3b 39 da af bc fc 8b 03 3d
       -0.026945451 0.0035721413 -0.021466361 0.03211592
0002b0 c3 11 37 3d f6 fd b0 bc 2c 76 25 3b f1 89 d0 bc
       0.044694673 -0.021605473 0.0025247438 -0.0254564
0002c0 79 a1 d7 3b e2 51 df b9 6f e6 a4 3c 45 23 db 3c
       0.0065805283 -0.00042594882 0.02012941 0.026750216
0002d0 6f 92 b9 3c 33 d1 51 bc c5 5d ae 3c 2b be eb 3c
       0.022652833 -0.012806225 0.021284947 0.028777203
0002e0 fc 1f 03 3d e7 c5 df bc cc 15 d9 bc 4e 53 67 bc
       0.032012925 -0.027316047 -0.026499651 -0.0141189825
0002f0 a9 99 3e bd 52 e0 bf bc a5 97 d6 bc f2 fb 46 bc
       -0.04653326 -0.023422394 -0.026195357 -0.012145029
000300 43 89 ee 3c c8 b8 4f bd c8 ca 62 3c e0 fb 04 3c
       0.029118186 -0.05071333 0.013842292 0.008116692
000310 a1 40 54 3a aa 74 0f bd 52 d5 24 3c 02 b5 ad 3c
       0.00080967887 -0.03502337 0.010060625 0.021204475
000320 90 11 5f bd 43 29 c8 3c 0e f4 c4 39 29 0f 98 3c
       -0.05446011 0.024433738 0.00037565868 0.018561916
000330 f0 33 d7 3c 6e 00 2b bd a7 73 b1 3c 12 90 94 3c
       0.026269883 -0.041748457 0.021661593 0.018135104
000340 47 20 cd 3b e2 7b 28 bd 76 66 fe 3a 85 bd f2 bc
       0.0062599513 -0.04113377 0.0019409198 -0.029631386
000350 b3 a2 f3 bb 4b 47 a2 3b 2e 91 46 3d f6 2c 13 3d
       -0.0074351667 0.0049523464 0.048478298 0.03593155
000360 e3 e5 d1 bb 51 db 7a 3c 3f 92 46 bd cf 0c 2d bd
       -0.0064055785 0.015311078 -0.048479315 -0.042248543
000370 dc 2e 06 bd b4 13 30 bd 91 a0 a8 bc e1 0d 0b bd
       -0.032759532 -0.04298754 -0.020584377 -0.033948783
000380 8e 8d 14 3c 84 d6 9a 3c 0b 22 12 3c a9 a3 ed 3b
       0.009066952 0.018901117 0.008919249 0.007252176
000390 d4 ec 6f 3b 40 dd cd bc f3 79 ef 3c 44 d3 32 3d
       0.0036609666 -0.025129914 0.029232955 0.04365851
0003a0 21 22 cf 3c 61 8f 09 3d 6a 03 3f 3c 84 c8 19 3d
       0.025284829 0.033584002 0.011658529 0.037544742
0003b0 3a 4e bc bc ab bd 08 3d 6e d8 a8 bc bd 9a 99 3c
       -0.02298652 0.033384006 -0.020611014 0.018750543
0003c0 cc 2e 90 bc 72 70 2e bc b6 93 f6 bc 9d 31 e1 3b
       -0.01760044 -0.010646926 -0.030099731 0.0068723694
0003d0 5e 46 42 3d 4b af fe 3c 09 64 ee 3c ef 03 a0 3c
       0.04743039 0.031089446 0.029100435 0.019533126
0003e0 85 68 24 bc b0 23 82 3c 77 9f 19 3d 8a 80 34 3c
       -0.010034685 0.015886158 0.037505593 0.011016974
0003f0 a3 5e 90 3c 9d 49 6b bb a1 24 24 bd 5c 2b 02 bd
       0.017623251 -0.0035902031 -0.040073995 -0.031779632

Encoder.8.bias f4 [128]
000000 4e 59 bc bc 1a 76 16 3d aa c8 27 bb aa 1b 0e 3d
       -0.022991803 0.036733724 -0.0025601783 0.03469435
000010 ca bf 03 3d d2 49 09 3d bf 82 f3 3c a3 53 05 3c
       0.032165326 0.033517666 0.02972543 0.008137616
000020 7d 31 c2 3b 25 b1 28 3d 59 87 ee bb f6 9b db 3b
       0.0059263096 0.041184563 -0.0072793183 0.0067019416
000030 d5 cc 85 3b a7 41 5a bc 10 fd e9 3c f4 79 90 3a
       0.004083256 -0.013321317 0.028563052 0.0011022673
000040 aa 21 ea bc 8c 0f bc 3c d0 41 1d bc 2d a2 46 3d
       -0.028580505 0.022956632 -0.00959821 0.048494507
000050 2d cd 0c bb d8 66 77 3c 1b 1a 90 3c 27 6b 3f 3c
       -0.00214846 0.015100203 0.017590573 0.011683262
000060 2a de 02 bc 4d 46 d1 bc 05 77 28 3d da 6c 71 bc
       -0.007987538 -0.025546217 0.04112913 -0.014735425
000070 c6 39 2a 3d c4 bd ce 3c fe a4 b3 3c cb fb 0c 3b
       0.041559003 0.025236972 0.02192926 0.0021512385
000080 9f 32 b3 3c ad 2a 1b bd fd 0c f9 bc 58 d0 68 bc
       0.021874724 -0.037882496 -0.030401701 -0.014209829
000090 38 8c 39 3d 3c 25 40 3d 42 b3 c0 3c 65 26 9b bc
       0.04529974 0.04691051 0.023522977 -0.018939206
0000a0 fd bd 1d bc f8 d0 bc bc e1 d5 d4 bb 78 0d 44 3b
       -0.009627816 -0.023048863 -0.006495223 0.0029915255
0000b0 5d 37 1d 3c 6d eb 24 3d e0 68 02 3d e7 e1 bf bc
       0.009595719 0.040263582 0.031838298 -0.023423148
0000c0 63 14 0f 3c f7 2b cf bc cd 0e 63 3c 91 4b e4 bc
       0.008732888 -0.025289519 0.013858509 -0.027868064
0000d0 45 3c b9 3c 8a 3c 1e bd cf 45 32 bd e4 1d 30 bd
       0.022611747 -0.038631953 -0.043523606 -0.042997256
0000e0 e0 d8 ab 3b 1d 55 a5 3c 19 27 91 bc 6f 78 39 3d
       0.0052443594 0.020182187 -0.017718839 0.04528087
0000f0 ea ab bc 3c da 51 06 3d 4b 5e 33 bd d5 24 3a bc
       0.023031194 0.032792903 -0.043791097 -0.0113613205
000100 e2 a4 1e 3d 43 f2 54 bc 49 9e dc 3c ed 28 02 3d
       0.038731463 -0.012997213 0.026930945 0.03177731
000110 bd 6d 43 bd b8 34 1a bd c5 4e 99 3c a0 35 27 bd
       -0.047712076 -0.037647933 0.018714318 -0.040822625
000120 d7 5e 31 3d 49 8a 28 bd 7c c8 50 bc 0c f9 37 3c
       0.043303337 -0.041147504 -0.012743112 0.011228811
000130 89 18 2f 3d 9e 25 39 bc f0 4c 3b bc 0d fe 0f 3a
       0.042748008 -0.011300473 -0.011431918 0.00054928736
000140 c1 f6 3d 3d 22 ed 22 bd a8 f2 0b bc 20 81 a6 3c
       0.0463779 -0.03977693 -0.0085417405 0.020325243
000150 60 c6 21 3d d5 b0 ac bc bd 1d 07 bd 17 15 10 3d
       0.039495826 -0.021080414 -0.032987345 0.035176363
000160 dd 5f 4c bd aa 78 3b 3d 00 96 45 ba 26 a3 3e bd
       -0.04989611 0.04576937 -0.00075373054 -0.04654231
000170 b8 8b 5f 3b 5b 6c 28 3d fe dc 4c bd d6 75 d7 3c
       0.0034110378 0.04111896 -0.050015442 0.026301306
000180 46 20 37 3d 3d 7b 09 3d 77 49 05 3d 8e 24 16 bd
       0.044708513 0.033564795 0.032540765 -0.036655955
000190 2b 2d 8c 3c ec a7 02 3d 0e 26 3d 3c 52 48 30 3d
       0.017111382 0.031898424 0.0115447175 0.04303772
0001a0 75 15 88 3c 8c 78 2b bd de 84 66 3c ed 55 0b bd
       0.016611794 -0.04186301 0.014069764 -0.034017492
0001b0 bd 44 32 3d 61 1f 88 3c 15 7e 6d bc 6f 67 0c bd
       0.043522585 0.016616525 -0.014495392 -0.03427833
0001c0 ea dd 96 bc 08 68 91 3b 40 9e 8a bc a5 df 01 3d
       -0.018416364 0.0044374503 -0.016921163 0.031707425
0001d0 c5 e1 39 bb 0c 9e a5 3c c7 81 95 3c 2c f1 07 bb
       -0.002836333 0.020216964 0.01825036 -0.0020743115
0001e0 66 7b 84 3c 74 5d 8e 3c 24 03 a1 3c 5a a9 1e 3b
       0.016172122 0.017378546 0.019654818 0.0024209828
0001f0 45 ab 08 3c 30 c7 28 bd 91 5c 18 3b 67 3c 96 3b
       0.008341615 -0.041205585 0.0023248533 0.0045848372

Decoder.0.weight f4 [128, 64, 3, 3]
000000 6f bc 19 3d b7 6e dc 3b 9a 00 03 bc ea a8 07 bd
       0.03753322 0.0067270654 -0.007995749 -0.033120073
000010 7d e2 93 bc 99 f7 a3 3a 96 bc 4d bc 01 f8 4b 3b
       -0.018052334 0.0012509703 -0.012557169 0.0031123164
000020 f3 cf 07 ba 8f ac 06 3b e0 c4 29 3d 80 78 a5 3b
       -0.0005180828 0.002054963 0.04144752 0.005049765
000030 c9 6a a0 bc 18 05 52 bd 79 f8 19 3b 3b 05 bc 3c
       -0.01958217 -0.05127439 0.0023494049 0.022951713
000040 5f bc 6c bb d6 75 a7 3c 16 c8 0f 3c 7b aa 1b 3c
       -0.003612302 0.02044193 0.008775732 0.009501095
000050 76 75 2b 3c fe 86 8a bc fd 64 9f 3c f7 80 2d bd
       0.010465017 -0.016910072 0.019457335 -0.04235932
000060 c5 80 3e bc d0 2c 15 3c fe 7f e8 bc 00 30 85 bc
       -0.011627381 0.009104922 -0.028381344 -0.01625824
000070 cf f8 89 3c dc 64 5d 3d e0 3b 5c 3d ab d1 f7 3b
       0.016842274 0.054051265 0.05376804 0.007562836
000080 dd 1a a4 bc e5 b5 17 3d 67 c2 89 bc 0e 36 33 3d
       -0.02003234 0.037038703 -0.016816331 0.043752722
000090 70 ad f2 bc 7a 2d 08 bc bf ab 80 bc c5 f6 60 bc
       -0.029623717 -0.008311624 -0.015706895 -0.013730709
0000a0 4f 52 96 3b d4 13 0b bd 1b c2 f2 3c c0 6c c2 3c
       0.0045874487 -0.033954456 0.029633572 0.023733497
0000b0 dd f6 a0 bc 49 ec a3 3b 09 cc e6 bc 4e 64 ec 3c
       -0.019648964 0.0050025326 -0.028173463 0.028856423
0000c0 0c 8a be 3c 48 c9 65 3c eb 05 94 ba ec 2c 4c 3c
       0.023259185 0.01402504 -0.0011293268 0.012461882
0000d0 a0 5d 05 bd 30 d2 00 3d 67 2f d1 3c 81 9c 8e 3c
       -0.03255999 0.03145045 0.025535299 0.017408611
0000e0 6d 20 03 3d 4f 65 f9 bc 9b 9a a2 ba 15 b0 14 bd
       0.032013346 -0.030443816 -0.0012405695 -0.036300737
0000f0 13 88 a9 3c fb 15 10 3d ad b9 ac bb c6 1d 96 bb
       0.020694768 0.035177212 -0.0052711577 -0.004581186
000100 5c 8b c0 3c 97 9b 15 3d df d3 04 bd a2 9d 85 bc
       0.023503952 0.036525335 -0.03242862 -0.016310517
000110 d2 8f b1 bc 75 1b c2 bb 48 a6 05 ba de 83 ff bc
       -0.021675024 -0.0059236833 -0.0005098325 -0.031190809
000120 b0 7c 20 bd d3 a2 97 3c bc e4 f2 bc aa 00 0f 3c
       -0.03918141 0.018510258 -0.029650085 0.008728186
000130 11 1e d5 ba 68 55 a5 3c 0b 84 fd bc 1d 7f 83 bb
       -0.0016259571 0.020182326 -0.030946752 -0.004012956
000140 41 f3 cf bc 05 9e cc 3c 9e a0 24 3d c3 21 b2 3a
       -0.025384547 0.024977693 0.04019224 0.0013590384
000150 e5 db 6b 3c 2c 7a b5 3b 05 fe 6c 3c 33 5e ee bb
       0.014395689 0.0055382457 0.01446486 -0.007274413
000160 ff 75 c8 bc f3 bf 06 bd cc ce d6 3a fc 0e 44 ba
       -0.024470327 -0.0328979 0.0016388535 -0.00074790395
000170 bc b9 a6 bb 86 93 cf bb 28 19 62 bc f4 5c 88 bc
       -0.005088059 -0.006334725 -0.013799943 -0.016645886
000180 c5 d9 90 3c 6c 2d b6 bc 1a 32 0c 3c bb 8c 5c 3c
       0.017681966 -0.022238456 0.008556867 0.013461287
000190 e6 4f 2d 3c 1e c7 07 bd 47 f9 21 bd 24 46 a9 3c
       0.010578131 -0.033148877 -0.03954437 0.020663328
0001a0 4e c0 0d 3d 9f d9 d9 39 0a ba f3 3c ec 62 30 3d
       0.034607224 0.00041551606 0.029751796 0.04306309
0001b0 2e 2c d5 ba 11 7c 8b bc a0 d1 ab bc 33 2f 8e bc
       -0.0016263777 -0.017026933 -0.02097398 -0.01735649
0001c0 e6 1c 28 bc 4d 8f b9 3b 1e c0 9f 3b 06 74 3d bd
       -0.010260796 0.0056628347 0.004875197 -0.046253227
0001d0 2c a3 0b 3a bd 1d 78 bc 27 fb 2e 3d c7 de 1c 3b
       0.00053267437 -0.015143809 0.042719986 0.0023936497
0001e0 30 67 8e 3b c6 f4 34 bc a2 89 32 bb 6c 9f e2 3c
       0.004345797 -0.011044687 -0.002724268 0.027663909
0001f0 99 e3 cc 3c 18 b0 64 bc bb ac 1e 3b d4 b2 3e bb
       0.02501087 -0.013958 0.0024211842 -0.002909829
000200 d2 1f 4e 3d 47 db 0c 3d 73 bc ff bc 38 4e fe bc
       0.050323315 0.034388807 -0.03121779 -0.031043157
000210 41 29 bd bc 2c d1 2d 3d 45 d1 46 3d 76 bf b3 ba
       -0.02309096 0.04243581 0.04853942 -0.0013713676
000220 32 fd 38 bc 2d a4 50 3d 1b 26 b2 3c cd 90 99 3c
       -0.011290835 0.05093782 0.021746686 0.018745804
000230 77 fd 67 3c c7 b1 56 bb 2a 0b 60 3c d0 a2 11 3c
       0.014159552 -0.0032759772 0.013674537 0.008888915
000240 25 85 c5 3c bd 57 54 3c a9 3a 85 bc da 50 38 3d
       0.02411134 0.012960372 -0.016263323 0.04499898
000250 57 bd b8 bc 44 31 ba 3c 1d b7 2e bb 60 83 c8 3c
       -0.022551222 0.02272857 -0.0026659437 0.024476707
000260 c0 b5 45 bc 42 7c 45 3d 1e b7 3f 3d bd 33 5e 3d
       -0.012067258 0.048214205 0.046805494 0.05424856
000270 a3 f5 32 3c 40 c5 16 3d 56 ac 32 3d e8 ae 4a 3c
       0.010922822 0.036809206 0.043621384 0.012370802
000280 eb 17 06 3d 39 93 33 3d 4f 70 e3 3c 0d 21 1c 3d
       0.032737654 0.043841574 0.027763514 0.038117457
000290 7d ad 52 3d a9 85 1a bc 2a 31 2f 3d f2 8f 38 3d
       0.051434983 -0.009431281 0.042771496 0.045059152
0002a0 7a 53 09 bb 32 ff ed bc ff 4d fb 3b f9 9e bf bb
       -0.0020954297 -0.02905235 0.00766921 -0.0058478084
0002b0 55 80 17 3c 46 60 d1 bc 70 3f ab 3c 16 09 1c 3d
       0.009246905 -0.025558602 0.020904273 0.038094603
0002c0 5e eb 60 3c 29 b7 0c 3c 69 e4 17 bd 70 27 fa 3c
       0.013727991 0.008588591 -0.037083063 0.030536383
0002d0 7e 23 c9 bc 76 d3 8e bc 74 70 2d bd 59 b7 38 bd
       -0.024553057 -0.017434817 -0.04234357 -0.04509673
0002e0 2b 22 5e 3c 16 af 97 3c 58 2b 27 bd 88 59 01 3c
       0.013557951 0.018516105 -0.04081282 0.007894881
0002f0 73 0a 88 3c 61 06 9e 3c f8 69 d7 3b c3 86 71 3c
       0.016606545 0.019290151 0.0065739118 0.014741602
000300 77 e8 78 bb 12 bc 39 3d af b4 d0 bc 3b 07 3f bd
       -0.0037980357 0.045345373 -0.025476782 -0.046637755
000310 b7 bb bd 3c 27 bf 81 ba d6 e4 6a 3d 6d 70 f6 3c
       0.023160798 -0.0009898887 0.05734714 0.030082906
000320 76 4c 02 bd 24 0d 0a bd 87 4e 0a bd eb 6c d7 bb
       -0.0318112 -0.033703938 -0.033766296 -0.0065742633
000330 7e 22 29 3c f4 15 04 bd df 04 71 bc 15 c8 1c 3d
       0.010323165 -0.0322475 -0.014710634 0.03827675
000340 86 63 06 bd 4f b4 2c bc f9 0c 25 3d 6e d1 d5 bb
       -0.032809757 -0.010541036 0.040295575 -0.00652521
000350 da ba 31 3d e3 e2 9e bc cc f7 cb 3c 36 af a0 bc
       0.043391086 -0.019395297 0.024898432 -0.019614797
000360 9e 5d 49 bc 2d 83 30 3d 8d 8d 9d bc 4e b3 b9 bc
       -0.0122903865 0.04309385 -0.019232536 -0.022668507
000370 56 6d 05 bc 24 cd b5 3c 33 f3 12 3d 8f 14 04 bd
       -0.0081437435 0.022192545 0.035876464 -0.03224617
000380 87 5e 9a bc 04 6b 00 3c 99 13 7d bc a5 54 27 bd
       -0.018843902 0.0078380145 -0.015446567 -0.040852208
000390 e1 92 05 3d aa 8f 04 3d eb a1 9c bc b4 51 83 3c
       0.032610778 0.03236357 -0.019120177 0.01603017
0003a0 9a 14 bd bc 74 7c 28 bd b0 b4 60 bd 19 e1 b0 bc
       -0.023081113 -0.041134313 -0.054859817 -0.02159171
0003b0 bb f9 56 bc a4 0a 87 3c 65 a2 f1 bc b6 aa e5 3c
       -0.013121064 0.016484566 -0.029496381 0.028035503
0003c0 f0 90 0d bd d5 3b 8c 3c 50 8d 01 3c 38 e0 e2 ba
       -0.03456205 0.017118374 0.007907227 -0.0017309254
0003d0 5a 41 c5 3b b6 30 16 3c 0f e5 36 bd 66 15 94 3c
       0.0060197534 0.009166887 -0.04465204 0.01807661
0003e0 ff 3e d7 bc 2a 28 f9 3c 18 67 21 3b 14 8c 0d 3d
       -0.026275156 0.03041466 0.00246281 0.034557417
0003f0 36 7b b5 3c 81 3b 38 3c 79 05 47 3b ec a4 19 bc
       0.022153478 0.011244656 0.0030368252 -0.009377699

Decoder.0.bias f4 [64]
000000 c9 80 71 3c f0 c9 30 3d cb 16 d8 3c 2f 0e 84 bb
       0.014740177 0.043161333 0.026378056 -0.004030011
000010 37 be 19 3d bd cf f7 bc 89 e1 29 3d 39 d4 29 3d
       0.03753492 -0.030250425 0.041474853 0.041462157
000020 cb e7 9a ba 64 4b 2f bc 59 76 03 bd d2 76 de 3c
       -0.0011818347 -0.010699127 -0.032095287 0.027156267
000030 8d 49 48 3c 62 dc 2e bd f3 8f 56 bc e2 95 34 3c
       0.012224567 -0.042690642 -0.013095844 0.011022063
000040 42 68 2c 3d aa 77 37 3d 53 1a 50 3c d0 88 41 ba
       0.042091615 0.044791855 0.012701589 -0.00073827524
000050 b5 9b 31 3c 58 25 3d bd 9c f7 28 3d 6a 34 18 3d
       0.010840346 -0.046178192 0.041251764 0.03715936
000060 16 60 6a 3c 0f b2 0b 3d 2c 74 14 3d 2e 6a c3 bb
       0.014305135 0.034105357 0.036243603 -0.0059635853
000070 fb 65 d2 3b 49 22 0e 3d c4 c7 57 bc d7 13 b2 3b
       0.0064208484 0.034700666 -0.013170186 0.005434494
000080 6d a4 4f 3d 53 f0 7c bc 1e d0 0a bd 06 11 60 bb
       0.050693918 -0.015438157 -0.033889882 -0.0034189834
000090 16 07 2d 3c fa 69 38 3d aa 2d 68 bc bd e8 ad 3c
       0.010560771 0.045022942 -0.014171043 0.021229142
0000a0 86 0d 4d bc f3 f4 08 3c ed 34 00 3d e6 c2 17 3d
       -0.012515431 0.008359182 0.031300474 0.037051104
0000b0 ab 6e b8 3b 3a 9b c6 bc 2a 14 19 3c 43 d4 b6 bb
       0.005628427 -0.02424394 0.009343186 -0.005579503
0000c0 9d aa 4d bc 7a e4 40 3b 6c c6 e6 3b ca 74 a2 bc
       -0.012552884 0.0029433058 0.0070426967 -0.01983108
0000d0 50 cf 11 bd d0 fd 08 3d f3 36 02 3c ab b4 63 bc
       -0.0355981 0.03344518 0.007947671 -0.013898055
0000e0 92 81 0c 3d 1e f2 24 bc 39 57 94 3c d1 c7 a2 bc
       0.034303255 -0.010067491 0.018107997 -0.01987067
0000f0 d9 e4 10 3d 30 40 f8 b9 31 be 3f 3d de a4 23 3d
       0.035374496 -0.0004735007 0.04681224 0.03995215
