CNNs/AUTOENCODERS/ConvAutoencoder.pth (torch, 791465 bytes, 19 tensors)

Encoder.0.weight f4 [8, 1, 3, 3]
0	0xba751814	-0.0009349596
1	0xba0ae565	-0.00052984647
2	0xbaa14316	-0.0012303318
3	0xba642781	-0.00087033963
4	0xb9134218	-0.00014043634
5	0xba9d88ae	-0.0012018883
6	0xbaa76b77	-0.0012773116
7	0xb9cd74ee	-0.00039187766
8	0xbac4885d	-0.0014994253
9	0x3d561c34	0.05227299
10	0xbd7bebf3	-0.061504316
11	0x3d61ca12	0.05512435
12	0x3d7c7678	0.061636418
13	0xbdac9778	-0.08427328
14	0x3d8d6b89	0.06905276
15	0x3d810add	0.063009
16	0xbda918b3	-0.08256664
17	0x3d86eb33	0.065878294
18	0x3dc34bfc	0.09535977
19	0x3df33bd1	0.118766434
20	0x3ec68da1	0.3877993
21	0x3e2cf39d	0.16889806
22	0x3e6dcbcc	0.23222274
23	0x3eef082e	0.46685928
24	0x3e426b30	0.18986201
25	0x3e5ff999	0.21872558
26	0x3ed4ea1e	0.41584867
27	0x3daae5c7	0.08344608
28	0x3dc18530	0.094492316
29	0xbdff0454	-0.124519974
30	0x3d268e41	0.040663008
31	0x3d5e8cee	0.05433362
32	0xbe54d63f	-0.20784853
33	0x3d5aa796	0.05338248
34	0x3c614907	0.013750321
35	0xbe3eb9cf	-0.18625568
36	0x3c27a673	0.010232556
37	0xbdab713f	-0.08371209
38	0x3dc112ac	0.094273895
39	0xbac4d009	-0.0015015613
40	0xbdd2fcf5	-0.10302154
41	0x3e1856dc	0.14876884
42	0x3c117ad0	0.008879378
43	0xbdc8ac79	-0.097985215
44	0x3e0bfc0e	0.1367037
45	0x9382c048	-3.3006218e-27
46	0x94086198	-6.885492e-27
47	0x93d0adc6	-5.2677936e-27
48	0x942cb389	-8.719188e-27
49	0x944dc488	-1.0388614e-26
50	0x943ea8b2	-9.625818e-27
51	0x92b92919	-1.1685273e-27
52	0x9400e9ab	-6.5084314e-27
53	0x937a0b30	-3.1559952e-27
54	0x96b0ceb3	-2.856478e-25
55	0x96810e68	-2.0850166e-25
56	0x14513c67	1.0563716e-26
57	0x152992dc	3.424513e-26
58	0x157375ca	4.9166378e-26
59	0x153cbd9d	3.8115876e-26
60	0x14c7839a	2.0145773e-26
61	0x152ed398	3.5305938e-26
62	0x156a92ca	4.737172e-26
63	0xb4cc9985	-3.810966e-07
64	0xb55ea5ea	-8.294288e-07
65	0xb566dc0a	-8.6001876e-07
66	0xb3c503ac	-9.174195e-08
67	0xb515c5b8	-5.5794544e-07
68	0xb5555203	-7.9468026e-07
69	0x349b6cf2	2.8950268e-07
70	0xb314e852	-3.467023e-08
71	0xb4c30032	-3.6321723e-07

Encoder.0.bias f4 [8]
0	0x3b921699	0.0044582603
1	0x3d8fb7c5	0.07017473
2	0xbd188f71	-0.03724617
3	0x3e9580e4	0.29199898
4	0x3e4c2299	0.19935073
5	0x950a1995	-2.788906e-26
6	0xa3e0cf0a	-2.4373813e-17
7	0xb6049a75	-1.9759439e-06

Encoder.2.weight f4 [16, 8, 3, 3]
0	0x3987748e	0.00025836047
1	0x3a289bc4	0.00064319023
2	0x39b69233	0.00034822672
3	0x392871d5	0.00016064134
4	0x3a22a5b4	0.0006204501
5	0x39adca41	0.00033147822
6	0x395e5474	0.00021203031
7	0x3a37a159	0.00070049387
8	0x39e67bb8	0.00043961196
9	0x3d1646c1	0.03668857
10	0xbd179d28	-0.03701511
11	0x3d1248f7	0.035714116
12	0x3d380cf8	0.044934243
13	0xbd513340	-0.051074266
14	0x3d26615e	0.0406202
15	0x3d361078	0.0444493
16	0xbd46f2c5	-0.048571367
17	0x3d229d3d	0.039700735
18	0x3e3f3537	0.18672644
19	0x3dc40bf1	0.0957259
20	0x3dad9ad3	0.08476796
21	0x3e81162e	0.25212234
22	0x3e078c9f	0.13237236
23	0x3da90bec	0.08254227
24	0x3e7ad7c4	0.2449637
25	0x3dd60547	0.10450225
26	0x3d5ea2a2	0.054354317
27	0xbd961f81	-0.07330228
28	0x3c7c54a3	0.015401038
29	0x3c9e57bf	0.01932895
30	0xbde88560	-0.11353564
31	0x3c8d003a	0.017212022
32	0x3d1f0c22	0.03882993
33	0xbdcb93a9	-0.09940273
34	0x3cffd2b2	0.031228397
35	0x3d3b8169	0.045777712
36	0x3d97dc35	0.07415048
37	0xbd2f3e35	-0.042783935
38	0x3c1fcaa7	0.009752906
39	0x3dc62101	0.09674264
40	0xbd6ddefc	-0.058073983
41	0x39f930d5	0.00047529364
42	0x3db4bf65	0.08825568
43	0xbd72df2f	-0.059294876
44	0x3adcc749	0.001684406
45	0x12a24f79	1.0243229e-27
46	0x11e0684c	3.5405246e-28
47	0x123a424d	5.8772973e-28
48	0x1386c54b	3.40209e-27
49	0x13199139	1.9382915e-27
50	0x1252805b	6.6422526e-28
51	0x138c1348	3.535998e-27
52	0x132047d5	2.0230255e-27
53	0x122e242b	5.49493e-28
54	0x93d5c6e5	-5.3964884e-27
55	0x945778ac	-1.08785244e-26
56	0x138929d1	3.4624896e-27
57	0x94015640	-6.5298454e-27
58	0x1443a470	9.877414e-27
59	0x1435e316	9.1829495e-27
60	0x940063d2	-6.482035e-27
61	0x93d571e0	-5.388105e-27
62	0x13da496e	5.5103344e-27
63	0xb4851068	-2.4785118e-07
64	0xb503a0d4	-4.903534e-07
65	0xb51654a5	-5.600253e-07
66	0xb457d237	-2.0099911e-07
67	0xb4ff7635	-4.7583458e-07
68	0xb5103baf	-5.373103e-07
69	0xb4870c13	-2.5154495e-07
70	0xb4ab78ee	-3.193922e-07
71	0xb501125e	-4.808297e-07
72	0x2f458975	1.796588e-10
73	0x2f8c6669	2.5538618e-10
74	0x300c2b15	5.0992927e-10
75	0x2f29fef9	1.5461045e-10
76	0x2f2d95cf	1.5787481e-10
77	0x2fd40a8f	3.8570078e-10
78	0x2bd9f3c1	1.5486433e-12
79	0xaa316452	-1.5755564e-13
80	0x2f9f5ac7	2.8986433e-10
81	0xb1976747	-4.4064197e-09
82	0xb2842a7a	-1.5386139e-08
83	0xb186c00a	-3.9217456e-09
84	0xb19f848d	-4.6425783e-09
85	0xb2a172c2	-1.8795053e-08
86	0xb19b157c	-4.513536e-09
87	0xb1d2fc4f	-6.1404886e-09
88	0xb2a4d8ba	-1.9190669e-08
89	0xb1bd0ef7	-5.5023253e-09
90	0xb1ba79e8	-5.4271716e-09
91	0x322b0132	9.953782e-09
92	0x32f059fa	2.7980594e-08
93	0xb215f78d	-8.729228e-09
94	0xaf8950b9	-2.4977512e-10
95	0x325554d4	1.24175195e-08
96	0xb2ca71ef	-2.3567706e-08
97	0xb297abb6	-1.7656799e-08
98	0xb147eed4	-2.909407e-09
99	0xb340b517	-4.4868184e-08
100	0xb31f335f	-3.7066794e-08
101	0xb319d66d	-3.5818108e-08
102	0xb33e44fa	-4.4300556e-08
103	0xb315a680	-3.4843197e-08
104	0xb2ff68da	-2.9733588e-08
105	0xb3233228	-3.799701e-08
106	0xb2ec312a	-2.7496373e-08
107	0xb2e86c44	-2.7057588e-08
108	0xb1dfccc5	-6.513434e-09
109	0xb2c304e0	-2.2703205e-08
110	0xb29fb935	-1.8594259e-08
111	0xb1a639c8	-4.837805e-09
112	0xb2e65c6a	-2.6817549e-08
113	0xb2b2e9ce	-2.082825e-08
114	0xb21637d6	-8.743845e-09
115	0xb2ef75e7	-2.7876878e-08
116	0xb2affaae	-2.0486677e-08
117	0x0480df21	3.0297567e-36
118	0x84e1d21c	-5.30902e-36
119	0x04c8f603	4.72457e-36
120	0x83fdbee3	-1.4913829e-36
121	0x04f68f8e	5.7966156e-36
122	0x0511d864	6.857612e-36
123	0x84a8f0a2	-3.9717597e-36
124	0x04a28a6a	3.821313e-36
125	0x8441074c	-2.2690392e-36
126	0x844033d5	-2.2593292e-36
127	0x845d9542	-2.6046961e-36
128	0x851b6610	-7.306811e-36
129	0x0464a82c	2.6878492e-36
130	0x84a205ab	-3.8091222e-36
131	0x850dba33	-6.6639875e-36
132	0x048fb79b	3.3787753e-36
133	0x0365f919	6.7583e-37
134	0x840a138c	-1.6230798e-36
135	0xaa48b282	-1.7825501e-13
136	0xa9a9a7bb	-7.534204e-14
137	0x282367ab	9.070797e-15
138	0xaa999c3f	-2.7286677e-13
139	0xa940d62e	-4.2818335e-14
140	0xaa05cabb	-1.1883109e-13
141	0x2a4f3c18	1.8406142e-13
142	0x29bec12b	8.471204e-14
143	0x2a32511c	1.5837716e-13
144	0x04fbc910	5.9194463e-36
145	0x05bd52e2	1.7803921e-35
146	0x8492c0f7	-3.4501645e-36
147	0x84334827	-2.107448e-36
148	0x8522ef00	-7.661101e-36
149	0x0537ab9c	8.636138e-36
150	0x02b9c573	2.7296637e-37
151	0x844f3ffd	-2.4362115e-36
152	0x046e1b7b	2.7989384e-36
153	0x87ce1c40	-3.101204e-34
154	0x07ca0636	3.0397232e-34
155	0x071df3cf	1.1883016e-34
156	0x887a5376	-7.5329746e-34
157	0x86f4721a	-9.1950256e-35
158	0x0698e19d	5.7507554e-35
159	0x0924eec5	1.985305e-33
160	0x88181f8b	-4.5777915e-34
161	0x882e06f5	-5.23694e-34
162	0xb352e858	-4.910575e-08
163	0xb36945ae	-5.4312913e-08
164	0xb310cc80	-3.3713604e-08
165	0xb36b67ba	-5.480954e-08
166	0xb37f10a3	-5.9386945e-08
167	0xb38c28fc	-6.526713e-08
168	0xb34d1714	-4.775127e-08
169	0xb32677cf	-3.8758852e-08
170	0xb31fe0db	-3.7224577e-08
171	0x042b7783	2.015583e-36
172	0x0505e7da	6.296214e-36
173	0x85c5861b	-1.8575054e-35
174	0x052e809e	8.205064e-36
175	0x042c7595	2.0272494e-36
176	0x852b0cb4	-8.0427146e-36
177	0x859d258f	-1.4778006e-35
178	0x848d17ea	-3.3170902e-36
179	0x059ec59e	1.4930842e-35
180	0x8357d830	-6.3430992e-37
181	0x82766d87	-1.8104658e-37
182	0x8452b2b4	-2.4767438e-36
183	0x84cb7a81	-4.7837573e-36
184	0x034d0f22	6.0261457e-37
185	0x857c09ec	-1.18508054e-35
186	0x04cd0ee4	4.8208943e-36
187	0x849a32ea	-3.6251983e-36
188	0x05045d5a	6.223756e-36
189	0x055e2d3e	1.04466995e-35
190	0x8525b60a	-7.791698e-36
191	0x852d9c83	-8.1631676e-36
192	0x8560527b	-1.0547579e-35
193	0x850fe11a	-6.765172e-36
194	0x0407253f	1.5886276e-36
195	0x04ca35f4	4.753952e-36
196	0x856d8d53	-1.11696436e-35
197	0x055175cb	9.848768e-36
198	0x04edd633	5.5915143e-36
199	0x04f3d9a4	5.7328897e-36
200	0x846dba1f	-2.7944679e-36
201	0x849e1fa0	-3.7174664e-36
202	0x04b997ac	4.363258e-36
203	0x839566f1	-8.781067e-37
204	0x058464dd	1.2450272e-35
205	0x0505a2ca	6.2835296e-36
206	0x83dbdbbd	-1.2922113e-36
207	0x042ce55a	2.0323816e-36
208	0x04b18d8b	4.1742487e-36
209	0x04e24255	5.319326e-36
210	0x03741500	7.172926e-37
211	0x8452deeb	-2.478774e-36
212	0x84618b07	-2.6512461e-36
213	0x03fc9022	1.484432e-36
214	0x0420e6f5	1.891396e-36
215	0x8369f848	-6.875756e-37
216	0x312e1b8c	2.533599e-09
217	0x30e2a3ad	1.6490184e-09
218	0x30b55a92	1.3195225e-09
219	0x30a156db	1.1738978e-09
220	0x303ba188	6.8259753e-10
221	0x3066aa7c	8.3915785e-10
222	0x307b40fa	9.1405605e-10
223	0x307ee4ef	9.2729996e-10
224	0x30a36e1b	1.1891105e-09
225	0x339e2ab6	7.3652174e-08
226	0x3305c6f9	3.114744e-08
227	0xb2c94b9b	-2.3433861e-08
228	0x33e29e32	1.0552721e-07
229	0x335b8a08	5.111545e-08
230	0xb1ed1725	-6.900239e-09
231	0x33d91c13	1.01099566e-07
232	0x335c9858	5.1361297e-08
233	0x30cade23	1.4760569e-09
234	0xb51da449	-5.8726124e-07
235	0xb5026fd0	-4.859148e-07
236	0xb51533a1	-5.5581955e-07
237	0xb5068074	-5.0105814e-07
238	0xb4d204ea	-3.9119124e-07
239	0xb50f6b30	-5.342763e-07
240	0xb530266c	-6.562102e-07
241	0xb522b380	-6.061091e-07
242	0xb5534acc	-7.871247e-07
243	0xb3a93df7	-7.880947e-08
244	0xb39a6446	-7.1894235e-08
245	0xb29cd33c	-1.8256848e-08
246	0xb3e30486	-1.0571334e-07
247	0xb39ae8a1	-7.213499e-08
248	0x3299489b	1.7844561e-08
249	0xb37127b1	-5.6148284e-08
250	0xb279bd84	-1.4536798e-08
251	0x3390cf6e	6.743254e-08
252	0x32a6fc7c	1.943976e-08
253	0xb35f2bcb	-5.1961063e-08
254	0xb3e57fd2	-1.0686894e-07
255	0x331cb923	3.648996e-08

Encoder.2.bias f4 [16]
0	0x3c5419f1	0.012945638
1	0xb2eff83f	-2.7936151e-08
2	0xb6f0ba8a	-7.1742734e-06
3	0x36c90374	5.990669e-06
4	0x3c5bf8bd	0.013426003
5	0x3c8a73a5	0.016900847
6	0x33590a73	5.0533753e-08
7	0xbe3a2d94	-0.18181449
8	0xbe41c04f	-0.18921016
9	0x2e072348	3.0726782e-11
10	0xb60cf47d	-2.1003937e-06
11	0xb50e5d62	-5.303501e-07
12	0xb965c03a	-0.00021910752
13	0x3b097f53	0.0020980432
14	0x37c71a19	2.3734801e-05
15	0x95fa7fae	-1.0117564e-25

Encoder.4.weight f4 [32, 16, 3, 3]
0	0x341532e7	1.3895225e-07
1	0xb24e8649	-1.2021311e-08
2	0xb45085ce	-1.9420187e-07
3	0x340c0dbe	1.3043515e-07
4	0xb24b7c19	-1.1844372e-08
5	0xb421746d	-1.5036649e-07
6	0x33f6b7df	1.14887136e-07
7	0xb03278a3	-6.492746e-10
8	0xb389acd7	-6.410999e-08
9	0x044278d3	2.286007e-36
10	0x04f1ba5b	5.6829968e-36
11	0x848d73ab	-3.3255165e-36
12	0x044459f1	2.3080988e-36
13	0x83b5a8e7	-1.0677002e-36
14	0x84e2ff87	-5.336701e-36
15	0x85163cef	-7.064158e-36
16	0x056a6733	1.1021582e-35
17	0x040c6641	1.6503874e-36
18	0x03813662	7.594424e-37
19	0x842a3593	-2.0008004e-36
20	0x04582fd0	2.5412632e-36
21	0x04633741	2.6709093e-36
22	0x0388b1bf	8.03417e-37
23	0x83e19544	-1.3258581e-36
24	0x839b63f3	-9.133028e-37
25	0x04b6fe9c	4.3021816e-36
26	0x04a4f558	3.8781527e-36
27	0x2d36562e	1.0364638e-11
28	0x2d5bec6d	1.2501206e-11
29	0x2d82e9e1	1.4883152e-11
30	0x2d006398	7.298072e-12
31	0x2d5e3d6c	1.2632877e-11
32	0x2d85e9d1	1.5224185e-11
33	0x2d50e9ac	1.1875317e-11
34	0x2d7da86b	1.4418781e-11
35	0x2d8a7ea4	1.5745023e-11
36	0x3505e1ae	4.987477e-07
37	0x3499c6f3	2.8643225e-07
38	0x32d99006	2.532762e-08
39	0x35134dc2	5.487492e-07
40	0x34a394ae	3.0469295e-07
41	0x34122f3e	1.3614496e-07
42	0x350e74ec	5.3069266e-07
43	0x34b39230	3.3447714e-07
44	0x346cf3a7	2.2067853e-07
45	0x3558c145	8.0747515e-07
46	0x3535ab4f	6.767704e-07
47	0x34e0999b	4.1835014e-07
48	0x3562a2bc	8.442837e-07
49	0x35403cbb	7.161395e-07
50	0x350d8587	5.27209e-07
51	0x3540ffd6	7.1897864e-07
52	0x354142f3	7.1995527e-07
53	0x35205313	5.9725534e-07
54	0xaa38ff74	-1.6431111e-13
55	0xaa2cbc62	-1.5342027e-13
56	0xaa0e4bf2	-1.2638482e-13
57	0xaa1985f2	-1.3635601e-13
58	0xaa0b9561	-1.2397506e-13
59	0xaa029279	-1.1597137e-13
60	0xaa13b992	-1.3120605e-13
61	0xaa14d261	-1.321803e-13
62	0xa9fb511b	-1.1160709e-13
63	0xb46a2ba1	-2.180882e-07
64	0xb4af6ea2	-3.2676786e-07
65	0xb4e94c37	-4.3455086e-07
66	0xb43b57f3	-1.7447728e-07
67	0xb49a9de9	-2.879963e-07
68	0xb4c581c8	-3.6788538e-07
69	0xb45fac16	-2.0831098e-07
70	0xb49f96d7	-2.9725808e-07
71	0xb4cb349e	-3.784998e-07
72	0xb3db4dbb	-1.0212121e-07
73	0xb46f5100	-2.2288077e-07
74	0xb4a4e980	-3.0717274e-07
75	0xb38ce51a	-6.560931e-08
76	0xb43e761a	-1.7738094e-07
77	0xb481f822	-2.4208663e-07
78	0xb3ac9dcf	-8.0380794e-08
79	0xb431a63d	-1.6544887e-07
80	0xb47ad72d	-2.3361345e-07
81	0xa4d31cc7	-9.1555414e-17
82	0xa4d94787	-9.422992e-17
83	0xa4d9c25e	-9.443802e-17
84	0xa4a7c6e4	-7.276164e-17
85	0xa4a8e6ef	-7.32496e-17
86	0xa4af5e75	-7.605417e-17
87	0xa4a5f681	-7.197494e-17
88	0xa4a5d9c4	-7.192625e-17
89	0xa4ad8ea1	-7.526841e-17
90	0xae4fa1d0	-4.721007e-11
91	0xaeaeb4fe	-7.9447546e-11
92	0xaef0c25a	-1.094846e-10
93	0xaeaa7c5b	-7.752795e-11
94	0xaec3e79e	-8.908717e-11
95	0xae8d3a99	-6.422347e-11
96	0xae6e164c	-5.413474e-11
97	0xae803e3c	-5.831821e-11
98	0xaee07154	-1.0206472e-10
99	0xaabc4a0c	-3.344689e-13
100	0xab51091b	-7.426435e-13
101	0xab8cc673	-1.0002679e-12
102	0xaabbf2e9	-3.3386426e-13
103	0xab4565f0	-7.0129926e-13
104	0xab5f19e9	-7.926147e-13
105	0xab0e8e03	-5.0645615e-13
106	0xab581b88	-7.6776823e-13
107	0xab7c7f3e	-8.970497e-13
108	0x303eb877	6.938374e-10
109	0x3134cb7b	2.6309113e-09
110	0xb0d3766b	-1.5385927e-09
111	0x2e897a72	6.2517894e-11
112	0x2f287d41	1.532401e-10
113	0x31b07461	5.135505e-09
114	0xb145cbcd	-2.878312e-09
115	0xb0274ba8	-6.086176e-10
116	0xafef9d32	-4.358554e-10
117	0xb4f83844	-4.6234538e-07
118	0xb39a0605	-7.172279e-08
119	0xb9522d92	-0.00020044137
120	0x37d4b2bf	2.5355605e-05
121	0xb49b98cc	-2.8982174e-07
122	0xb4e58840	-4.275371e-07
123	0xb5aa50a1	-1.2689453e-06
124	0xb5b8fb7a	-1.3782258e-06
125	0x353272eb	6.6477395e-07
126	0xaea4a0e3	-7.486436e-11
127	0xaebe832b	-8.6635e-11
128	0x28ce52e9	2.2906551e-14
129	0xae9ed014	-7.22197e-11
130	0xaec0b1dd	-8.762744e-11
131	0xaeac0997	-7.823358e-11
132	0xae7bfdd2	-5.729623e-11
133	0xaea7e13c	-7.6342904e-11
134	0xae5431b4	-4.8247364e-11
135	0x8df015de	-1.4796406e-30
136	0x8eb88903	-4.549144e-30
137	0x8ebd6ced	-4.669699e-30
138	0x8ea1dd21	-3.9902504e-30
139	0x8ec0fa0e	-4.757245e-30
140	0x8ebf38ec	-4.713995e-30
141	0x8e816b49	-3.1904267e-30
142	0x8ebe3007	-4.6884865e-30
143	0x8eab2dac	-4.2198735e-30
144	0xba232abb	-0.0006224324
145	0xb9f7a2d8	-0.0004723284
146	0xb9f8cb80	-0.00047453865
147	0xba1f6b8f	-0.0006081396
148	0xb9cc3abb	-0.0003895367
149	0xb9db06ba	-0.00041775947
150	0xba09e96f	-0.00052609196
151	0xb9aa98ba	-0.00032538717
152	0xb9bf9e91	-0.000365485
153	0x32abaed8	1.998653e-08
154	0xabaf4a77	-1.2455166e-12
155	0xad2b3694	-9.732343e-12
156	0x2ba6e1c7	1.1857675e-12
157	0x2b975ec6	1.07555e-12
158	0x2d6bf872	1.3413369e-11
159	0x2bb220b7	1.2656741e-12
160	0xab75ad22	-8.7281755e-13
161	0x2c8768cc	3.8485656e-12
162	0x828e84a4	-2.0941157e-37
163	0x84a88879	-3.962194e-36
164	0x00346eaf	4.815152e-39
165	0x0299f31e	2.2620872e-37
166	0x04beb0a5	4.4831008e-36
167	0x03d3e17d	1.2453235e-36
168	0x032fba31	5.1641615e-37
169	0x8342254a	-5.705428e-37
170	0x83abcfce	-1.0098186e-36
171	0x2fcc40c0	3.7153391e-10
172	0xb18869fb	-3.9701695e-09
173	0xb244a820	-1.1446929e-08
174	0x31f7bf95	7.2104265e-09
175	0xb1cfa596	-6.043318e-09
176	0x3229fd11	9.894635e-09
177	0x3100089e	1.863135e-09
178	0xb16ab693	-3.4155263e-09
179	0xb2220db0	-9.432753e-09
180	0xb9c2079c	-0.00037008233
181	0xb96fd586	-0.0002287236
182	0xb9985509	-0.00029055055
183	0xb9beae99	-0.0003636971
184	0xb9296448	-0.00016154454
185	0xb9884c19	-0.0002599664
186	0xb9a7f423	-0.00032034618
187	0xb9052416	-0.00012697311
188	0xb96c4c0a	-0.0002253504
189	0xb9de8b78	-0.00042447052
190	0xb99ee2fa	-0.0003030522
191	0xb9b2f2bb	-0.00034131654
192	0xb9d6dbcc	-0.00040981022
193	0xb96d0154	-0.00022602576
194	0xb9a13973	-0.00030751116
195	0xb9bc5670	-0.00035922555
196	0xb94581c6	-0.00018835728
197	0xb98c6cb2	-0.00026783865
198	0x2da9ee2c	1.9318845e-11
199	0x2f1b8a1b	1.4146233e-10
200	0x2ecac5b4	9.2210156e-11
201	0xaf889ecf	-2.4851096e-10
202	0x2f35a202	1.6519411e-10
203	0x2f5ef595	2.027803e-10
204	0x2ee74c20	1.0518186e-10
205	0x2f2fde8d	1.5995223e-10
206	0x2ec624c5	9.010529e-11
207	0x38481091	4.7699144e-05
208	0xb8066437	-3.2041422e-05
209	0xb7d79a76	-2.5701924e-05
210	0x3759c5a3	1.2980224e-05
211	0xb915b112	-0.00014275711
212	0xb90d708f	-0.00013488739
213	0x3820eb0a	3.836587e-05
214	0x37e0671e	2.6750899e-05
215	0xb8b86dfc	-8.79429e-05
216	0x3841a48d	4.6168036e-05
217	0xb9216d8d	-0.00015394967
218	0xb878232a	-5.9160557e-05
219	0xb7f734af	-2.9469227e-05
220	0xb94dea10	-0.00019637519
221	0xb901ae8c	-0.00012367422
222	0xb8f347f4	-0.00011600545
223	0xb941709c	-0.00018447865
224	0xb97fea4f	-0.00024405982
225	0xa76170ba	-3.1286132e-15
226	0x297579a1	5.4506424e-14
227	0x29de121c	9.861922e-14
228	0xa918877d	-3.3868297e-14
229	0xa945a48d	-4.3885512e-14
230	0x28abc4f4	1.9070229e-14
231	0x2909cf73	3.0600044e-14
232	0x29411598	4.287334e-14
233	0x2a202013	1.4221983e-13
234	0x33c972ad	9.380651e-08
235	0x331ca85d	3.6474706e-08
236	0xb29156d2	-1.6919703e-08
237	0xb3fc269b	-1.1741687e-07
238	0xb4128ebe	-1.3649239e-07
239	0xb38c1edf	-6.5248734e-08
240	0x338995c8	6.406805e-08
241	0x34084401	1.2690727e-07
242	0x33573a46	5.0111588e-08
243	0x30bcc57d	1.373493e-09
244	0xaf923fea	-2.660266e-10
245	0xb0c64458	-1.442582e-09
246	0x30de5f62	1.6179735e-09
247	0x306e62b5	8.6724167e-10
248	0xb0962618	-1.0924763e-09
249	0xb05b4f1e	-7.978417e-10
250	0xb0942f94	-1.078194e-09
251	0x315b3287	3.1897416e-09
252	0xb56c94a5	-8.813316e-07
253	0x36577ec3	3.2111282e-06
254	0x3541721b	7.206415e-07
255	0xb3dd4749	-1.0304081e-07

Encoder.4.bias f4 [32]
0	0xb5dc2d6d	-1.6404498e-06
1	0xb9fb8104	-0.00047970575
2	0x389e224c	7.5404154e-05
3	0xb1ad72d2	-5.0480162e-09
4	0xb39f2fc3	-7.412702e-08
5	0xb4d8fd6e	-4.041753e-07
6	0x3b21a16f	0.0024662872
7	0xa825a053	-9.194105e-15
8	0xb556fd0d	-8.008945e-07
9	0xb5c01f9d	-1.4314315e-06
10	0x3badcc7b	0.005303917
11	0xb4f05a28	-4.476908e-07
12	0xaec0232c	-8.737397e-11
13	0xb395fea8	-6.984675e-08
14	0xb7de9ffd	-2.6538963e-05
15	0x33f4588b	1.1378241e-07
16	0xb1116b46	-2.1161255e-09
17	0xbb208305	-0.0024492156
18	0x3a989487	0.0011640944
19	0x39e79f60	0.00044178497
20	0xbb009647	-0.0019620822
21	0xb4b71946	-3.4104795e-07
22	0xac7bbcd2	-3.5774062e-12
23	0x3a14ffb5	0.0005683855
24	0x1f91fd21	6.1828655e-20
25	0xbb3bdfdb	-0.0028667364
26	0xa53ce56d	-1.6384133e-16
27	0x398859c4	0.00026006822
28	0x38d925d2	0.00010354411
29	0xb62268b3	-2.4200824e-06
30	0xbb0dd302	-0.0021640663
31	0x3ac72f9c	0.0015196684

Encoder.6.weight f4 [64, 32, 3, 3]
0	0xb2fc71ea	-2.9388463e-08
1	0xb33d559e	-4.408286e-08
2	0xb2a59785	-1.9277431e-08
3	0xb305cc89	-3.11525e-08
4	0xb589b10e	-1.0258825e-06
5	0xb2d04801	-2.424713e-08
6	0xb2c29c1b	-2.2655561e-08
7	0xb2d49703	-2.474872e-08
8	0xb342a908	-4.5322878e-08
9	0x3387e86a	6.328703e-08
10	0x33637d16	5.296632e-08
11	0xb2225ef2	-9.451229e-09
12	0xb473a6d3	-2.2691829e-07
13	0x33da6ce8	1.0171226e-07
14	0xb421916a	-1.5047195e-07
15	0x339b7c10	7.240317e-08
16	0xb3bd570a	-8.8168306e-08
17	0xb413cc04	-1.3764662e-07
18	0xb4a90dc6	-3.1488725e-07
19	0xb4580a95	-2.0120417e-07
20	0xb38ffa39	-6.7044716e-08
21	0xb4628436	-2.1095988e-07
22	0xb3b4b91f	-8.4155765e-08
23	0xb2c40d5b	-2.2823476e-08
24	0xb4925ab7	-2.7260623e-07
25	0xb413f6b0	-1.3780186e-07
26	0xb30a55db	-3.2208714e-08
27	0x286d8124	1.3184146e-14
28	0x289c7591	1.7370465e-14
29	0xa827529b	-9.2882745e-15
30	0x28981cfa	1.6887957e-14
31	0xa882ac16	-1.450753e-14
32	0x288dcd79	1.5743254e-14
33	0x284d0cd8	1.1382571e-14
34	0xa809f152	-7.657356e-15
35	0xa8b5cfe9	-2.0185203e-14
36	0x2e1d2a83	3.5735425e-11
37	0x36be1871	5.6652866e-06
38	0xb0218a31	-5.876784e-10
39	0xadfb7bc6	-2.8590363e-11
40	0xad3bc821	-1.0674157e-11
41	0x2d96e257	1.715354e-11
42	0xacc1774d	-5.498635e-12
43	0xad02b208	-7.429175e-12
44	0xadf2745d	-2.756389e-11
45	0xb295f3c2	-1.7456731e-08
46	0xb2b4a2d4	-2.1028804e-08
47	0xb2cefc36	-2.4096249e-08
48	0xb22769ad	-9.744707e-09
49	0xb2d8dfc8	-2.5247473e-08
50	0xb2d310fe	-2.457136e-08
51	0xb21b2ff8	-9.033094e-09
52	0xb25f320f	-1.299169e-08
53	0xb2711551	-1.4032893e-08
54	0x3497865c	2.82237e-07
55	0x3611c231	2.1719718e-06
56	0x35d2b7d6	1.5699723e-06
57	0xb5132e25	-5.4828917e-07
58	0x3586c065	1.0039772e-06
59	0x3359dd74	5.072566e-08
60	0xb6646256	-3.4031887e-06
61	0xb622a1d4	-2.4234078e-06
62	0xb63e5380	-2.836081e-06
63	0x049bcc46	3.662792e-36
64	0x846049ff	-2.636505e-36
65	0x836bbbf2	-6.9276044e-37
66	0x034c8f04	6.0114386e-37
67	0x83bd799b	-1.1136341e-36
68	0x84007a1a	-1.5102394e-36
69	0x822415bf	-1.2055058e-37
70	0x03b7e9c1	1.0809441e-36
71	0x040ae0ef	1.6325106e-36
72	0x8484cc4c	-3.1220668e-36
73	0x0324e4b2	4.8457798e-37
74	0x83db28fb	-1.2881072e-36
75	0x83d775d3	-1.2663615e-36
76	0x040fbcc4	1.6896246e-36
77	0x838a7182	-8.136971e-37
78	0x83aec323	-1.0271602e-36
79	0x03ab2ae5	1.0060325e-36
80	0x849b85bc	-3.656314e-36
81	0xb351c117	-4.883722e-08
82	0xb3844adb	-6.160345e-08
83	0xb382a50d	-6.083619e-08
84	0xba6f0fb8	-0.0009119469
85	0xb390332a	-6.714829e-08
86	0xb328895f	-3.9240486e-08
87	0xb37ec8be	-5.9321557e-08
88	0xb3920821	-6.8001334e-08
89	0xb36be0e7	-5.491975e-08
90	0x35ed9887	1.7702267e-06
91	0x36d26cc2	6.271149e-06
92	0x36dc9358	6.573664e-06
93	0x35173447	5.6327957e-07
94	0x369c249d	4.6534246e-06
95	0x36acceea	5.1500874e-06
96	0xb66869b8	-3.463223e-06
97	0x3371aac7	5.6267506e-08
98	0x35f39d6a	1.8150724e-06
99	0xb1947c89	-4.321525e-09
100	0x2f1a3895	1.402632e-10
101	0xb204271b	-7.692303e-09
102	0xb1c62053	-5.7662333e-09
103	0xb211815c	-8.469524e-09
104	0xb209df5e	-8.025237e-09
105	0xb1ba49a7	-5.4216858e-09
106	0xb21684d4	-8.761351e-09
107	0xb1954601	-4.3444293e-09
108	0x0416287c	1.7651005e-36
109	0x0365bcc0	6.7513726e-37
110	0x83804e6e	-7.54117e-37
111	0x8325b680	-4.869864e-37
112	0x03c9ccf1	1.18607705e-36
113	0x038aca6d	8.157386e-37
114	0x03a281c6	9.551299e-37
115	0x8401ffa6	-1.5281265e-36
116	0x11513873	1.6504588e-28
117	0x2d254614	9.394725e-12
118	0x2d45066e	1.1199581e-11
119	0x2cd97313	6.1802868e-12
120	0xae3d6c23	-4.306967e-11
121	0xb9e21623	-0.00043122572
122	0xac85f054	-3.806769e-12
123	0xacbcc277	-5.3648713e-12
124	0x37898a05	1.6395943e-05
125	0xacd4eb7a	-6.0515455e-12
126	0x33440715	4.5641247e-08
127	0xb21d559f	-9.158071e-09
128	0x31be8668	5.545008e-09
129	0x31df2b08	6.4950463e-09
130	0xb1d2bc10	-6.1331846e-09
131	0x32579fc8	1.2550977e-08
132	0x3152bc3e	3.0666025e-09
133	0x31bd188b	5.503414e-09
134	0xb1d40819	-6.1709327e-09
135	0xad8621a5	-1.5248977e-11
136	0xace0fb8b	-6.39439e-12
137	0xaceb8b86	-6.694592e-12
138	0xacad8a31	-4.932298e-12
139	0xaca0bf1e	-4.5686918e-12
140	0xad1cfe13	-8.923989e-12
141	0xad33b702	-1.0215608e-11
142	0xacc18f09	-5.50127e-12
143	0xacff83ad	-7.262155e-12
144	0xaed969d4	-9.8868164e-11
145	0x378c8e2f	1.675551e-05
146	0xaf0b8745	-1.2690034e-10
147	0xae84bc07	-6.0360654e-11
148	0xaf54780a	-1.9323934e-10
149	0xaf2c20d5	-1.5654973e-10
150	0x392676bf	0.0001587523
151	0xaf8423ae	-2.4036012e-10
152	0xaed793f8	-9.8033526e-11
153	0x38516e00	4.993193e-05
154	0x384a6cee	4.8262e-05
155	0x38328a7c	4.256748e-05
156	0x385977aa	5.1848278e-05
157	0x384676f7	4.7317673e-05
158	0x382cac71	4.1168594e-05
159	0x385637ab	5.107342e-05
160	0x383a907d	4.448042e-05
161	0x38240a16	3.911004e-05
162	0xb65ec0be	-3.3192769e-06
163	0xb62ff636	-2.6220346e-06
164	0xb64b4623	-3.0290182e-06
165	0xb66fc71f	-3.572968e-06
166	0xb65e7832	-3.315054e-06
167	0xb67e3ac6	-3.788316e-06
168	0xb6abe8f6	-5.1233174e-06
169	0xb6a3327d	-4.863656e-06
170	0xb6b7285c	-5.4585234e-06
171	0xb3e36661	-1.0589134e-07
172	0xb4055e51	-1.2420902e-07
173	0xb3e88bb1	-1.08287516e-07
174	0xb43edf1a	-1.7776293e-07
175	0xb468e418	-2.1689664e-07
176	0xb3fc197c	-1.17393e-07
177	0xb41cf451	-1.4617514e-07
178	0xb4583ca6	-2.0138631e-07
179	0xb3d71c19	-1.00168286e-07
180	0x3815f9f1	3.5757144e-05
181	0x38193875	3.6530622e-05
182	0x380755a5	3.226627e-05
183	0x3818d918	3.644181e-05
184	0x381393e0	3.518525e-05
185	0x3801fde8	3.0992465e-05
186	0x38119e42	3.4718083e-05
187	0x3806488c	3.2015654e-05
188	0x37f18365	2.8790624e-05
189	0x03fb5585	1.4772088e-36
190	0x8481a42a	-3.0478515e-36
191	0x84360399	-2.139565e-36
192	0x041a0bff	1.8108121e-36
193	0x8428c7c2	-1.984003e-36
194	0x845d4000	-2.6007813e-36
195	0x040c09d2	1.646143e-36
196	0x830fd063	-4.226314e-37
197	0x83a9c0e4	-9.977213e-37
198	0x03736fd6	7.1539663e-37
199	0x8499e7c3	-3.6182967e-36
200	0x0386c785	7.92162e-37
201	0x03d04f40	1.2243336e-36
202	0x83a82700	-9.8831065e-37
203	0x04431aed	2.2934504e-36
204	0x039822b5	8.941725e-37
205	0x02945eed	2.180113e-37
206	0x8436706d	-2.144562e-36
207	0xb68266f6	-3.886288e-06
208	0xb688ca19	-4.076643e-06
209	0xb6887110	-4.066278e-06
210	0xb686f7ec	-4.022373e-06
211	0xb691828f	-4.3365358e-06
212	0xb6947ff8	-4.4256412e-06
213	0xb68a29cb	-4.117586e-06
214	0xb69ac5a4	-4.612566e-06
215	0xb69c377c	-4.6556215e-06
216	0x9812e526	-1.8985748e-24
217	0x981809c8	-1.9650478e-24
218	0x982bcd6d	-2.2204946e-24
219	0x982b34c0	-2.2127864e-24
220	0x97b4336b	-1.1645207e-24
221	0x97b44b09	-1.1651169e-24
222	0x98115c78	-1.8787496e-24
223	0x97efd479	-1.5498649e-24
224	0x97cef16a	-1.3373379e-24
225	0x38516c79	4.9930506e-05
226	0x3831d77e	4.240078e-05
227	0x380edf60	3.4063472e-05
228	0x385c2004	5.2481904e-05
229	0x382c2eb5	4.1051495e-05
230	0x380b25ef	3.317551e-05
231	0x38680183	5.531452e-05
232	0x382b9693	4.090981e-05
233	0x3811b76c	3.474152e-05
234	0xa32c9dc2	-9.357545e-18
235	0xa3e12bc8	-2.4413091e-17
236	0x24a2a34b	7.053293e-17
237	0xa3491f85	-1.0902906e-17
238	0x2480d84f	5.587759e-17
239	0xa449bcdd	-4.37449e-17
240	0xa3f2a0ed	-2.6305847e-17
241	0xa441fc5e	-4.2063967e-17
242	0xa3c988bf	-2.1850378e-17
243	0xb71ecc56	-9.4651095e-06
244	0xb7b97ac9	-2.2110895e-05
245	0xb7f0c1ce	-2.8700477e-05
246	0xb7095d31	-8.187534e-06
247	0xb7d56450	-2.543829e-05
248	0xb8042ca9	-3.1512845e-05
249	0xb6441109	-2.9216192e-06
250	0xb7c52ace	-2.3504163e-05
251	0xb7ecafc8	-2.8215247e-05
252	0xb6c996e3	-6.0078323e-06
253	0xb6e4ee77	-6.8226905e-06
254	0xb68da0e9	-4.22086e-06
255	0xb6907900	-4.3056207e-06

Encoder.6.bias f4 [64]
0	0xb74ef6ad	-1.23359905e-05
1	0xb98efa39	-0.0002727078
2	0xbb54092f	-0.0032354107
3	0xb7a20c6f	-1.9317695e-05
4	0x33c2800f	9.057123e-08
5	0xb79710dd	-1.8008455e-05
6	0xb15bc277	-3.1979235e-09
7	0x30a9aaf8	1.2344961e-09
8	0xad97bf47	-1.7251657e-11
9	0x3924fc99	0.00015734359
10	0xb80f575f	-3.4175227e-05
11	0xb957f646	-0.00020595742
12	0xb4532d62	-1.9667416e-07
13	0xbbaf6d98	-0.0053536408
14	0xb636c78c	-2.7236265e-06
15	0xb83b4df7	-4.4656885e-05
16	0xbaa7a921	-0.0012791493
17	0xb5b7941c	-1.3677668e-06
18	0xb88ffcaa	-6.865834e-05
19	0xba9cc70e	-0.0011961178
20	0xb8b6060e	-8.679564e-05
21	0xbb295a7d	-0.0025841289
22	0xaf9a2f42	-2.8046016e-10
23	0xbac8e92e	-0.0015328282
24	0xb281aff8	-1.5097598e-08
25	0xae634759	-5.1677194e-11
26	0x36daaeb4	6.5172444e-06
27	0xb75266e5	-1.2540932e-05
28	0xb254753f	-1.2366683e-08
29	0xbc2a747d	-0.0104037495
30	0xb88ee86c	-6.8143796e-05
31	0xb60561cb	-1.9875467e-06
32	0xba8247ac	-0.0009939573
33	0x3a885283	0.0010400567
34	0xb529dfa1	-6.328283e-07
35	0xbb195c1e	-0.0023400853
36	0xb78bf11f	-1.6682372e-05
37	0xb0c94258	-1.4643531e-09
38	0xbbaa38d1	-0.0051947613
39	0x3883241d	6.2532934e-05
40	0xb6436918	-2.9118437e-06
41	0x35ce6e74	1.5380342e-06
42	0xb75eb866	-1.3275165e-05
43	0xbb6f37a3	-0.0036501668
44	0xb697d0f8	-4.524478e-06
45	0xbb87ede5	-0.0041482323
46	0xb509de56	-5.136002e-07
47	0xb24939f7	-1.17129195e-08
48	0xb49aa502	-2.8804794e-07
49	0xbb18d3ea	-0.002331967
50	0xb4de518f	-4.1410064e-07
51	0xba073e1b	-0.0005159096
52	0xb812c7bb	-3.4995126e-05
53	0xb9b37d69	-0.00034234978
54	0xa910cf5f	-3.215429e-14
55	0xbb89f394	-0.004209945
56	0x328dd07e	1.6509372e-08
57	0xb9cbe4ed	-0.0003888974
58	0x33362984	4.2412935e-08
59	0xb045bb3b	-7.1934253e-10
60	0x3c743797	0.014905832
61	0xa4b3dbc8	-7.80012e-17
62	0xb9e542cc	-0.0004372805
63	0xb281c78c	-1.510832e-08

Encoder.8.weight f4 [128, 64, 3, 3]
0	0x2cc32276	5.5460593e-12
1	0xac341b9a	-2.559486e-12
2	0xac7f0c5c	-3.624454e-12
3	0xacb704bc	-5.2016984e-12
4	0x2c99bd1d	4.3695173e-12
5	0xacc8ebb2	-5.7105093e-12
6	0x2c77d645	3.5219755e-12
7	0xace8c189	-6.6153233e-12
8	0x2b0b1e99	4.9425183e-13
9	0xb40b60be	-1.2980578e-07
10	0xb6478a6f	-2.973389e-06
11	0xb3cbea3f	-9.495533e-08
12	0xb483f545	-2.4579109e-07
13	0xb4290bdc	-1.5743666e-07
14	0x339546ed	6.9512545e-08
15	0xb4c278c3	-3.6223182e-07
16	0x3a614ecf	0.0008594812
17	0xb30153d9	-3.0111412e-08
18	0xb5938801	-1.0991936e-06
19	0xb5808e25	-9.578113e-07
20	0xb4d8a530	-4.0353325e-07
21	0xb594f073	-1.1096839e-06
22	0xb581c7b8	-9.669375e-07
23	0xb4e7fdf6	-4.3211884e-07
24	0xb5910774	-1.0805511e-06
25	0xb56f3d45	-8.9123597e-07
26	0xb4c6eb75	-3.7051691e-07
27	0x2ac50fd6	3.5005218e-13
28	0x2c5fd768	3.180978e-12
29	0x2ce63d56	6.543803e-12
30	0x2ba776f6	1.1899082e-12
31	0x2b97cf71	1.0786772e-12
32	0x2b318d61	6.3079235e-13
33	0x2b5a93cb	7.765426e-13
34	0x2bc3f81c	1.3924448e-12
35	0x2ba7e631	1.1929955e-12
36	0x2afcff4f	4.4941348e-13
37	0xa96ee27b	-5.3043056e-14
38	0xaaa27405	-2.8857486e-13
39	0x2afaaa51	4.4527102e-13
40	0x2a95b0e2	2.6590454e-13
41	0x292c9fe0	3.833034e-14
42	0x2ad9b33d	3.8671315e-13
43	0x2aa449a9	2.9183364e-13
44	0x2a3d4244	1.6809563e-13
45	0x310a6c32	2.0143145e-09
46	0xb00cbb14	-5.119756e-10
47	0xb11ac3a4	-2.2521158e-09
48	0xaffe4041	-4.6247986e-10
49	0x30400cdd	6.9867473e-10
50	0xb10985d6	-2.00122e-09
51	0xb04f4a00	-7.541132e-10
52	0xb0a59bdd	-1.2049629e-09
53	0xb11ea5b7	-2.3086224e-09
54	0x9e0383b8	-6.962321e-21
55	0x9aa16503	-6.675123e-23
56	0x9a993af6	-6.3374573e-23
57	0x1c313b31	5.864089e-22
58	0x19c1921d	2.0014747e-23
59	0x1a1ac9ff	3.2009625e-23
60	0x9c251266	-5.46177e-22
61	0x1a8c511a	5.803367e-23
62	0x9a1b3df2	-3.2103288e-23
63	0x27094d57	1.9054495e-15
64	0x26ed769d	1.6477329e-15
65	0x272a2950	2.3614635e-15
66	0x2741b16e	2.6880315e-15
67	0x27316fa1	2.4624199e-15
68	0x2721ddf1	2.2463553e-15
69	0x2733e950	2.496772e-15
70	0x2731f94f	2.4698835e-15
71	0x27200187	2.2205288e-15
72	0x05977a2e	1.4244853e-35
73	0x839b63b3	-9.132971e-37
74	0x85c4c206	-1.8503024e-35
75	0x0428e533	1.9853548e-36
76	0x85ec248a	-2.2206756e-35
77	0x0620385f	3.013407e-35
78	0x05820d02	1.222992e-35
79	0x03a26844	9.5454425e-37
80	0x8668cfbc	-4.378697e-35
81	0xb55ae766	-8.154806e-07
82	0xb589ebf9	-1.0275972e-06
83	0xb590812a	-1.0766428e-06
84	0xb58c92b2	-1.0473507e-06
85	0xb5a8899d	-1.2557026e-06
86	0xb5b2d0a1	-1.3322752e-06
87	0xb59ea854	-1.1820907e-06
88	0xb5b25c5f	-1.3288917e-06
89	0xb5bc7a69	-1.4042718e-06
90	0xb180fe11	-3.7541743e-09
91	0x31d78495	6.2723964e-09
92	0x32714948	1.40447085e-08
93	0x31913560	4.2261235e-09
94	0x31f235d8	7.0492483e-09
95	0xaf224220	-1.4757306e-10
96	0x3040f942	7.020341e-10
97	0x31b79f59	5.3441167e-09
98	0xb20d282e	-8.216416e-09
99	0xacfdb4df	-7.210773e-12
100	0xac50cda1	-2.9672725e-12
101	0x2d37bfb4	1.0444912e-11
102	0xac94d469	-4.2299953e-12
103	0xac6f8292	-3.4036424e-12
104	0x2d34257c	1.0240139e-11
105	0x2b1840d0	5.4091193e-13
106	0xac898f2c	-3.9096695e-12
107	0x2c76ef34	3.5091487e-12
108	0x9636213a	-1.4712327e-25
109	0x9763d3df	-7.3615075e-25
110	0x97660e65	-7.4335177e-25
111	0x969aea54	-2.5027924e-25
112	0x173a0860	6.011041e-25
113	0x17768c3f	7.96639e-25
114	0x15b80b4a	7.433482e-26
115	0x9737d0f3	-5.939422e-25
116	0x975e54dd	-7.183918e-25
117	0x34e93f2a	4.344559e-07
118	0x34312824	1.6499013e-07
119	0xb52566d2	-6.1616913e-07
120	0x3384257d	6.153548e-08
121	0x34fcf954	4.7120068e-07
122	0xb51995d7	-5.721499e-07
123	0x34fb8010	4.684557e-07
124	0xb440665b	-1.791863e-07
125	0x34b4d859	3.3685026e-07
126	0x2c72d595	3.450883e-12
127	0x2c04a55c	1.8850121e-12
128	0xaba91fc4	-1.2016989e-12
129	0x2c4cc789	2.9100908e-12
130	0x2c7af4d8	3.5663052e-12
131	0x2a915f6c	2.5823386e-13
132	0x2c70796a	3.417345e-12
133	0x2c2e85f0	2.4801237e-12
134	0x2c2959b5	2.4066142e-12
135	0xb075c7ba	-8.941431e-10
136	0x310e4606	2.0703523e-09
137	0x3116f70b	2.19683e-09
138	0xb100e502	-1.8756627e-09
139	0x31117798	2.1168258e-09
140	0x30feab4d	1.8529619e-09
141	0x2f2ba6ca	1.5611615e-10
142	0x3083772d	9.565376e-10
143	0xb0dfb753	-1.6277489e-09
144	0xaec52245	-8.96461e-11
145	0x2e92a5ba	6.66875e-11
146	0xaf939898	-2.684757e-10
147	0x2f25e1ba	1.5086857e-10
148	0xaf6a6a12	-2.131986e-10
149	0x2f2f1fe7	1.5927491e-10
150	0xaf188d22	-1.387446e-10
151	0x2f20d6b7	1.4628197e-10
152	0xaf8c1c09	-2.5485772e-10
153	0x2a40cd09	1.7124162e-13
154	0xada4efb0	-1.8751084e-11
155	0xae75d441	-5.589507e-11
156	0xad4c940f	-1.1628933e-11
157	0xada72c83	-1.9005469e-11
158	0xae9ddcef	-7.178779e-11
159	0xad2e848b	-9.920185e-12
160	0xae1d5c8c	-3.5779865e-11
161	0xaeaff7c3	-8.00209e-11
162	0xaf64ff0b	-2.0827089e-10
163	0x2e8528de	6.055399e-11
164	0x2ebddd58	8.6340435e-11
165	0xae84b569	-6.03489e-11
166	0xaf9bce38	-2.8340863e-10
167	0x2f868598	2.4469382e-10
168	0x2f371706	1.6651933e-10
169	0xadcfc3a7	-2.3620063e-11
170	0x2e9cafbc	7.1252754e-11
171	0xb1c475b3	-5.7177316e-09
172	0x3194c5a2	4.329835e-09
173	0xb1aac05e	-4.969521e-09
174	0xb1d0d0b0	-6.0773218e-09
175	0x31817dbb	3.768688e-09
176	0xb13c6c7f	-2.7419274e-09
177	0xb1da6898	-6.356526e-09
178	0x30f29acf	1.7651817e-09
179	0xb12f4f2d	-2.5510858e-09
180	0x2fdbd3ab	3.9986267e-10
181	0x305e6899	8.091177e-10
182	0x301876d3	5.546614e-10
183	0x2f968e82	2.73861e-10
184	0x30533ba0	7.6846085e-10
185	0x3077c0bf	9.0131985e-10
186	0xaf2d8bdd	-1.5783948e-10
187	0x30a45424	1.1956485e-09
188	0x3081005e	9.38609e-10
189	0xab802ee5	-9.107963e-13
190	0x2d1742b9	8.598172e-12
191	0x2e585e93	4.9196713e-11
192	0x2906e9c2	2.995673e-14
193	0x2c78844b	3.5316357e-12
194	0x2f8283d4	2.3740532e-10
195	0x2b4bc27f	7.2390005e-13
196	0x2d0b4cd7	7.918297e-12
197	0xac606ea5	-3.1893735e-12
198	0x9453bba4	-1.0689783e-26
199	0x945eb946	-1.12446745e-26
200	0x945f6120	-1.1277777e-26
201	0x9446c573	-1.0035385e-26
202	0x131a29a7	1.9458069e-27
203	0x11d8ef6b	3.4226344e-28
204	0x1440848b	9.719662e-27
205	0x135039cf	2.6281793e-27
206	0x93fb768c	-6.3478204e-27
207	0xb3e2e3d9	-1.056539e-07
208	0xb3e2596e	-1.0540212e-07
209	0x336f90fa	5.577838e-08
210	0x33daddaa	1.01917365e-07
211	0xb391c5cc	-6.788068e-08
212	0x334276ee	4.527731e-08
213	0x33c54af1	9.187159e-08
214	0x338fbed0	6.693665e-08
215	0x324addd4	1.1808385e-08
216	0xa6dbdc9e	-1.5255976e-15
217	0x2554e7b7	1.8466577e-16
218	0x28058dda	7.413742e-15
219	0x264b11ae	7.0453734e-16
220	0xa63e25ac	-6.5970547e-16
221	0x274ecb31	2.8698393e-15
222	0xa6aa1da1	-1.1804151e-15
223	0xa7408713	-2.6718576e-15
224	0x2640b9d3	6.686522e-16
225	0x053a6a4e	8.765203e-36
226	0x83e0596f	-1.318607e-36
227	0x83b6c3bc	-1.0741937e-36
228	0x85267a15	-7.8277054e-36
229	0x83a057b2	-9.424089e-37
230	0x0539d332	8.737449e-36
231	0x853e0736	-8.9350815e-36
232	0x84bc3c21	-4.4253807e-36
233	0x053537bf	8.520818e-36
234	0x2bb93d1b	1.3162001e-12
235	0x2b821791	9.243597e-13
236	0x2b50d66b	7.419401e-13
237	0x2a8d3f33	2.5090485e-13
238	0x2a7677e0	2.1890779e-13
239	0xab31c96f	-6.316258e-13
240	0x2b1e4f70	5.624312e-13
241	0xab8c2282	-9.957176e-13
242	0x29dc047a	9.770739e-14
243	0x35fe11f0	1.8929695e-06
244	0x3409a2b1	1.2818306e-07
245	0xb38452ab	-6.161766e-08
246	0x32df9e2a	2.6032541e-08
247	0x34b08b74	3.288402e-07
248	0xb40a0203	-1.2852983e-07
249	0x341af850	1.4432703e-07
250	0x34067671	1.2522811e-07
251	0xb3020715	-3.0274425e-08
252	0xaf3a999d	-1.6971176e-10
253	0x2dd44cbf	2.4135692e-11
254	0x2fb07b23	3.2101707e-10
255	0xaf0a80a5	-1.259673e-10

Encoder.8.bias f4 [128]
0	0x341c9537	1.4582916e-07
1	0x349fb1ea	2.9745507e-07
2	0xb09949dd	-1.1153208e-09
3	0x378d04b3	1.6810698e-05
4	0x34d599a1	3.978612e-07
5	0xb67cc8d6	-3.7667828e-06
6	0xb41ab112	-1.4406785e-07
7	0x380ff731	3.432407e-05
8	0xb8abae61	-8.186396e-05
9	0xb4bc0c5c	-3.5026721e-07
10	0x207a9894	2.1226308e-19
11	0xb2f6a2f0	-2.8712265e-08
12	0xb236cd4d	-1.0640474e-08
13	0xb620796f	-2.3912542e-06
14	0xba198ceb	-0.0005857485
15	0xad9e7aae	-1.8017001e-11
16	0xb01941ed	-5.575476e-10
17	0xa9d66e3e	-9.522633e-14
18	0x39e7a7d3	0.00044184792
19	0xb93b4951	-0.00017861022
20	0x350e9027	5.310889e-07
21	0xb31d353f	-3.6602838e-08
22	0xba030a20	-0.0004998762
23	0xbb3994ff	-0.0028317568
24	0xba9dc2ed	-0.0012036242
25	0x333cdec7	4.3974776e-08
26	0xb81b9f8a	-3.7103462e-05
27	0xa5adf519	-3.01768e-16
28	0xb69d422a	-4.686667e-06
29	0xb36d2d76	-5.522221e-08
30	0xb5c05e21	-1.433251e-06
31	0xb1423069	-2.8258234e-09
32	0xb707c296	-8.091933e-06
33	0xb5720df3	-9.0172324e-07
34	0xba089832	-0.0005210667
35	0xb90a5046	-0.0001319061
36	0xb3bb0671	-8.709038e-08
37	0xbc2ce99a	-0.010553742
38	0xba129f4d	-0.00055931957
39	0x9f135000	-3.1194635e-20
40	0xaea9b3c5	-7.717164e-11
41	0xb2902e90	-1.678498e-08
42	0x36483fd4	2.9839475e-06
43	0xb8b8e71f	-8.8168534e-05
44	0xb8822abd	-6.206844e-05
45	0xb6d2fdc2	-6.288029e-06
46	0xaedfe0ef	-1.0180822e-10
47	0xb903c936	-0.0001256809
48	0xb8260714	-3.9584076e-05
49	0xb02576b9	-6.0195365e-10
50	0xb62a5731	-2.5382726e-06
51	0xb245d50d	-1.1515351e-08
52	0xb1dcb6d3	-6.4236274e-09
53	0x34dde3b0	4.1330122e-07
54	0x35d93ee4	1.6186063e-06
55	0x3c920d88	0.017828718
56	0xaf1651ba	-1.3671456e-10
57	0x361ca8a2	2.3343969e-06
58	0x35794c81	9.2871056e-07
59	0xb3c95f4c	-9.377126e-08
60	0x3c696ff8	0.014247887
61	0xb396b9c0	-7.018707e-08
62	0x339aefb3	7.214785e-08
63	0xbb93ea6e	-0.00451403
64	0x3946476b	0.00018909357
65	0xb3b24a50	-8.302288e-08
66	0xb4af0cc8	-3.260559e-07
67	0xb4f5f035	-4.580958e-07
68	0xa12f61ed	-5.942191e-19
69	0x2c327572	2.5360517e-12
70	0x3a52f677	0.00080475904
71	0xb767e945	-1.3822985e-05
72	0xb8d7fe85	-0.00010299407
73	0xb8a910f0	-8.061703e-05
74	0xb6a314dc	-4.860207e-06
75	0xba9b07f0	-0.0011827927
76	0xb9db4434	-0.0004182175
77	0xba0592a9	-0.00050954014
78	0x270ba580	1.9379843e-15
79	0xaa19f1c9	-1.3673016e-13
80	0xaf3c6d94	-1.713743e-10
81	0x2e80b9ac	5.853748e-11
82	0x331790c5	3.5289094e-08
83	0xb5c0d4c1	-1.4367034e-06
84	0x1586e40d	5.448197e-26
85	0xb3903401	-6.714982e-08
86	0x39730c5a	0.00023178887
87	0xb8b6c234	-8.7146094e-05
88	0xb96f3c59	-0.00022815297
89	0xb1e5a3b4	-6.683388e-09
90	0x31859aff	3.8884305e-09
91	0x399a812a	0.00029469404
92	0xb4d11375	-3.894344e-07
93	0xb24a1dc4	-1.1764715e-08
94	0xb49985fa	-2.8595952e-07
95	0xb9892808	-0.00026160502
96	0xb005b270	-4.8638693e-10
97	0xba88d2e0	-0.0010438822
98	0xb1a581a9	-4.8168727e-09
99	0xb864cf4a	-5.455249e-05
100	0x35067b74	5.009854e-07
101	0xb39ff62b	-7.448792e-08
102	0xb8cbdc9d	-9.720887e-05
103	0xb9070067	-0.00012874753
104	0x3a6626d7	0.00087795913
105	0x3ba80777	0.005127843
106	0xb31f8e7f	-3.7149672e-08
107	0xb6f296d9	-7.229723e-06
108	0xb6966c4f	-4.482957e-06
109	0xa9f5a2e7	-1.0908445e-13
110	0xb590de0b	-1.0793459e-06
111	0x32a7d3a1	1.9537596e-08
112	0xb2a96db2	-1.9724073e-08
113	0x35e25200	1.6862177e-06
114	0x9e91fcc2	-1.545701e-20
115	0x3330acbf	4.1135305e-08
116	0x287b18fc	1.3938717e-14
117	0xbc2fc232	-0.010727452
118	0xb1da5f63	-6.3554793e-09
119	0xbaf366f6	-0.0018570113
120	0xb1e3876f	-6.6219665e-09
121	0xbb04f404	-0.0020287046
122	0xb5127a40	-5.4567136e-07
123	0xb633b5a3	-2.6778805e-06
124	0x322b6ff1	9.9789625e-09
125	0x3cb30c3b	0.021856418
126	0xb3c01ed7	-8.9463065e-08
127	0xbb616682	-0.0034393375

Decoder.0.weight f4 [128, 64, 3, 3]
0	0x3403ac56	1.2263021e-07
1	0x3392fba6	6.8444294e-08
2	0x3322276d	3.7754422e-08
3	0xb598c834	-1.1383149e-06
4	0x328c7a93	1.6353885e-08
5	0xb42919cf	-1.574874e-07
6	0x35219a68	6.0201864e-07
7	0xb2173400	-8.80118e-09
8	0x31680010	3.3760479e-09
9	0xb44be528	-1.8989215e-07
10	0xb405d59a	-1.2464298e-07
11	0x33a664d6	7.748319e-08
12	0xb4100d7a	-1.3415948e-07
13	0xb419cfd1	-1.4324839e-07
14	0x339c4345	7.276552e-08
15	0xb4452ff6	-1.8364503e-07
16	0x331b8c6b	3.621646e-08
17	0x334dfeab	4.79619e-08
18	0x2af45254	4.3400233e-13
19	0x2c291627	2.4028641e-12
20	0xac9f1437	-4.521296e-12
21	0x2cba1707	5.2889945e-12
22	0x2c9b5ef0	4.415905e-12
23	0x2af207e7	4.299332e-13
24	0xad91aa6f	-1.656028e-11
25	0x2da1b837	1.8385389e-11
26	0x2c542741	3.0148802e-12
27	0xab5ce261	-7.8473865e-13
28	0xab734f0d	-8.644065e-13
29	0xab503bf3	-7.397964e-13
30	0xab9d5144	-1.1178077e-12
31	0xab3b0521	-6.6442864e-13
32	0xab518712	-7.4439164e-13
33	0xab40600d	-6.83454e-13
34	0xab6044f4	-7.967648e-13
35	0xab1fb765	-5.674266e-13
36	0x32198b9d	8.9375165e-09
37	0x31e27fd3	6.5919976e-09
38	0x31219c83	2.351755e-09
39	0x2fb10fe0	3.2207392e-10
40	0x2fbe9632	3.466752e-10
41	0xaf41ed37	-1.7637523e-10
42	0xadb0c72c	-2.0097334e-11
43	0x2f500d09	1.8922121e-10
44	0xad45af0a	-1.123702e-11
45	0x2a13f95d	1.3142738e-13
46	0xae2050c8	-3.6451536e-11
47	0x2cba8924	5.3016636e-12
48	0x2d92234e	1.6613957e-11
49	0x2d6a623c	1.3323172e-11
50	0xac4185f9	-2.750132e-12
51	0x2d487e97	1.1396792e-11
52	0x2d79ec3b	1.4206465e-11
53	0xad8b2852	-1.5820376e-11
54	0xb39895e4	-7.1053165e-08
55	0x324cb744	1.1916033e-08
56	0x32d13026	2.4352698e-08
57	0xb363b065	-5.3012986e-08
58	0x329e768e	1.8447533e-08
59	0xb315381e	-3.4742804e-08
60	0x3348012d	4.6567198e-08
61	0xb2246253	-9.568413e-09
62	0xb254f63a	-1.23960096e-08
63	0x343e5439	1.7725769e-07
64	0x334b44bb	4.732713e-08
65	0xb4408cdf	-1.7932642e-07
66	0x354928c5	7.493766e-07
67	0xb3160627	-3.4930192e-08
68	0xb4397e5b	-1.7275435e-07
69	0x35340e78	6.707628e-07
70	0x34162927	1.398481e-07
71	0xb3c8ab5a	-9.3443944e-08
72	0x2e0e0b37	3.2297023e-11
73	0x2e0a1d13	3.140339e-11
74	0x2b2a850a	6.058076e-13
75	0x2d18faa0	8.69585e-12
76	0xadd91cb7	-2.4682796e-11
77	0x2d4a9faf	1.15178275e-11
78	0xae09e5b5	-3.1354214e-11
79	0x2d123af5	8.31223e-12
80	0xae5f6336	-5.0792447e-11
81	0xb1d0ec52	-6.0804632e-09
82	0xb1dfb108	-6.5102803e-09
83	0x322eb3fb	1.0169056e-08
84	0x32d450d1	2.47168e-08
85	0xb0f835ca	-1.8059663e-09
86	0xb19f7a8e	-4.641442e-09
87	0x329c5f1f	1.8204046e-08
88	0x322eeb73	1.0181668e-08
89	0x32e599cf	2.6729053e-08
90	0xa4903456	-6.2538706e-17
91	0xa38dec0f	-1.5387225e-17
92	0x20bc1f48	3.186914e-19
93	0xa459285c	-4.708856e-17
94	0xa24a4321	-2.7411643e-18
95	0xa287809e	-3.6728e-18
96	0xa4559b6e	-4.6318667e-17
97	0xa1f49bde	-1.6575341e-18
98	0xa2d76d1e	-5.83914e-18
99	0xa9dd1088	-9.817239e-14
100	0x29829211	5.798498e-14
101	0xa7bb23e5	-5.1941843e-15
102	0xa9b60e72	-8.0849295e-14
103	0xa8dce566	-2.4524392e-14
104	0xa72b4a03	-2.377114e-15
105	0xa81eaec5	-8.808659e-15
106	0x2814ea90	8.266513e-15
107	0x27cd3a9b	5.696247e-15
108	0xa0f1cfb7	-4.0964442e-19
109	0xa2419150	-2.6233305e-18
110	0xa2aa1df1	-4.6110294e-18
111	0xa2bf1fef	-5.1804465e-18
112	0xa3283997	-9.119493e-18
113	0x22089b62	1.8513696e-18
114	0x2226d7a3	2.2611352e-18
115	0xa1159134	-5.067534e-19
116	0x2255ac38	2.8958055e-18
117	0x07ac5dd1	2.5934824e-34
118	0x871f5212	-1.1985949e-34
119	0x8348f324	-5.905383e-37
120	0x8850e39f	-6.286029e-34
121	0x87644489	-1.7172954e-34
122	0x07bc1caf	2.8303955e-34
123	0x883e1340	-5.7198673e-34
124	0x87b06ef2	-2.6546745e-34
125	0x07c21d1e	2.920699e-34
126	0x2eabb063	7.807512e-11
127	0x2f8d685e	2.5721908e-10
128	0xafa07d51	-2.9192873e-10
129	0xae7b6d5f	-5.7167934e-11
130	0x2f0e5f97	1.2948785e-10
131	0xaf043fff	-1.2028066e-10
132	0x2fc87a39	3.6466632e-10
133	0xaff536f9	-4.46043e-10
134	0x2fb09267	3.211824e-10
135	0xb1e53789	-6.671091e-09
136	0x3250d830	1.2156349e-08
137	0x325b5427	1.2766612e-08
138	0x311dc8e1	2.2960693e-09
139	0xafd5855a	-3.8839226e-10
140	0x30ed922b	1.7285563e-09
141	0xb0c8a0da	-1.4597632e-09
142	0xafeab9a1	-4.269625e-10
143	0x30a1ede9	1.178191e-09
144	0x2c79b4e7	3.548545e-12
145	0x2c647667	3.2466475e-12
146	0x2d10b5f0	8.2258506e-12
147	0x2df586fb	2.7913219e-11
148	0x30147744	5.4011573e-10
149	0x30019d30	4.7153303e-10
150	0x2f549728	1.9334989e-10
151	0xaf6e6568	-2.1682e-10
152	0xb0347506	-6.564992e-10
153	0x220f29f8	1.9402332e-18
154	0xa1dc542c	-1.493006e-18
155	0xa29cfb7a	-4.2550146e-18
156	0x2ad30a43	3.748825e-13
157	0xab3452da	-6.4063826e-13
158	0xaab73249	-3.2542222e-13
159	0x2b71a367	8.5847166e-13
160	0xab673a5b	-8.214867e-13
161	0xab40d9db	-6.851444e-13
162	0xae9a02d0	-7.003609e-11
163	0xaeba25ee	-8.4650384e-11
164	0xaf11ae48	-1.324959e-10
165	0xaf85c2b0	-2.4330893e-10
166	0xaf10b7a6	-1.3161969e-10
167	0x2e51a976	4.767161e-11
168	0xaf3cea0b	-1.7181649e-10
169	0xaf650eeb	-2.0832729e-10
170	0x2ddccfb7	2.5103348e-11
171	0xac0b86ea	-1.982798e-12
172	0x2c8c04c9	3.9795706e-12
173	0xade52773	-2.6051805e-11
174	0x29e23e19	1.00471884e-13
175	0x2d37b903	1.04434265e-11
176	0xac2cb42e	-2.454269e-12
177	0xadbdd7e5	-2.1582689e-11
178	0xad862ba7	-1.5253422e-11
179	0xae808568	-5.844464e-11
180	0x2c83bae4	3.743993e-12
181	0x2aede0e3	4.2255704e-13
182	0xaa849885	-2.3553742e-13
183	0x2be0f29f	1.5983498e-12
184	0x2bb0d829	1.2565549e-12
185	0xa9c33889	-8.669547e-14
186	0xa95b2bd4	-4.8665783e-14
187	0xa90f41b1	-3.1809357e-14
188	0x28561935	1.1884852e-14
189	0x36d166a6	6.2406352e-06
190	0xb2a80291	-1.9558941e-08
191	0x33539817	4.926559e-08
192	0xb319cb28	-3.5807858e-08
193	0x32cc3e71	2.377712e-08
194	0xb2e8dd95	-2.7109119e-08
195	0xb393c65d	-6.881303e-08
196	0x31fd20cf	7.366999e-09
197	0x3954bb3b	0.00020287644
198	0x3594ad40	1.1077282e-06
199	0x35ce3733	1.5364261e-06
200	0xb4e2c2c8	-4.2237502e-07
201	0x35d4df76	1.5860267e-06
202	0x35c46245	1.4631738e-06
203	0xb4651f2d	-2.1338629e-07
204	0x35fde2ec	1.8916012e-06
205	0x3609281e	2.0437942e-06
206	0xb50cf2a7	-5.250717e-07
207	0xb0d2bcfe	-1.5333226e-09
208	0x2f9a9db8	2.8124503e-10
209	0x2d183e24	8.653998e-12
210	0x3048af15	7.300838e-10
211	0x2f31f132	1.6183746e-10
212	0xad0c7341	-7.98367e-12
213	0xb075509e	-8.9245045e-10
214	0x2eb9e63b	8.453723e-11
215	0x2caaf9ef	4.859439e-12
216	0x2d7a6f4b	1.4235567e-11
217	0xae98e438	-6.9526995e-11
218	0xad64ea09	-1.3012266e-11
219	0xadcf9380	-2.3598679e-11
220	0xaca0dc4b	-4.571931e-12
221	0x2aa2e1cc	2.893366e-13
222	0x2b969d50	1.0701804e-12
223	0x2c9a0952	4.377978e-12
224	0xab99fba8	-1.0941152e-12
225	0x31c1fece	5.646007e-09
226	0x31d47746	6.183572e-09
227	0xb05ad60c	-7.9612117e-10
228	0xb1ad9ae3	-5.0525713e-09
229	0x31b888ed	5.3706715e-09
230	0x31a6eb74	4.8580038e-09
231	0xb185de4b	-3.8960812e-09
232	0x310e06b6	2.0667534e-09
233	0xb12bff78	-2.5028992e-09
234	0xa9b4665f	-8.011364e-14
235	0xa8cd1a17	-2.2770887e-14
236	0xa9800f37	-5.686981e-14
237	0xa9b886ce	-8.1946263e-14
238	0xa8bb2297	-2.0776172e-14
239	0xa8d37a32	-2.34787e-14
240	0xa97b099f	-5.574154e-14
241	0xa8b1f81c	-1.9758548e-14
242	0x2722f0d2	2.2612565e-15
243	0xb0b4a349	-1.3143132e-09
244	0xb07cc6bb	-9.195948e-10
245	0xade928f5	-2.6507222e-11
246	0x3115463c	2.1722277e-09
247	0xb09d8cd3	-1.1463278e-09
248	0x3065d7ce	8.361639e-10
249	0xb051b715	-7.629393e-10
250	0xb0d01873	-1.5140941e-09
251	0x30ae7f65	1.2696374e-09
252	0x2f47e242	1.8179327e-10
253	0x3056fbe0	7.821068e-10
254	0xb07373fa	-8.85677e-10
255	0x2fdce7ed	4.018256e-10

Decoder.0.bias f4 [64]
0	0x3c8cd4db	0.017191341
1	0xbab116cb	-0.0013510821
2	0xb6c5e778	-5.898004e-06
3	0xb5b497e1	-1.3455248e-06
4	0x37a11758	1.9203566e-05
5	0x3a0d54a8	0.0005391338
6	0xbaa7b569	-0.0012795153
7	0x3b5e9a95	0.003396665
8	0xb8f8438e	-0.000118381446
9	0x385660e8	5.1111827e-05
10	0xaea8c068	-7.673934e-11
11	0xb1a3afbb	-4.7639026e-09
12	0xab1a5d10	-5.484094e-13
13	0xb4edb32c	-4.4275055e-07
14	0xb6b05026	-5.2545392e-06
15	0x39b52ab0	0.00034554815
16	0xb70343ce	-7.8239955e-06
17	0xb7ea94e0	-2.7964299e-05
18	0xb83eb32f	-4.5466408e-05
19	0xb48f121e	-2.6649008e-07
20	0xb4a612b0	-3.0933506e-07
21	0xbab36516	-0.0013686742
22	0x3ce70e92	0.02820519
23	0x36c5d55a	5.895895e-06
24	0x36d13839	6.2352306e-06
25	0xb9117d24	-0.00013874896
26	0xb1b909b9	-5.385314e-09
27	0x39022a1b	0.00012413452
28	0xb777af3d	-1.4763148e-05
29	0xbb11e410	-0.002226118
30	0xb5f946dd	-1.857257e-06
31	0xb9be42d3	-0.00036289412
32	0x3b72bfb6	0.0037040538
33	0xb37c26f7	-5.870876e-08
34	0xb26dd410	-1.3843433e-08
35	0x3c878e23	0.016547268
36	0xb084415b	-9.622839e-10
37	0x311e50e7	2.3038014e-09
38	0x36a0402e	4.775843e-06
39	0xb3fc4041	-1.1746352e-07
40	0x3cf44d51	0.029822024
41	0xb8c82510	-9.5436466e-05
42	0xb537ead6	-6.8514544e-07
43	0x3d1c1a89	0.038111243
44	0xb898dc57	-7.288966e-05
45	0xb5005e1f	-4.782068e-07
46	0xb7587fb6	-1.2904338e-05
47	0x3bb9e748	0.005673323
48	0xacede964	-6.7618567e-12
49	0xb41096c4	-1.3465893e-07
50	0xb79ae505	-1.8464876e-05
51	0x3d859052	0.065216675
52	0x3cf02565	0.029314706
53	0xb1b4e87d	-5.2651203e-09
54	0xb670c961	-3.5880005e-06
55	0x39905995	0.00027532564
56	0xa990ad6f	-6.4249706e-14
57	0xbbd85366	-0.0066017387
58	0x382ceb9e	4.122743e-05
59	0xb4f62345	-4.5846733e-07
60	0x35025c82	4.856339e-07
61	0xb3f3a6f2	-1.13459365e-07
62	0xb9027fad	-0.00012445329
63	0xb84b3289	-4.8446036e-05
