SPATIAL TRANSFORMER/spatial_transformer.pt (torch, 292977 bytes, 52 tensors)

conv1.conv1.weight f4 [10, 1, 1, 1]
00000000: e48f f8bf 9d75 f7bf 64d6 a33f fdfe bd3f
00000010: f59a eb3f a674 b43f 0a05 cbbf 7fdf b33f
00000020: 3e58 eebf 8af7 ed3f
-1.9418912 -1.9332768 1.2799802 1.4843441 1.8406664 1.4098098 -1.5860913 1.405258
-1.8620679 1.8591168

conv1.bn1.weight f4 [10]
00000000: e82d eb3f bfbd e93f 94a5 303f 8792 7d3f
00000010: b01b fa3f ead3 c83f 5d88 d03f 0b7a c53f
00000020: fedb c63f f1f7 cd3f
1.8373384 1.8261031 0.6900265 0.9905171 1.95397 1.5689671 1.6291615 1.542787
1.5535886 1.6091291

conv1.bn1.bias f4 [10]
00000000: 96a8 0240 fc31 983c bf9a 8e3f 28c0 a23f
00000010: db85 cebd f158 bbbf c730 323f 300a 2fc0
00000020: d37a 803f 9e67 33c0
2.0415397 0.018578522 1.1140975 1.2714891 -0.10084125 -1.4636518 0.6960568 -2.7349968
1.0037483 -2.8031993

conv1.bn1.running_mean f4 [10]
00000000: 263e 27bd 4726 27bd a802 e03c f9f9 013d
00000010: 949c 1f3d d319 f43c ab6b 08bd 69d4 f13c
00000020: 0590 20bd 229b 203d
-0.040830754 -0.04080799 0.027345017 0.031732533 0.038967684 0.02979747 -0.033305805 0.02952023
-0.039199848 0.039210446

conv1.bn1.running_var f4 [10]
00000000: 56b6 1940 2d68 1940 6e74 893f ff40 b93f
00000010: 76f3 0b40 6cf7 a33f 8c4f cc3f 7809 a13f
00000020: d292 0d40 19fd 0d40
2.401754 2.3969834 1.0738657 1.447296 2.1867347 1.2809882 1.5961776 1.2581015
2.2120862 2.2185729

conv1.conv2.weight f4 [10, 10, 5, 5]
00000000: a221 8e3e 3e51 6cbe 8418 3d3e d8fa 033e
00000010: f2e2 b2be ddb5 59c0 a352 aebf d2ed bb3e
00000020: ef43 113f b86b a93e 035d 13c0 ca12 27bf
00000030: 2681 913f 1e50 e53f 1c60 a13f d4d0 703f
00000040: ba94 ce3e 92d2 d6bd 618e bf3f 4eb4 0740
00000050: 8043 eb3f 68e1 bdbb 0f7e c4bf 5363 963f
00000060: ea8c 0940 befa 0fbf 1949 ebbe 4f2e ac3e
00000070: f73a 433e 59bb 16bf b8fc 65c0 a77a c6bf
00000080: 124f 8e3d cdd7 2f3f c2a3 da3e 781b 4cc0
00000090: 33d8 94bf fd67 fb3e 2bc7 e13f 5921 953f
000000a0: 1b0f dfbe c47c 90bc 57e8 8abe 1c26 a43f
000000b0: 36c2 de3f 3c4d ec3e 7743 38bf c52c 09c0
000000c0: b7f2 763d c12f 533f 10f5 e23f ce7c 293f
000000d0: f19c eb3d 3261 2a3f be1d 6c3f 5bc7 8a40
000000e0: 15da ba3f e276 94be 9ed7 983d 2bb3 fc3e
000000f0: d99f 2640 2a7b 4c3f f23e 56bf 1b7d 8abf
00000100: a968 27bf 7aa1 2b3f f833 223f 56be 343e
00000110: ed5f c2bf 8c7d 87bf 4c61 213f 9835 b43f
00000120: 1a3e c83f 98ea febe e021 a1bf 00d0 d93f
00000130: 0d04 183f a0b0 d43d 2031 2f3f 53d5 663f
00000140: b87b 8f40 7cfd bd3f b2d5 4bbe 7e88 093e
00000150: b065 183f b3ca 2740 9243 3a3f ebde 6ebf
00000160: fabb 92bf 2da3 2ebf 0652 fe3e a51d 0a3f
00000170: 338a 613e 5c42 c8bf e426 90bf 7842 bd3e
00000180: 69eb b03f bab5 d43f 91b2 07bf 42d6 b4bf
00000190: aeb8 0c3f dcc0 e8be 48f6 37be f95f 633f
000001a0: b139 4a3f 46cd 3c40 99e9 343f 8853 b4be
000001b0: c6f8 ed3e 1038 543f 5f78 4b3f 8689 50bd
000001c0: 91fd 27bf f0a9 28bf 5a81 b8be ace8 6fbf
000001d0: 74cc ef3d 76f3 233e 575b c2bf 9e10 63bf
000001e0: 0257 8fbf fca0 f83e cbcd 7b3f f0d9 80bf
000001f0: 9b1d f3bf da0b ee3d 3999 60bf eb5e 96be
00000200: 4612 413f 18d7 243f 3e48 0540 f2be c23e
00000210: 856e f8be 0872 393e be98 533f 5095 3e3e
00000220: 396a f0be 362d 3cbe 0a47 05bf 228d 5fbe
00000230: abf0 81bf ef92 43be 7343 433e b567 d3bf
00000240: ba45 cdbe 9a98 ccbf 7822 b73d 9d5e 463f
00000250: f401 74bf 672f cebf 8a83 4a3e c7e3 9bbe
00000260: 2bc8 5b3d 27f6 0b3e be5c d4be 7a29 54c0
00000270: 54d0 a3bf 1653 563e 16a5 013f 1cd7 903e
00000280: 4793 2dc0 6bbd 6ebf 74df 4f3f 190a c63f
00000290: 9d92 8c3f 67d6 fc3e fa60 5b3e df69 1fbe
000002a0: 3b8e a53f 3313 0740 9ab0 b33f 27f2 abbe
000002b0: ad9d e6bf 336c 383f 6601 d73f de5b 72bf
000002c0: bf01 bbbf 8f8d bfbe 42a9 3b3f 056b 343e
000002d0: ce4e 643d abd1 2bbe cd03 27bf 2462 c33e
000002e0: a847 69bc 151d 33bf b071 89bf 05d8 8c3e
000002f0: 87c3 46be 6e85 9cbe 64a6 c7bf 1159 6cbf
00000300: 7cdd bc3d a45c c4bf 6a2b 843d 1f45 0ac0
00000310: edbb d2be 3639 3f3f c78d 6dbf 5121 89bf
00000320: 4454 883e d65f 77be d45b 333d 8441 063e
00000330: 8a89 a8be 2c62 4fc0 7812 9bbf 1c5a 4a3e
00000340: 409c a53e 0658 a93e 3073 1dc0 4258 3abf
00000350: 9967 873f 363c d53f 305e 8a3f 5758 553f
00000360: 60dc cc3e 8ea1 2dbe c74d b23f e4fc 0140
00000370: 6766 ce3f 748e 5cbe cd82 dbbf 14a0 6a3f
00000380: 0107 f23f b4fb 62bf 9611 b1bf 0dee c3be
00000390: 6d2d 533f 2c5d 473e 6844 1b3d 11bb 12be
000003a0: 5957 16bf 2e44 da3e 1f12 373e ed66 57bf
000003b0: e1b5 89bf 8a22 8a3e 3eb7 c6bd 4713 4cbe
000003c0: f279 d1bf c4f4 7fbf 2f27 0c3e cd4d b5bf
000003d0: 1705 7c3d 8273 16c0 f37d d5be d6c3 4a3f
000003e0: b41b 4bbf 60f9 88bf 081c 213f 3708 813f
000003f0: ab57 d1bf e8e1 42bf 8918 c1be df19 c43f
0.27760035 -0.23077866 0.18466383 0.12888658 -0.3493877 -3.401725 -1.3618969 0.3670488
0.56744283 0.33089995 -2.302552 -0.65263045 1.1367538 1.7915075 1.2607455 0.94068646
0.40347844 -0.10489382 1.4965326 2.12038 1.8379974 -0.005794693 -1.535097 1.1749061
2.1492257 -0.5624198 -0.45954207 0.3362908 0.19065462 -0.5887962 -3.5935497 -1.550618
0.06948675 0.6868866 0.42703062 -3.1891766 -1.1628479 0.49102774 1.7638906 1.1650802
-0.43566212 -0.017637618 -0.27130386 1.282413 1.7403018 0.46152675 -0.71977943 -2.1433575
0.060290065 0.8249474 1.7731037 0.6620606 0.115045436 0.6655456 0.9223288 4.3368354
1.4597803 -0.2899695 0.07463001 0.49355444 2.6035063 0.79875433 -0.83689797 -1.0819429
-0.65394074 0.6704327 0.6336055 0.17650732 -1.5185524 -1.0585189 0.6303909 1.4078856
1.5643952 -0.49788356 -1.2588463 1.7016602 0.5938118 0.10385251 0.68434334 0.90169257
4.4838524 1.4842982 -0.19905737 0.13430974 0.5953016 2.6217468 0.72759354 -0.93308896
-1.1463616 -0.68217736 0.49671954 0.53951484 0.22025375 -1.5645251 -1.1261868 0.36964774
1.3821841 1.6617959 -0.53006846 -1.4127886 0.549693 -0.4545964 -0.17965043 0.8881832
0.7899428 2.950029 0.7066894 -0.3521998 0.46478862 0.82898045 0.79480547 -0.050912403
-0.65621287 -0.65884304 -0.36036187 -0.93714404 0.11708918 0.16010842 -1.5184125 -0.8869723
-1.1198428 0.4856032 0.9836089 -1.0066509 -1.899341 0.11623354 -0.877338 -0.29369292
0.7541851 0.64390707 2.0825343 0.38036305 -0.4852182 0.18109906 0.8265494 0.18611646
-0.4695604 -0.18376622 -0.5206152 -0.21831182 -1.0151571 -0.1909902 0.19068699 -1.6516024
-0.4009226 -1.598407 0.08942121 0.7748812 -0.9531548 -1.6108216 0.1977674 -0.30447218
0.053657692 0.13668118 -0.41477007 -3.3150315 -1.2797952 0.20930132 0.50642526 0.28289115
-2.712114 -0.9325778 0.8120034 1.5471832 1.0982243 0.49382326 0.21423712 -0.1556773
1.293403 2.1105468 1.403827 -0.33583185 -1.8016869 0.720401 1.6797302 -0.9467143
-1.4609908 -0.37412688 0.7330514 0.1761895 0.055739217 -0.167792 -0.65240175 0.38160813
-0.014238276 -0.6996625 -1.073782 0.2750856 -0.19410525 -0.3057055 -1.5597653 -0.92323405
0.09221932 -1.5340772 0.06453593 -2.1604688 -0.41159 0.7469667 -0.9279446 -1.0713292
0.2662679 -0.24157652 0.043788746 0.1311093 -0.32917434 -3.240367 -1.2115011 0.19760936
0.32345772 0.3307497 -2.4601555 -0.7279092 1.057849 1.6659 1.0809994 0.8333792
0.40011883 -0.1695616 1.3929986 2.0310602 1.6125001 -0.21538717 -1.7149292 0.9165051
1.8908387 -0.8866532 -1.3833492 -0.38267556 0.8249119 0.19469136 0.037907034 -0.14329173
-0.5872703 0.42630142 0.17878006 -0.8414143 -1.075863 0.26979476 -0.097029194 -0.19929229
-1.636534 -0.9998286 0.13686822 -1.4164368 0.06152829 -2.3508 -0.41697654 0.7920507
-0.79339147 -1.0701103 0.629334 1.0080632 -1.6354879 -0.76125956 -0.3771403 1.5320395

conv1.bn2.weight f4 [10]
00000000: b025 9c3f bf0b fa3f e39d 1b40 d4d6 fa3f
00000010: ebcc ed3f ad3d fb3f 0b2d ef3f 7525 0540
00000020: 67cb cc3f e4b3 f33f
1.2199001 1.9534835 2.4315116 1.959681 1.8578161 1.9628197 1.8685621 2.0804112
1.5999573 1.9039273

conv1.bn2.bias f4 [10]
00000000: 63a4 90be 0266 a8be 2378 843f c226 9d3f
00000010: 4268 9bbf 2f2f bcbe 2a72 23bf 2f78 82bf
00000020: a180 32be 828a d03d
-0.28250417 -0.32890326 1.0349163 1.2277453 -1.2141192 -0.36754748 -0.63846076 -1.0192927
-0.1743188 0.10182668

conv1.bn2.running_mean f4 [10]
00000000: 035d 0f42 ecf6 6741 d9ec d5c1 36de 8c41
00000010: dfdd 16c2 3aad 15c3 e1ce 92c1 23ff 37c0
00000020: 4cfa 95c1 8b0e 0e42
35.84083 14.497784 -26.740648 17.608501 -37.71667 -149.67667 -18.351015 -2.8749473
-18.747215 35.514202

conv1.bn2.running_var f4 [10]
00000000: 927e 1a45 477b 8645 c2f9 8645 f21c 1a45
00000010: 310f 3045 d977 d445 0af8 5e45 e43e 9845
00000020: af6b ef44 6d91 8145
2471.9106 4303.4097 4319.2197 2465.809 2816.9495 6798.981 3567.5024 4871.8613
1915.3651 4146.178

conv1.conv3.weight f4 [10, 10, 1, 1]
00000000: 6114 643f 9eb4 933f df91 05c0 0f7c a7bf
00000010: af1b f4bf 6ef9 65bf c280 db3e 00b1 803f
00000020: 9bd1 ba3f 04aa bbbf 7784 16bf 3c3f 9d3e
00000030: 2553 bfbf 6696 1240 e910 873c a1ea 9c3f
00000040: 788c 8c3f 627d 003e e85d 0ebf 2545 bcbf
00000050: 0c4f e3bf 3aae 6e3f 4d1d b73d 393e bfbf
00000060: aec0 a7bd 5594 fd3e 22b8 b7bf 551f 04c0
00000070: eb1e 4dc0 88d7 b8bf dde0 db3f ae39 b3bf
00000080: cea8 2e40 ac94 553f f9e7 f1be 2542 5d3d
00000090: 522f 56bf 5eb9 35bf 163e 3b3f 62ee 04c0
000000a0: 792d d83f 2510 a2bf 712d d3bf 10bf 3cc0
000000b0: 757a d1bf 310d 1cbf 228d 60bf 3ce4 ac3d
000000c0: 9ff8 123f 5174 7f3e 19fb 853d 87a1 19c0
000000d0: bb94 a63e 215e 60be c42c c1be 9142 903f
000000e0: 9a98 2cc0 081b 11c0 b419 843e a8f1 a63e
000000f0: a7ad 28bf fe23 873f 7414 b2bf aeeb 513f
00000100: 9dd4 97be 4ebb 0240 4de7 d53e b2cc 14c0
00000110: 9cb9 82bf 4a4f d7bf a0b1 b2bf c919 9e3f
00000120: c9d8 18bf b929 a9bf e0a7 a73e 08c0 5b40
00000130: c6f0 8b3e d250 82be ff22 a9be 63f4 77bf
00000140: be25 a33f 06e0 4abe 6561 a93e 8a1c 19c0
00000150: 28fb 5040 63bd 023f 5136 1abf 2ff3 14bf
00000160: bbbe b43f 5ca5 163e 0b93 7c3e dbc6 523f
00000170: 9ff9 0940 92f0 c53f 418f 99bf 9d7d 94bf
00000180: 7b4a b3bf f7ea 81bf cdd4 213f 1133 133e
0.89093596 1.1539495 -2.0870283 -1.3084735 -1.9070948 -0.89833724 0.42871672 1.0054016
1.4595217 -1.466126 -0.58795875 0.30712306 -1.4947249 2.2904296 0.016487556 1.2259103
1.0980368 0.1254783 -0.5561204 -1.4708601 -1.7758498 0.932346 0.089411356 -1.4940864
-0.081910476 0.4952723 -1.4353068 -2.0644124 -3.205012 -1.4440775 1.7177998 -1.4001977
2.729053 0.8342998 -0.47247294 0.05401816 -0.83665955 -0.7098597 0.7314161 -2.0770497
1.6888877 -1.2661177 -1.6498243 -2.9491615 -1.6365496 -0.6095763 -0.8771535 0.0844197
0.57410616 0.24946715 0.06542034 -2.4004838 0.32535347 -0.21910907 -0.37729466 1.1270314
-2.696814 -2.2672749 0.2580086 0.32606244 -0.6588997 1.0557859 -1.3912492 0.82000244
-0.296544 2.0426822 0.4177803 -2.3249936 -1.0212893 -1.6821072 -1.3960457 1.2351619
-0.5970579 -1.3215858 0.32745266 3.4335957 0.27332133 -0.25452286 -0.33034512 -0.9685728
1.2745893 -0.1981202 0.3308212 -2.392367 3.2653294 0.5107023 -0.6023913 -0.5818357
1.4120706 0.14711517 0.24665467 0.8233468 2.1558607 1.5464041 -1.1996843 -1.1600834
-1.4007105 -1.014983 0.63215333 0.14374949

conv1.bn3.weight f4 [10]
00000000: be0c 1740 13c8 db3f 4aad 5940 b429 fa3f
00000010: 8860 ba3f 837c 0240 b470 fd3f ba4b e23f
00000020: bdf7 963f 42c3 f33f
2.3601527 1.7170433 3.4012017 1.9543977 1.4560709 2.0388496 1.9800019 1.767936
1.1794354 1.9043963

conv1.bn3.bias f4 [10]
00000000: 1ef7 a8be 5019 7abe 541a 32bd 2324 793e
00000010: c4c5 e23e 6fdb 0140 33c8 b83e e300 52bf
00000020: cf8f 433d c81b 90be
-0.33001035 -0.24423718 -0.04348214 0.24330191 0.44291508 2.0290182 0.3609024 -0.82032603
0.04774457 -0.28146195

conv1.bn3.running_mean f4 [10]
00000000: 031d a2c0 ea93 953f 9fc4 abc0 ba4a 6b40
00000010: 325d f3c0 2610 d7bf febf babf 4676 95bf
00000020: db80 c3bf b93e 9740
-5.0660415 1.1685765 -5.3677516 3.676436 -7.6051264 -1.6801803 -1.4589841 -1.1676719
-1.5273699 4.7264066

conv1.bn3.running_var f4 [10]
00000000: ce5a 5c41 a371 dc41 6fb7 cf41 1dad 1642
00000010: c730 4142 22fd 2e42 fe57 b541 1a4b 8641
00000020: b1a8 c541 53ef bc41
13.772169 27.555487 25.964567 37.669056 48.297634 43.7472 22.667965 16.78667
24.707369 23.616858

conv1.convG.weight f4 [10, 1, 1, 1]
00000000: c157 bd3e cf04 f83f f465 c3bf cf00 5f3f
00000010: c7c5 f23f 34b2 fb3f f30d 8ebf ae98 d6bf
00000020: 207f e1bf 9954 04bf
0.36981013 1.9376467 -1.5265489 0.8711061 1.8966607 1.9663758 -1.1098007 -1.6765344
-1.761692 -0.51691586

conv1.bnG.weight f4 [10]
00000000: da44 743f baaf fd3f 0cc7 2340 6315 2e3f
00000010: 6320 da3f 33b1 d63f db13 3940 6f74 bf3f
00000020: cd2a cc3f 759b 9e3e
0.9541756 1.9819252 2.5590239 0.68001384 1.7041134 1.6772827 2.891837 1.4957408
1.5950562 0.3097798

conv1.bnG.bias f4 [10]
00000000: 1ef7 a8be 5019 7abe 541a 32bd 2324 793e
00000010: c4c5 e23e 6fdb 0140 33c8 b83e e300 52bf
00000020: cf8f 433d c81b 90be
-0.33001035 -0.24423718 -0.04348214 0.24330191 0.44291508 2.0290182 0.3609024 -0.82032603
0.04774457 -0.28146195

conv1.bnG.running_mean f4 [10]
00000000: ada6 ff3b c8b3 263d 18bf 05bd 51f1 9a3c
00000010: 0d3d 253d 1d47 2b3d 2008 c0bc a87d 10bd
00000020: 15d6 17bd 19f1 2fbc
0.0078018517 0.040698797 -0.032652944 0.018913897 0.040341426 0.041815866 -0.023441374 -0.035276085
-0.0370694 -0.0107386345

conv1.bnG.running_var f4 [10]
00000000: 37ac b33d 8847 1840 f57a c43f c4b8 033f
00000010: 2c0a 1640 d454 2140 2ab8 493f 83c8 e43f
00000020: 665c fd3f 0822 2a3e
0.08773082 2.379366 1.5350024 0.51453805 2.3443708 2.5208025 0.7879664 1.7873691
1.9793823 0.16614544

conv2.conv1.weight f4 [20, 10, 1, 1]
00000000: 80ae 4b40 12e2 1dbf 23b1 1bc0 50f1 9bbf
00000010: e147 f13e d727 8abf 4eb5 a0bf 14f0 acbe
00000020: 311e 8b3e 8736 db3e 9078 b43f 35f7 ef3f
00000030: d2d0 b2bf 74ea 92bf 1d3c 47bf a936 50bf
00000040: 1256 03c0 f874 78bf c838 c23e bfe5 b2bf
00000050: d1ee 69bf 3c90 c4bd 1eb8 383f d679 b7bc
00000060: 2682 babf 3fb8 a1bf ee52 02bd fef6 2bbe
00000070: e1e5 853e c554 febe 4416 df3d 021c 77be
00000080: 6c75 35bf 0221 cd3c 51b7 1240 1506 5640
00000090: 321b 64bf 3819 2ac0 5a40 293f 8868 a5bf
000000a0: dad5 25bf b91a febe 1e9c 2cbf 983c b23f
000000b0: b1ad 1fbd 958c 9740 a906 96bf bcef 15bf
000000c0: 099b 743e 807b ffbe 06f8 923f eac2 08bf
000000d0: 6a0c eabe 03f5 c0bf 5c8c 6540 5558 0cbf
000000e0: 1ad3 29bf 2f53 7dbf a17e 6cbf 7fe1 513d
000000f0: d9b4 29be ceea 72be 57a7 983e a16f 7f40
00000100: ed57 0ebf 96c0 7e3f 31d0 b9bf f8ce ce3c
00000110: eb41 e4be ad2b 2940 92cc 53be 3682 60be
00000120: bf11 ebbe a6e0 783f a345 08bf d236 a9be
00000130: 1a1e dbbf 159e 2bbf 0c60 be40 667f 83bf
00000140: bdbf 293f 3e7f 5dbf f75a 293e 58fb c7be
00000150: 24f2 0cbf d2ba 86c0 9930 90bf 4363 b33f
00000160: bc07 9b3f a02d 4dbf 509a 86bf ae87 0540
00000170: 6b3f f6be 649a 513f c646 f3bf e750 febd
00000180: 9f88 abbf 5c54 27be 070c d03f 3230 18bf
00000190: 309b 5d3f 92fa b63e f155 4740 2990 d0bf
000001a0: 0c28 03c0 175a 40c0 df26 ea3f db3e 8bbd
000001b0: d255 04be 96a6 1ebe 15e0 e1be d48d a5bf
000001c0: 001c 603f a3c1 0740 5bb2 3abf 3e34 643f
000001d0: 69d5 e3be 943c 693f 4f19 6ebd 8936 0c40
000001e0: 37d0 74bf 6223 92bf 83ac 41be 7431 84be
000001f0: ca17 b3bf 1820 19c0 14a2 5940 1883 02be
00000200: 5b0d fa3d db43 613f bea0 bfbe 651e c23f
00000210: 4b92 eabf e999 b03d 4c96 c9bf 67b1 f3bf
00000220: c9d2 b3bf 7147 04bf b8aa 933f dea3 91bf
00000230: 40aa e5bc f9ae 463e a32e 383e 2435 f53e
00000240: 3158 00bf 7c08 ed40 2987 84bf 5f74 9dbf
00000250: d19e 28bf 2943 c3be f7d5 2b3f 82ea 963f
00000260: 2b10 cebd 9c76 9e3e df15 2e3f 0a04 a03d
00000270: 58d1 efbf c8d1 413f 086a f9bd 6de5 d63c
00000280: 368c 403f c55f 3940 1503 3840 5741 293f
00000290: bfe6 8b3e ad04 adbe 898f a9bf 6255 9bbf
000002a0: f659 debf ec44 ab3e dcb3 8cbf 6707 50bf
000002b0: 3dca 83bf 4962 09bd 47aa bebd 499e ebbf
000002c0: 4ae6 2640 9dbd d0bf faea ecbf eab6 fe3f
000002d0: 345d fcbe b230 c3bf 726c 8b3f 090d dbbf
000002e0: 013f 143f 0152 c33e d37e 1d40 0165 5e3f
000002f0: 6388 c2bf b0c3 16c0 b313 853f 6f56 f2be
00000300: 025b 95bd c006 a83d d5bc 3f3f 3fd7 933f
00000310: d9e2 9540 0025 2c40 7997 823e da7f dabd
3.1825256 -0.6167308 -2.4326866 -1.2183018 0.47125152 -1.0793408 -1.255533 -0.33776915
0.27171472 0.4281504 1.4099293 1.8747317 -1.3969977 -1.14778 -0.778261 -0.81333405
-2.0521283 -0.9705348 0.37933946 -1.3976363 -0.9138003 -0.09597823 0.7215594 -0.022396963
-1.4570968 -1.2634352 -0.03181737 -0.16793439 0.26151946 -0.4967405 0.10892919 -0.24131778
-0.70882297 0.025040153 2.2924387 3.3441212 -0.89103997 -2.6577892 0.6611382 -1.2922525
-0.64779437 -0.49629763 -0.67425716 1.3924742 -0.038984004 4.735911 -1.1720783 -0.5856893
0.23887266 -0.4989891 1.1481941 -0.53422415 -0.45712596 -1.5074772 3.5866919 -0.54822284
-0.6633774 -0.98955053 -0.9238072 0.05124044 -0.16572894 -0.23722383 0.2981517 3.9911883
-0.55602914 0.9951261 -1.451666 0.025245175 -0.4458154 2.6432908 -0.20683506 -0.21924672
-0.45911977 0.97217786 -0.5323126 -0.33049637 -1.7118561 -0.6703809 5.9492245 -1.0273254
0.66308194 -0.8652228 0.16538607 -0.39058948 -0.5505698 -4.210305 -1.1264831 1.4014667
1.2111735 -0.80147743 -1.0515842 2.0864062 -0.4809526 0.81876206 -1.9005973 -0.12417775
-1.3401068 -0.16340774 1.625367 -0.5944854 0.8656492 0.35738045 3.1146204 -1.6293994
-2.0493193 -3.0054986 1.8293113 -0.06799098 -0.12923363 -0.15493235 -0.44116274 -1.2933908
0.87542725 2.1211936 -0.729284 0.89142215 -0.44498757 0.9110806 -0.058129605 2.1908286
-0.9563021 -1.1417048 -0.18913464 -0.2581898 -1.3991635 -2.3925838 3.4005175 -0.12745321
0.122095786 0.87994164 -0.37427324 1.5165526 -1.8325895 0.08623106 -1.5748992 -1.9038514
-1.4048702 -0.5167151 1.1536474 -1.1378133 -0.028035283 0.19402684 0.1798654 0.47892106
-0.5013457 7.4072857 -1.0353748 -1.2301139 -0.65867335 -0.38137177 0.6712336 1.1790316
-0.100616775 0.30949867 0.6800212 0.078132704 -1.8735762 0.75710726 -0.12178427 0.026232446
0.75213945 2.8964703 2.875188 0.66115326 0.27324483 -0.3379263 -1.3246928 -1.2135432
-1.7371204 0.3345102 -1.0992389 -0.81261295 -1.0296093 -0.033540998 -0.093098216 -1.840768
2.6078057 -1.6307865 -1.8509209 1.9899571 -0.49289858 -1.5249236 1.089247 -1.7113353
0.57908636 0.38148502 2.4608657 0.8687287 -1.5197872 -2.3556938 1.0396637 -0.4733157
-0.07292749 0.082044125 0.7489751 1.1550063 4.6839414 2.6897583 0.2550619 -0.10668917

conv2.bn1.weight f4 [20]
00000000: 5c80 2d40 61ff f43f e573 703e 282f 2a40
00000010: dc7f d03f 75c5 d93f b557 d63f 7a5e de3f
00000020: f5f9 783f 8613 1840 f4d6 3140 83fe a83f
00000030: 70de 863f 7667 a53f dec8 c43f c8ca 613e
00000040: c476 563f a9c8 3440 2677 b83f cd7e 1240
2.7109594 1.9140435 0.2348171 2.6591282 1.628902 1.7013384 1.6745516 1.7372582
0.97256404 2.3761916 2.7787447 1.3202671 1.0536633 1.2922199 1.53738 0.22050011
0.8377497 2.8247473 1.4411361 2.2889893

conv2.bn1.bias f4 [20]
00000000: 09a6 91be df5a b3be b8c1 0fbf a753 a6bf
00000010: 9224 4abf 785d 39bf d1ca 3c3f dcf2 6dbf
00000020: 1a59 1bbe d431 d2bd af1c d63e 638a 80bf
00000030: 370f ecbe c260 adbf 1077 18bc 2cc8 b1bf
00000040: 694f b7bf 2abf f9be f488 0f3f ea17 96bf
-0.28446987 -0.35030267 -0.56154966 -1.2994279 -0.7896205 -0.72408247 0.73746973 -0.929487
-0.15170708 -0.1026341 0.4181876 -1.0042232 -0.46105358 -1.3545153 -0.00930573 -1.3889213
-1.4321109 -0.4877866 0.5606835 -1.1726048

conv2.bn1.running_mean f4 [20]
00000000: 8885 2dc1 8a69 1ec1 4c6e ecc0 af10 6941
00000010: 592a 9341 db0d 26c0 21ce f940 5e61 ac3e
00000020: 9cf0 adc1 4413 13c0 aabb f4c0 fa36 ca40
00000030: 38b4 15c1 1bf1 72c1 be0b fc41 77f1 d03e
00000040: ff8a d340 d04f 18c1 580d ce3f da4a 8041
-10.8451 -9.900766 -7.388464 14.566573 18.395678 -2.5945957 7.806412 0.33668035
-21.742485 -2.2980509 -7.647908 6.319211 -9.356499 -15.183864 31.505733 0.40809223
6.6107173 -9.519485 1.6097822 16.036549

conv2.bn1.running_var f4 [20]
00000000: 3a77 af42 f4be cf42 24b7 1942 0dd5 8342
00000010: 067f ca42 da46 3a42 4226 2643 d455 5c42
00000020: 40fe b742 3e2d 2c42 8ca1 1343 a0da 9742
00000030: 332b f142 4403 3342 ab00 2743 3067 6942
00000040: fdd3 ec42 7502 5d42 384a 1643 dc0e f241
87.732864 103.872955 38.42885 65.916115 101.24809 46.56919 166.14944 55.083817
91.99658 43.04418 147.63104 75.927 120.58437 44.75319 167.00261 58.35077
118.41404 55.2524 150.28992 30.257256

conv2.conv2.weight f4 [20, 20, 5, 5]
00000000: 261a 0ec0 a975 2cbf 33fb 543f 0433 e3bf
00000010: eb98 17c0 b36a d9bf c06a 033f 5bb5 923f
00000020: a1fe d0bf 1d59 0dc0 9301 67bf d9fd ca3d
00000030: 6ca2 95be 1d79 bdbf d4f1 05c0 caff a63f
00000040: 633a abbd 411c 43c0 4481 90bf 55ba 66bf
00000050: d0b2 983f 8d17 ba3f 9bf8 0ec0 2b65 44bf
00000060: c24a 97be 30ac 1e3e a864 943e bc0d 75bd
00000070: 04c3 b3bf ab68 18c0 1b3e 12bf 1cf1 21bf
00000080: d426 bd3e cd7f a0bf 8208 9abf 7159 86bf
00000090: cbdb a5bf b923 a0bd d3b0 6cbf 5b6e 9ebf
000000a0: 4cf5 b4bf ac74 12c0 0559 35c0 ddda 94bf
000000b0: 6845 8cbf f176 aebe f162 a2be 2cde 4fc0
000000c0: a968 99bf e4d5 87bf 865c 01be e52e db3d
000000d0: 1dd5 2fbe feb5 84be 6dac 473e b990 b23c
000000e0: cf25 8c3e 19f2 59be 77b1 16be 2dc3 f2bc
000000f0: d70c aebd 71b6 993e 5606 c7be b030 a7be
00000100: 9d51 90be 6d61 3cbe b44b 8f3e e980 9dbc
00000110: b15c 323d f6c1 f8be 7607 063f 0166 6e3f
00000120: a789 543f 14e6 c63e b6ef cb3c 1ff4 9d3f
00000130: 680e cfbe d982 783e e67f 80bf 1bec 2bc0
00000140: 8013 e03f 14c1 323e a6d8 0a40 31da 4b3f
00000150: 8221 b3be fe34 0940 6b5f 683f bf15 b5bc
00000160: 806c 21bf 80da 8ebf 2c99 0640 31a7 4f3f
00000170: f44b fb3b 3f53 febd bb30 a4bf edf0 143f
00000180: 321b a6be c230 3bbf efbb 44bf d4e3 54bf
00000190: ea49 0b40 1c73 c73e c619 2b3f 6d29 44bf
000001a0: 28b9 80bf 5dbc cc3f 3a6e 1e3e 115b c03f
000001b0: 5396 5d3e a95b 193f 4509 c53f a3d6 983f
000001c0: 7e6c b83e 1c9c 4abf 04ec ffbe 3a80 e93f
000001d0: 6d7f e83e 4a65 4f3e f8a0 26bf 0bfe 00bf
000001e0: 6193 143f a304 1ebf fbda 8cbe f459 6dbf
000001f0: cae9 0c3e 0355 f6bf 6e54 c8be 9160 0040
00000200: 9f9f c2bf 0c06 3bbf e7c5 debf 94be 60be
00000210: d83a b93f 3ada a6bf 891f 8fbf eea2 e0bc
00000220: e160 8bbf 64cf 173f bcbb 62bf 839a d5bf
00000230: fd23 fd3f 0708 dc3e 5306 e9bf 7caf 0ebf
00000240: a4f3 90bd c75c 893f 8499 833f a01e a5bf
00000250: 1ba2 59bf 2bb6 133f efa0 2a40 5cdd 203f
00000260: e996 a23d d140 05bf 1c6d 34bf 2ae3 c23f
00000270: 8dad 773e c930 15be fc1c 3ebf d537 99be
00000280: 8303 ec3d 2f2d 143f 7ed9 0d3f a9de a5bd
00000290: 7020 01c0 d511 6e3f 449b de3e e281 203e
000002a0: aff8 82bf ce64 e0bf dd86 4d3f 007d 4dbf
000002b0: c7c5 86bf 50ad 39bf 392e 1cbf df22 283f
000002c0: d78b 873f 42b8 9dbe c370 8c3e 6aa8 923e
000002d0: 9f78 233f fc38 723f eaf6 8abf 59dc b83e
000002e0: 3903 b0be 8e1d 18bf 89ef 123f 90ae 28c0
000002f0: 9c02 003f 9673 4bbf 0068 b5bf c4a9 b0bf
00000300: eff1 abbf da60 a93f 807c e03d 77a0 ea3f
00000310: b86e f2bf 2f19 14c0 61f8 1bc0 a3c0 15c0
00000320: 5315 e4bf 6340 533d 8010 9cbe 8b79 2a3e
00000330: 9427 ba3e d4a7 273f cec3 0d40 109a 033f
00000340: 97f1 3a3e 7516 58bf f0a1 553f ebc0 823f
00000350: 5a1e 23c0 fbbc 8dbf 45aa d9bf b816 d93e
00000360: 5860 b93e 6570 7d3e 280b 9f3f cb4e 7cbf
00000370: 1211 2840 3482 b93f 3c46 0240 f470 1d3f
00000380: 18c4 f0be d290 d43f a09c 8e3f 7bd6 2cbf
00000390: 0501 91bb 4bcc b2bf a5e2 f7be e2f5 47be
000003a0: 78e6 a2bf 51bc 43bf 5990 09c0 cf90 9abf
000003b0: 8e8b 10bf c317 2fbf 7036 223f 2679 16c0
000003c0: 8bf9 31c0 2c18 5dc0 3fc8 52bf 618f 28be
000003d0: f61c c0bf 0c58 bbbf f16d 55c0 acc6 48c0
000003e0: 3acf 0ac0 fef8 01c0 02b8 3cc0 7a10 cbbf
000003f0: 4c5d b43d 7987 85bf 1c48 d7be 71dd 0cbf
-2.220346 -0.67367035 0.831958 -1.7749944 -2.3687084 -1.6985687 0.5133476 1.1461595
-1.6327707 -2.208564 -0.9023678 0.09911699 -0.2922548 -1.4802586 -2.092885 1.3046811
-0.08360746 -3.0485995 -1.1289449 -0.9012807 1.1929569 1.4538437 -2.2339237 -0.7671687
-0.29549223 0.15495372 0.28983045 -0.05982755 -1.4043889 -2.3813884 -0.57126015 -0.6325853
0.36943686 -1.2539002 -1.2033846 -1.0496045 -1.29577 -0.078193136 -0.9245731 -1.2377428
-1.4137359 -2.288371 -2.8335583 -1.1629292 -1.0958681 -0.3407512 -0.3171611 -3.2479353
-1.1985065 -1.0612149 -0.12632951 0.10702304 -0.1717114 -0.259201 0.19499369 0.021797525
0.27372596 -0.21283759 -0.14716135 -0.029634083 -0.08498543 0.30022004 -0.3887202 -0.32654333
-0.28187266 -0.1839654 0.27987444 -0.019226508 0.04354543 -0.4858548 0.52355134 0.93124396
0.8302254 0.3884741 0.024894577 1.2340125 -0.4044068 0.24268664 -1.0039032 -2.6862857
1.7505951 0.17456466 2.1694732 0.7962981 -0.34986502 2.1438594 0.90770596 -0.022105096
-0.6305618 -1.1160431 2.1030989 0.8111449 0.0076689664 -0.12418222 -1.2827371 0.58180124
-0.32442623 -0.73121274 -0.76849264 -0.8316014 2.1763864 0.3895501 0.668362 -0.7662571
-1.0056505 1.5994984 0.15471736 1.5027791 0.21639375 0.5990549 1.5393454 1.1940502
0.36020273 -0.79144454 -0.49984753 1.8242257 0.45409718 0.20253482 -0.6508937 -0.5038764
0.5803738 -0.61725825 -0.2751082 -0.9271538 0.13761058 -1.9244694 -0.39126915 2.005894
-1.5204962 -0.730561 -1.7404145 -0.219477 1.4471083 -1.3035347 -1.1181499 -0.02742144
-1.088894 0.5930083 -0.8856771 -1.6687778 1.9776608 0.42974874 -1.8205055 -0.5573652
-0.07077721 1.0731438 1.0281224 -1.2899971 -0.8501298 0.5769984 2.6660726 0.6283777
0.0793894 -0.52052027 -0.7047899 1.5225575 0.24187298 -0.14569391 -0.74262977 -0.2992541
0.11524107 0.57881445 0.5540999 -0.0809911 -2.0176048 0.9299596 0.43477833 0.15674546
-1.0232142 -1.7530763 0.8028391 -0.8026886 -1.0529107 -0.7253008 -0.6100803 0.6567821
1.0589551 -0.3080464 0.2742978 0.28644115 0.6385593 0.946182 -1.0856602 0.36105612
-0.3437746 -0.59420097 0.5739675 -2.6356544 0.5000398 -0.79473245 -1.4172363 -1.3801808
-1.3433207 1.3232682 0.109612465 1.833022 -1.8940039 -2.314037 -2.4370348 -2.3398826
-1.7819008 0.051575076 -0.30481339 0.16647927 0.3635832 0.6549046 2.215076 0.51406956
0.18256222 -0.84409267 0.8345022 1.0215124 -2.5487275 -1.1073297 -1.7005087 0.42400146
0.36206317 0.24749906 1.242528 -0.9855773 2.626042 1.449286 2.0355368 0.6150048
-0.47024608 1.6606696 1.1141548 -0.6751477 -0.0044251704 -1.3968595 -0.48415104 -0.1952739
-1.2726583 -0.76459223 -2.1494353 -1.2075442 -0.56462944 -0.6839563 0.63364315 -2.3511443
-2.780856 -3.4546003 -0.823368 -0.16460945 -1.5008838 -1.4636245 -3.3348353 -3.137126
-2.168898 -2.0308223 -2.948731 -1.5864403 0.088068575 -1.0431968 -0.42047203 -0.5502539

conv2.bn2.weight f4 [20]
00000000: 9970 ee3f d589 4440 9a6b 2540 a549 d23f
00000010: 69f3 3440 ca92 b03f 8365 1b40 bcc6 7340
00000020: fca6 be3f 063f 0740 8611 3e40 b0dc f53f
00000030: a1d2 993f 52ac e63f 8bed af3f 22e8 8e3f
00000040: e48e c33f e504 e43f 1d39 e03f 814b 103f
1.8628112 3.0709126 2.5846925 1.6428725 2.8273566 1.3794796 2.4280708 3.8090048
1.489471 2.1132216 2.9698195 1.9207973 1.2017404 1.8021338 1.3744367 1.1164591
1.5277982 1.7813994 1.751743 0.5636521

conv2.bn2.bias f4 [20]
00000000: eb59 b5bf 2f57 17bf 04ef bdbe 6799 6abd
00000010: 5ebe 43bf 9de7 92be da7a f8be 4c58 243f
00000020: d042 533f bcd8 c6bd 49b0 6fbf 318c 22bf
00000030: 72a6 843e 31f0 85bf 54ea b6bc efd2 623f
00000040: f32e cc3e ea60 0b3e 6122 56bf dcdb 0a3e
-1.4168066 -0.59117407 -0.37096417 -0.057275202 -0.7646235 -0.28692332 -0.48531228 0.6419723
0.8252382 -0.097093076 -0.93628365 -0.63495165 0.25908238 -1.0463926 -0.022328533 0.8860311
0.3987957 0.13611189 -0.8364621 0.13560432

conv2.bn2.running_mean f4 [20]
00000000: 2b3d 4ec2 a465 d3bf e4f7 2cc2 5c5e 6341
00000010: 74ea 2142 6365 ccc1 273c 85c2 b297 dbc1
00000020: b3b1 e3c1 c552 c2c1 82fc b841 104c 2ac2
00000030: b963 f7c0 c8e1 e441 a900 943f 6a5f 1d42
00000040: 5e5f 22c2 38ab 5dc2 528b aac1 d8e5 a840
-51.559734 -1.6515393 -43.24208 14.210537 40.47896 -25.549505 -66.617485 -27.44907
-28.461767 -24.290415 23.123295 -42.57428 -7.730923 28.610245 1.1562701 39.343178
-40.593132 -55.417206 -21.318027 5.278057

conv2.bn2.running_var f4 [20]
00000000: 65c7 1246 60f1 d845 eb70 3946 ac32 9545
00000010: 3df1 d645 2f3b bd45 0db0 fd45 4aa5 0146
00000020: cb5f 0746 6545 8645 d108 b345 30aa 1346
00000030: b33c 7645 f149 cb45 0b31 ad45 c021 d745
00000040: 1cc0 8d45 7010 bc45 7178 b945 9f2a ab45
9393.849 6942.172 11868.2295 4774.334 6878.155 6055.398 8118.0063 8297.322
8663.948 4296.6743 5729.102 9450.547 3939.7937 6505.2427 5542.1304 6884.2188
4536.0137 6018.0547 5935.055 5477.3276

conv2.conv3.weight f4 [20, 20, 1, 1]
00000000: 7db7 a6bf 9bb4 02c0 488e 533f c2ba 023f
00000010: cf44 19c0 726a 0f40 3dfa 0ac0 8d23 bcbf
00000020: fcd8 5e3f 845e d13f a780 80bf 1f44 ffbf
00000030: 4fed c03d 032c 72bf a815 503e c59e 05c0
00000040: 5716 0a3f 73fb 1cbf f984 8b3f ec04 89bf
00000050: 5958 ba3f a9e7 40bf 034d 94bf abcd da3f
00000060: 2a70 63bf c9a8 21c0 76a8 cfbf c266 8fbf
00000070: 58d7 0b3f 5e4c e6be 523e 33bf cf14 c9bf
00000080: a6ee 65bf 0490 14be 10c5 b4bf ffd9 76c0
00000090: 8e19 c8bd ee48 733f 0cb3 b33f 1823 efbf
000000a0: 420c e33f 6d7e dabf 3878 03c0 c125 e73f
000000b0: 5f7f 8fbf 841c 803f 32b1 8ebf b594 27c0
000000c0: 09db 25be ce84 e33f 65da 73bf 92e9 4ebe
000000d0: 7ad6 563f d121 dcbe b81a 7ebe ceb8 983e
000000e0: 97fd 0bbe 7f6a 233f 063d a63f 1f9d 2d3f
000000f0: 99f5 a43f 6951 97bf a1ad 1ec0 8f74 2b3f
00000100: 920e 52bf 7b2c a73e 50e5 d13f 1064 edbf
00000110: 6289 ebbf 893f 4e3f e97e 8abe 8633 f53f
00000120: 3a01 2740 5cef 3a3f 4e6e 7bbe 4539 bb3f
00000130: 3960 003f 4e92 d43e 83dc abbf 0b7a 4d3f
00000140: 6b86 c63f 5d15 bebf c9df b3bf 6b6e cd3f
00000150: 92ba c5bf 5a22 8ebe 4982 cf3f 0f5e 1dc0
00000160: 846d 26bf bb46 ba3e 1ecc 99bf e4a3 413f
00000170: 6177 ab3f d630 0abf af40 8abf b647 6d3f
00000180: 01fc d63f 785a bebe 1aa7 c83e acf6 6abd
00000190: 654b cd3f 1c7b 283f 9ea5 1cbf f458 4b3f
000001a0: 80fe 3bc0 ca8e c7bf 4228 9a3d 1a61 933f
000001b0: ebca f9bf 1074 0fc0 c56f 35c0 5179 11bf
000001c0: 835c e63e 0daf 97bf 3490 163f 28b1 f4bd
000001d0: 7673 cdbf 2ce5 03bf 6118 39c0 edcc 49bf
000001e0: 6eea 1540 c4b4 3ec0 e770 f0bf a63d 923f
000001f0: aaf5 18bf d431 b03e b5f6 15c0 582f e1bf
00000200: 78fa 4ebf a90f b43f 569e a0bf f81c dd3d
00000210: 1e48 e53e 843a 323e 52f5 9cbf 9e51 a3be
00000220: 7b19 c0bf fc9b c33e a103 723f efeb f3be
00000230: 7619 c7bf 1464 05c0 87ed 14bf 9f23 da3f
00000240: b75f 88bf fdb0 9dbd f532 29c0 e529 e7bf
00000250: e217 fdbe 9ce6 bf3f fb38 1dc0 8277 21c0
00000260: fc18 1f3e 7920 a0be 6684 31bf 6f9a 52be
00000270: 6f33 bdbf 08d9 2a3f 6105 5b3f acd1 86bf
00000280: 58c1 8a3f fe59 583c 3052 0d3f b244 383f
00000290: 0794 3cc0 1490 e8be 9412 ac3e 6d3e 3d3f
000002a0: 1f63 fabf c2fa 1bc0 1407 3dc0 8789 663e
000002b0: 8d0d 453f 1e1c 21c0 c68d 793d 2f0b 4bbf
000002c0: d9ca d3bf 576e 46bf d08f 2cc0 4184 0e3f
000002d0: 2739 c13f 6ce1 cfbf b8ec 61c0 bf1d 22bf
000002e0: 94c9 0abd ae63 ea3e 40d5 f03f 5709 4abf
000002f0: 37a3 85c0 5358 4a3f f76c 093e 1563 cf3f
00000300: a26c 883d 8845 7a3d 81dc c23f ce84 1cbf
00000310: 928d b03f 6740 923e 485d efbf d0e8 8ebe
00000320: 8da7 a83f 4113 41bf 2e63 de3e 747f fabf
00000330: 2eb3 b1bf 4cd1 a13e 9d47 c0be 298c 8abf
00000340: c1a0 23bf e4a6 d9bf ea85 38c0 6a49 6e3f
00000350: a48c bb3f f314 2bc0 3aae a9bf 717c f2bf
00000360: ea64 93be 4c00 4abf 7489 95bf 9aac 183e
00000370: f6cb b6bf c542 243d 3e1c e33e bea7 67bf
00000380: 57f4 0ac0 ea75 e63d 7082 1ebb 98d6 913f
00000390: 0328 25bf aa2e 773e 3ea5 99bf ee1d 30bf
000003a0: 6a08 aebd 8424 833c c7b2 91bd d562 3cbf
000003b0: 0705 c1be 704d 1e40 c933 ccbf 7c66 a9bd
000003c0: 0347 a13f 0d19 36bf 24a9 f9bf a240 dbbf
000003d0: 1168 d5be 7ce0 553f 5148 f03e 9c27 113f
000003e0: cfc7 9bbf a9ae c33e 6dc0 95bf 2955 c7bf
000003f0: 6def b7bf 2fdf 98be f95e d43f 775c 913f
-1.3024746 -2.0422733 0.8263898 0.5106622 -2.3948247 2.240872 -2.1715233 -1.4698349
0.8704984 1.6356969 -1.0039262 -1.9942664 0.09420263 -0.94598407 0.20320761 -2.0878155
0.5394034 -0.6132118 1.0899955 -1.0704627 1.4558212 -0.75353485 -1.1586002 1.7094015
-0.88843024 -2.5259268 -1.6223285 -1.1203234 0.54625463 -0.4498014 -0.7001697 -1.5709475
-0.89817274 -0.14508063 -1.4122639 -3.8570554 -0.09770499 0.95033157 1.4039016 -1.8682585
1.7738116 -1.7069832 -2.0542126 1.8058397 -1.1210746 1.0008702 -1.1147826 -2.6184514
-0.16196837 1.7774904 -0.9525512 -0.20206288 0.83921015 -0.4299455 -0.2481488 0.29828495
-0.13670956 0.63834375 1.2987373 0.6781787 1.288745 -1.182172 -2.4793475 0.6697473
-0.8205348 0.32651123 1.6398106 -1.8546162 -1.8401301 0.80565697 -0.2704995 1.9156349
2.6094499 0.73021483 -0.24553797 1.4626852 0.50146824 0.41517872 -1.342667 0.8026435
1.5509771 -1.485027 -1.4052669 1.6049322 -1.5447562 -0.27760583 1.6211635 -2.458866
-0.6501086 0.36382088 -1.2015417 0.756407 1.3395807 -0.5398077 -1.080099 0.9268755
1.6795655 -0.37178397 0.39189988 -0.05736415 1.6038634 0.6581285 -0.6119021 0.79432607
-2.9374084 -1.5590451 0.0752721 1.1514008 -1.9515051 -2.241459 -2.8349469 -0.5682574
0.44992456 -1.1850296 0.58813787 -0.119478524 -1.6050861 -0.51521564 -2.892113 -0.78828317
2.3424335 -2.979783 -1.8784455 1.1425064 -0.59749854 0.34413016 -2.3431828 -1.7592573
-0.80850935 1.4067279 -1.254832 0.10796541 0.44781584 0.17405134 -1.2262366 -0.31898206
-1.5007776 0.38204944 0.9453679 -0.4764094 -1.5554645 -2.0842333 -0.5817494 1.7042121
-1.065421 -0.076997735 -2.6437352 -1.805966 -0.49432284 1.4992251 -2.4566028 -2.5229192
0.15536875 -0.31274775 -0.6934265 -0.20566724 -1.4781321 0.66737413 0.8555508 -1.0532737
1.0840254 0.01320505 0.55203533 0.7197982 -2.9465349 -0.45422423 0.33607924 0.7392338
-1.9561499 -2.43718 -2.953557 0.225134 0.769738 -2.5173411 0.06092622 -0.7931394
-1.6546279 -0.77512115 -2.6962776 0.55670553 1.5095567 -1.6240668 -3.5300732 -0.6332664
-0.033883646 0.45779175 1.8815079 -0.789205 -4.1761737 0.7904102 0.13420473 1.6202112
0.06661345 0.061101466 1.5223542 -0.61140144 1.3793204 0.2856476 -1.8700342 -0.27911997
1.3176132 -0.75420004 0.43435043 -1.9570146 -1.3882806 0.31604993 -0.37554637 -1.0824023
-0.63917166 -1.7004056 -2.8831735 0.9308077 1.4652295 -2.6731536 -1.3256295 -1.8944227
-0.2878793 -0.78906703 -1.1682572 0.14909592 -1.4280994 0.04010274 0.44357485 -0.9049033
-2.1711633 0.11252959 -0.0024186634 1.1393614 -0.6451418 0.24138895 -1.2003553 -0.6879567
-0.084976986 0.016008623 -0.07114177 -0.73588306 -0.37699148 2.4734764 -1.5953304 -0.082715005
1.2599796 -0.71131974 -1.9504743 -1.7129099 -0.4168096 0.8354566 0.46930173 0.56701064
-1.2170352 0.38219193 -1.1699349 -1.5572864 -1.4369942 -0.29857776 1.6591483 1.1356343

conv2.bn3.weight f4 [20]
00000000: 9cdf 9e3e 76cb 093f 3007 0d3e 1d44 943e
00000010: 31fa b23e 0cdc 023f 96a9 c03e c3c4 bd3e
00000020: 7a1a ef3e e4ec 903e df9a 0e3f a70a 173e
00000030: eb22 2f3e c649 2d3f bc02 d63e eb06 c73e
00000040: c837 ac3e d8ae ea3e 28d6 1a3f ae1a ac3e
0.31029975 0.5382608 0.13772273 0.28958216 0.34956506 0.51117015 0.37629384 0.3706418
0.46699888 0.28305733 0.55705065 0.14750157 0.17103164 0.67690694 0.4179896 0.38872465
0.33636308 0.4583652 0.60483027 0.33614105

conv2.bn3.bias f4 [20]
00000000: 4de2 06be 7c8e 77be f5bd 9ebe e48f 2cbe
00000010: 4cce 0bbe 0cd7 88be bdeb 32be 762e 86be
00000020: 07b6 54be a2ba 34be 81a9 a4be d548 05bf
00000030: 6e89 e8be ec28 b9be 2855 d5be 683a 60be
00000040: dfc0 60be 1da6 6bbe 25e6 71be 9832 5ebe
-0.13172264 -0.24175447 -0.310043 -0.16851765 -0.13652915 -0.26726568 -0.1747274 -0.26207322
-0.20772563 -0.1764932 -0.3216057 -0.5206426 -0.4541735 -0.36164033 -0.41666532 -0.2189728
-0.21948574 -0.23012586 -0.2362295 -0.21698987

conv2.bn3.running_mean f4 [20]
00000000: c741 e9c0 f210 1fc1 b17f b6c0 6122 21c0
00000010: b7c8 9ac0 9780 09c1 83b2 1bc1 bcd5 25c1
00000020: fc66 15c1 218a d6c0 81df 31c1 f485 a8bf
00000030: 7ca0 14c0 b127 0ec1 1e6c 51c0 0b37 25c1
00000040: 1a13 2cc1 0bf5 96c0 ca2a 22c1 50e8 90c0
-7.2892795 -9.941637 -5.7030873 -2.5177233 -4.8370013 -8.593894 -9.731082 -10.364681
-9.337643 -6.7043614 -11.117066 -1.3165879 -2.3222952 -8.88469 -3.272224 -10.325938
-10.754663 -4.7174125 -10.135447 -4.5283585

conv2.bn3.running_var f4 [20]
00000000: 9be4 8542 8140 a742 cfc5 9142 5af2 5742
00000010: 11ad ab42 0ca6 dd42 2b78 9d42 50ea 8b42
00000020: 3aaa 0243 b574 8042 937e d742 49e1 4142
00000030: 442b 0442 f8b8 0343 34f9 5a42 a592 9b42
00000040: 7491 c942 c146 b542 c1a4 c642 9d49 8d42
66.946495 83.625984 72.886345 53.98667 85.83802 110.82431 78.7347 69.95764
130.66495 64.22794 107.747215 48.470005 33.04225 131.72253 54.743362 77.786415
100.78409 90.63819 99.321785 70.643776

conv2.convG.weight f4 [20, 10, 1, 1]
00000000: 32ca df3e 49f4 03c0 20b9 463f 12ca a0be
00000010: 614f 05bf bf1e 7b3f 1ddf 0d40 edd1 933e
00000020: fded a4bf 2a95 6f3e 3506 333f e9de c43f
00000030: 5eb7 68c0 dd28 8a3f fb9a 15be ee33 d0be
00000040: 9a9a cf3e b7de 0c3f 29d0 ce3d 1f0d cb3f
00000050: 2812 57c0 0efe e2bf c402 263f 1c55 603e
00000060: bd53 0fbe a322 5e3f 2069 113f c7d7 1d3f
00000070: 8cd7 e8bf cd6c a6be a2e4 37bf 2d10 5ec0
00000080: f23c d93f 4f95 a63b fafb dfbf 2658 54bf
00000090: 4e24 e13f 101f d93d da80 a83e 1222 bcbc
000000a0: 310f 02c0 2e69 34c0 6855 eebe 64ce 463f
000000b0: 06af 7ebf 84c1 42bf 1921 bd3f 36fb 97be
000000c0: 9a49 f6bd 2dcc 653f 445e e13e fdc4 a33f
000000d0: 92fb a6c0 1032 203f f6f7 1ebf 2bec 84bf
000000e0: defd bdbe 1a86 d8bf 40b0 5f3f 1e66 75be
000000f0: 95ae d1be e7e4 c0bf 7ede a33f 3681 2ac0
00000100: 1457 173f 25d6 a53e aefe 2c3f a8bd 0bbf
00000110: 570f 423f e251 3ac0 3b76 b3bf f586 03c0
00000120: 2822 503f b8f4 c3bf ce07 f7bd c6b5 8a3f
00000130: b3a4 733f 559d 9e3f 3f6e 723f 62d5 81bf
00000140: d4bd 893f 06f3 cb3f 75c8 86c0 a095 8f3f
00000150: 5af0 143f 6865 de3e 7e06 d0bd 75a6 b0be
00000160: 5bb3 903f a7c1 0d3f d6ea 44bf 3f16 fbbf
00000170: 9dc3 aa3f 9a13 cebf d0ed 47bf c36f 82bf
00000180: 461c f93e b585 a73e fff0 783e 6016 31c0
00000190: 65a0 a13f 2e12 bcbb 68eb 59c0 69bc 00c0
000001a0: b8e1 653f 7101 243f 2f92 9d3d 1310 35be
000001b0: c32f e2be 0865 ddbf 9db6 06bf de8e 94bf
000001c0: 10a7 f03e ac41 37c0 5b31 12bf d30d 6fbf
000001d0: 1767 943f b9fc a3bd c448 3dbf 8d17 68bf
000001e0: 745e 61bf 596b f1bf fd53 b13d b261 0cbf
000001f0: 673a 6cbf 7161 c7bf 58c7 5b3e 9558 e7bf
00000200: 3b50 bbbe 9a3e 053e c092 a33f d278 2a3f
00000210: c660 80c0 4395 ed3e d057 a33f f1c3 5f3f
00000220: e1d3 a0bf d733 cebf 3a3f ec3f d7ff 213e
00000230: dd54 0c3e da11 cabe 3ac6 383f 23a5 8ac0
00000240: aa5f a8bf 8851 05c0 7ddf 653f 7f6a 8ebf
00000250: 351e edbc 9d85 44be d261 97c0 c2dd 9abf
00000260: bc86 aabc c148 723e 540f adbe d3c9 8e3f
00000270: a65f 8a3e db0b 5fbf 2cba 6b3f b384 eebe
00000280: 7071 1cc0 9828 66c0 0591 493f 1538 c8bd
00000290: 3f8b ba3b 1675 a93d fd06 443f dd2e 6cbf
000002a0: 6bf1 d0be 20df 93bd a2b8 c9c0 0203 3dbf
000002b0: aef2 1b3f efcc b93e 2845 95bf a4c5 af3e
000002c0: 3f6f e3bd a1ac 9e3f 8d8e 0c3f dad1 56be
000002d0: d2cc 3c3f 8173 083f 50df 3ec0 2b1c f8bf
000002e0: c8e2 bdbe 67d8 74bf d3e9 f23f 32c8 afbf
000002f0: bc46 80bf bb2e 60bf bfc8 413e ed2c 38c0
00000300: fd82 603f 0276 35be aaba 9abf 6e8a d8bf
00000310: 745c 533f 7950 0e3f b95f 603f 9294 b8bf
0.4370895 -2.061785 0.7762623 -0.31404167 -0.5207425 0.9809379 2.2167428 0.28871098
-1.2885128 0.23396745 0.69931346 1.5380527 -3.6361918 1.079372 -0.14609902 -0.4066462
0.4054764 0.55027336 0.10098297 1.5863379 -3.3604832 -1.7733781 0.6484797 0.21907467
-0.13996787 0.867716 0.56801033 0.61657375 -1.819078 -0.32504883 -0.7183324 -3.4697373
1.6971724 0.005083717 -1.7498772 -0.82947004 1.7589204 0.10601628 0.32910806 -0.022965465
-2.0321772 -2.8189197 -0.46549535 0.7765868 -0.99485815 -0.7607653 1.4775726 -0.29683846
-0.12025757 0.8976467 0.4401723 1.2794491 -5.2182093 0.6257639 -0.6209711 -1.0384573
-0.37107748 -1.6915925 0.8737831 -0.23964736 -0.40953508 -1.5069855 1.2802274 -2.6641364
0.59117246 0.32389942 0.6757611 -0.5458627 0.75804657 -2.9112477 -1.4020456 -2.0551121
0.8130212 -1.5309057 -0.120620355 1.0836723 0.95173186 1.2391764 0.9469947 -1.0143244
1.0761056 1.593354 -4.21197 1.1217537 0.5817925 0.43436742 -0.10157488 -0.34501997
1.1304735 0.55373615 -0.7692083 -1.9616164 1.3340946 -1.6099732 -0.7809725 -1.0190357
0.48654383 0.32719198 0.24310683 -2.7669907 1.2627074 -0.005739472 -3.404993 -2.0114996
0.89797544 0.640647 0.07693898 -0.17681913 -0.44177064 -1.7296457 -0.52622396 -1.16061
0.4700246 -2.8633833 -0.5710656 -0.9338047 1.159396 -0.080071874 -0.73939157 -0.90660936
-0.8803475 -1.8860885 0.086585976 -0.5483657 -0.92276615 -1.5576612 0.21462762 -1.8073908
-0.36584648 0.13012162 1.277916 0.6659061 -4.011813 0.4640294 1.2761173 0.8740836
-1.256466 -1.610957 1.8456795 0.15820251 0.13704248 -0.39466745 0.7217747 -4.3326583
-1.3154194 -2.0831013 0.8979414 -1.112625 -0.028945068 -0.19191594 -4.730691 -1.2098925
-0.0208162 0.23660566 -0.33800757 1.1155342 0.270261 -0.87127465 0.9208095 -0.46585616
-2.4444237 -3.5962276 0.7873691 -0.09776322 0.005692869 0.082742855 0.76573163 -0.9225901
-0.40809187 -0.07220292 -6.303788 -0.73832715 0.60917175 0.36289164 -1.166173 0.34330475
-0.11105203 1.2396432 0.54905015 -0.2097849 0.7375003 0.53301245 -2.98238 -1.9383596
-0.37087083 -0.95642704 1.8977607 -1.373297 -1.0021586 -0.87571305 0.18924235 -2.877742
0.8769987 -0.17720798 -1.2088215 -1.6917245 0.8256295 0.5559154 0.8764606 -1.442034

conv2.bnG.weight f4 [20]
00000000: 0ab5 933d 7c02 f03b f991 db3d 7138 483e
00000010: 7c48 043e e607 593e 0fac 083e 11aa 0c3e
00000020: a012 223e f816 6f3e 12c1 373e e442 8a3e
00000030: 0a02 953e 02ca 033e 99bf 9d3e b0c1 113e
00000040: 30a3 0e3e 7549 003e fb55 60bd 3cd4 773e
0.07212265 0.007324515 0.107212014 0.1955278 0.12918276 0.2119442 0.13346885 0.1373675
0.15827417 0.23348606 0.17944744 0.27004158 0.29103118 0.12870029 0.3081024 0.14234042
0.13929439 0.12528022 -0.054769497 0.24202055

conv2.bnG.bias f4 [20]
00000000: 4de2 06be 7c8e 77be f5bd 9ebe e48f 2cbe
00000010: 4cce 0bbe 0cd7 88be bdeb 32be 762e 86be
00000020: 07b6 54be a2ba 34be 81a9 a4be d548 05bf
00000030: 6e89 e8be ec28 b9be 2855 d5be 683a 60be
00000040: dfc0 60be 1da6 6bbe 25e6 71be 9832 5ebe
-0.13172264 -0.24175447 -0.310043 -0.16851765 -0.13652915 -0.26726568 -0.1747274 -0.26207322
-0.20772563 -0.1764932 -0.3216057 -0.5206426 -0.4541735 -0.36164033 -0.41666532 -0.2189728
-0.21948574 -0.23012586 -0.2362295 -0.21698987

conv2.bnG.running_mean f4 [20]
00000000: 0784 aa40 6c68 6dc0 6d5c b5bf ee4d 91c0
00000010: c640 00c1 a8bd 61c1 98f5 5dbf 3241 1c40
00000020: 2a91 c1be 712a 11c1 1dac c7c0 6ea6 16c1
00000030: 5d98 4dc1 3a7c 2bbf 1175 6fc1 42fe dabe
00000040: 33ad 9ac0 8dce 9ec0 e48c 31c1 394e 1ec1
5.3286166 -3.7094984 -1.4168831 -4.540763 -8.015814 -14.108803 -0.8670287 2.4414792
-0.37806064 -9.072862 -6.23976 -9.415632 -12.849698 -0.6698643 -14.966081 -0.42772108
-4.8336425 -4.9627137 -11.096897 -9.894097

conv2.bnG.running_var f4 [20]
00000000: 1015 9a42 b67d 1a43 2cb7 3f43 bae0 a443
00000010: d59e 5643 0a4c da42 cd70 4543 cadb 2243
00000020: db7a 4143 9c0d 7543 6124 8a42 b0a6 0f43
00000030: 53fe f842 0a1f 0d43 1243 3e43 138d 6a43
00000040: 134f aa43 81d7 a143 60e8 4b42 ba11 5a43
77.04114 154.49106 191.71552 329.75568 214.62044 109.14851 197.44063 162.85855
193.4799 245.05316 69.07105 143.65112 124.49673 141.12125 190.262 234.55107
340.61777 323.68362 50.97693 218.06924

fc1.weight f4 [50, 980]
00000000: f2a4 c7be 9b65 83bf 8d6b a7bd 53c3 5c3e
00000010: dbe8 3ebf 73b0 22bf a0e4 f8bc 50e3 1b3f
00000020: 4d49 89be faa6 c23c 4957 703f fcf5 30be
00000030: 6039 c2bf 919d ccbf e209 13be 7446 53bf
00000040: 3311 45c0 1f5b 23bf 4961 20bf 89d5 b4bf
00000050: 8a6c 4ebf f0f9 acbe b8ef e5be 4646 ad3f
00000060: bba9 a73e a747 efbf 4f90 2cc0 1afb 393e
00000070: bd33 47bf bca7 7cbf 56da 883f b63c 043f
00000080: c73c 0fc0 e636 b5bf dcf5 203f ecf2 373f
00000090: 9b19 b7bf 8d19 5c3f 5fa7 013f bc5b d1bf
000000a0: ae39 bebf 9a70 a73e b66d 653f a401 33be
000000b0: 9b6a c43f b5f3 893e 55dd e43e aba3 a9be
000000c0: 7ca4 b53f f2be e2be 0f60 42bf 9383 643f
000000d0: 0231 8d3e 4d0c 303e 3aa0 013f 7b09 11bf
000000e0: 2f00 e83f 612f dd3e bd17 3dbe 5ced df3e
000000f0: ab15 7c3e bb52 1cbf e96a 7bbf 90c8 733d
00000100: b232 61bf ddca 43bd e046 223d cce1 09bf
00000110: 06f8 06c0 f3e3 96bf 8ce1 683d 1332 97bf
00000120: e54d bfbf 4539 cebf 2785 24c0 6f2f 0fc0
00000130: 5bc4 8d3f 1dd1 afbf d77f f0bf 8eae dcbf
00000140: d23a 9bbe 0145 00c0 6398 43c0 0953 2d3f
00000150: 60c0 28be b0a9 c23e d228 abbe 1a70 cabf
00000160: e14e 03c0 87e1 e4bf e896 433f e61e 203f
00000170: c11a 12c0 0590 83be 1412 fdbe fce7 2f3f
00000180: bed3 823f c5bb fabb 1595 153e 3416 3cbe
00000190: 6d45 5b3f 202b 133d fb0b f73e 5103 1a3f
000001a0: ed65 88bf 19d2 92be 0cf5 ebbe 6c4f 903f
000001b0: 682e 2e3f 40b2 913e 00d8 dd3e 1252 6ebf
000001c0: 47c9 bbbe 8f4a ddbf 1022 9bbf a899 18bf
000001d0: 9b24 7dbf a30a 12c0 77a6 e7be dca3 eabf
000001e0: 74af 3dc0 1a9c 803f b4f9 363f 1dda 9ebe
000001f0: 8fc3 92c0 8492 34bf 81e0 b03e 2cc4 c7bf
00000200: 90c2 fa3d 4ee6 4c3f 2473 c1be 0128 1dc0
00000210: af82 6ebf 1011 003f 8f88 a4be ed02 8b3f
00000220: b34d 8bbe 320e c23e 51a4 ac3f 08bf 54be
00000230: 2a22 da3f 91b2 ddbe 416a e7be b9e2 97be
00000240: 311d 8bbc 1b90 5b3e c300 ff3e 125a 523f
00000250: adf1 5b3e e8f3 b23e eed3 7a3f a89c 7c3f
00000260: b829 dc3c c80d d53f 431f 20be 2b8f 8dbf
00000270: 382d 46bf 9ec1 7ebe f18c acbf 465e 143f
00000280: 9746 e4be cf85 833f bb95 d3bf ebc5 edbf
00000290: 0346 2cbf 4bb5 88bf a7d3 d5bf fca1 93bd
000002a0: e6d2 bdbe c6f4 75c0 f45d b8bf 5875 8b3f
000002b0: c568 993e e85d 5abf 1261 afbe 6e90 12bf
000002c0: b968 3dbf fef5 a93f 4a29 c1be 0935 363f
000002d0: 3d9b 72bf 38b3 133e 291a e63e 8cad 253f
000002e0: ac66 04bf 78c6 383f dbdc 333f c4a1 37bf
000002f0: dd24 a2bf 5cd9 a23f aba2 a5bc cf3b dc3e
00000300: bd05 3ebe c705 493e c75e 2e3f 74f9 a63f
00000310: f292 943e dd0f a13c 92ed 96be 51e3 7e3e
00000320: f389 5d3f 5ded 82bf 2f8e 323f bf70 a33f
00000330: d1b3 81bf 1c66 85bf a503 a53f 6230 5f3d
00000340: cc6b d6be 6eee ccbf 2975 dbbe 2292 fdbf
00000350: 7129 26c0 bbcb 79bf 93f1 91bc 58d0 f3bf
00000360: d9b9 09bf dad5 123e 47c8 5bc0 82fb b7bf
00000370: 2743 623f 8521 82be 635e 94c0 0fc8 a0be
00000380: 2eaa edbe 538b 6ebf 9ab3 c53e d589 31be
00000390: 3fba 443f 38bb ffbd 4b76 53bf 1b7f 60bc
000003a0: c61e 8e3e b627 b93f 1a6a 353f 0ad9 c33f
000003b0: cb75 77be 4306 ac3e 1062 32be da3b e33e
000003c0: f295 853e ea80 20bf a351 03be 236b 9dbe
000003d0: 70f0 c73e 16bf 64be cbd6 5bbf decf e6bf
000003e0: 6d38 3bbf b066 d4bf 8c86 00bf 2a97 163f
000003f0: 640d 8dbe 9570 27bf 6c3e a9bf 2b1b a4bf
-0.3899303 -1.0265383 -0.081748106 0.21558885 -0.7457406 -0.6355049 -0.030382454 0.60893726
-0.26813737 0.023761261 0.93883187 -0.17281336 -1.517376 -1.5985585 -0.14359239 -0.8252938
-3.0791748 -0.63810915 -0.62648445 -1.4127666 -0.8063437 -0.33784437 -0.44909453 1.3537071
0.32746682 -1.8693742 -2.696308 0.18162194 -0.7781332 -0.9869344 1.0691631 0.5165514
-2.2380846 -1.4157379 0.6287515 0.71855044 -1.4304689 0.8597649 0.50646013 -1.635612
-1.4861352 0.32703096 0.8962053 -0.17481095 1.5345033 0.26943746 0.44700113 -0.3313268
1.4190822 -0.44286305 -0.75927824 0.89263266 0.27576452 0.17192192 0.5063511 -0.5665509
1.8125056 0.4320021 -0.18466087 0.43735778 0.2461764 -0.61063737 -0.98210007 0.059517443
-0.8796798 -0.047800887 0.039618373 -0.53860164 -2.1088881 -1.1788315 0.056855723 -1.1812156
-1.4945647 -1.6111227 -2.570627 -2.23727 1.1075548 -1.3735691 -1.8789014 -1.724077
-0.30318314 -2.0042117 -3.056176 0.67704827 -0.16479635 0.38020086 -0.3342958 -1.5815461
-2.0516894 -1.7881325 0.7640214 0.6254715 -2.282883 -0.25695816 -0.49427855 0.68713355
1.0220869 -0.0076517784 0.14607652 -0.18367845 0.8565281 0.0359298 0.48251328 0.6016131
-1.0656105 -0.28675917 -0.46085393 1.1274238 0.6803956 0.28456306 0.43328857 -0.9309398
-0.36677 -1.7288378 -1.211977 -0.5960946 -0.9888398 -2.2818992 -0.4524419 -1.8331256
-2.9638338 1.0047638 0.71474767 -0.31025782 -4.586372 -0.70536065 0.34546283 -1.5606742
0.12244141 0.8003892 -0.37783158 -2.4555666 -0.9316816 0.50026035 -0.32135436 1.0860268
-0.27207717 0.37901455 1.3487645 -0.20775998 1.7041676 -0.43300298 -0.45198253 -0.29665163
-0.016981693 0.2144169 0.4980527 0.82168686 0.2147891 0.3495171 0.9797963 0.9867654
0.026875362 1.6644831 -0.15636925 -1.1059316 -0.7741275 -0.24878547 -1.3480512 0.5795635
-0.44585106 1.027521 -1.6530069 -1.8576025 -0.6729433 -1.0680326 -1.6705216 -0.072086304
-0.37074965 -3.8430648 -1.4403672 1.0895185 0.29962745 -0.8529954 -0.34253746 -0.5725163
-0.7398792 1.3278196 -0.37726814 0.71174675 -0.94768125 0.14423835 0.44941834 0.64717937
-0.51719165 0.7217784 0.70258874 -0.7173121 -1.26675 1.2722583 -0.020219168 0.4301438
-0.18556876 0.1963111 0.6811337 1.3044877 0.2901836 0.019660885 -0.29478127 0.24891402
0.8653862 -1.0228688 0.69748205 1.2768782 -1.0133001 -1.0421786 1.2891737 0.0544895
-0.41879117 -1.6010263 -0.42862824 -1.9810221 -2.5962794 -0.97576493 -0.017815387 -1.9047956
-0.53799206 0.1433939 -3.434099 -1.4373629 0.88383716 -0.25416198 -4.636522 -0.31402633
-0.464189 -0.9318134 0.38613588 -0.17337735 0.7684669 -0.12486881 -0.82602376 -0.013702179
0.27757853 1.4465244 0.70865023 1.530061 -0.24166028 0.33598527 -0.1742022 0.443816
0.26090962 -0.6269671 -0.1282411 -0.307458 0.39050627 -0.22338519 -0.85874623 -1.8032186
-0.73132974 -1.6593838 -0.502053 0.5882441 -0.2754928 -0.6540616 -1.3222175 -1.2820791

fc1.bias f4 [50]
00000000: 1706 8fbe 32a7 b53e 7666 c03e 9a43 343f
00000010: b37a 8e3f f18a 043f d638 ef3e ebb3 0dbf
00000020: c90b c43f e304 1b3e 1052 42bd 5686 923f
00000030: 9f3d 5e3f fbd5 07bd 4be9 39be f892 91be
00000040: 67bb 593f 76ad a03f d78d 853e a402 223d
00000050: d384 67be aeaa 873e 5dc4 f33e 5a2f 833f
00000060: 8442 603f 143d c73e 272b 0dbe 2da8 f7bd
00000070: 9041 3d3f e61e 963f 675b bebe 7918 443f
00000080: 2c63 ed3a 9255 d43c b180 80bd 78b2 42be
00000090: ab16 b2bd 9e3a a83f 47c4 563f 7b63 8a3f
000000a0: fc0c 9e3f d48b 84bd 724f 833f 78a0 24bf
000000b0: 90ad c43d b9e8 003f 3c27 fdbe 6f1b 9b3f
000000c0: 7cea e33c bb23 723f
-0.27934334 0.35479122 0.37578171 0.7041565 1.1131195 0.5177451 0.4672305 -0.5535266
1.5316097 0.15138583 -0.047441542 1.1447246 0.86812776 -0.033163052 -0.181554 -0.2843244
0.8505158 1.2552936 0.26084778 0.0395533 -0.22609262 0.26497406 0.4761075 1.0248826
0.87601495 0.38913786 -0.13785993 -0.12092624 0.73928165 1.172818 -0.3717911 0.7659984
0.001811122 0.02591971 -0.06274546 -0.19013393 -0.0869573 1.3142889 0.83893245 1.0811609
1.2347713 -0.064719826 1.025862 -0.64307356 0.09603417 0.50355107 -0.49443996 1.2117747
0.027821772 0.9458577
